…
W0731 08:39:38.320379 30983 _caffe.cpp:123] Use this instead (with the named "weights" parameter):
W0731 08:39:38.320384 30983 _caffe.cpp:125] Net('./py-R-FCN/model/test_agonistic_face.prototxt', 1, weights='./py-R-FCN/model/resnet101_rfcn_ohem_iter_40000.caffemodel')
I0731 08:39:38.387892 30983 net.cpp:58] Initializing net from parameters: 
name: "ResNet-101"
state {
  phase: TEST
  level: 0
}
layer {
  name: "input"
  type: "Input"
  top: "data"
  top: "im_info"
  input_param {
    shape {
      dim: 1
      dim: 3
      dim: 224
      dim: 224
    }
    shape {
      dim: 1
      dim: 3
    }
  }
}
layer {
  name: "conv1"
  type: "Convolution"
  bottom: "data"
  top: "conv1"
  param {
    lr_mult: 0
  }
  convolution_param {
    num_output: 64
    bias_term: false
    pad: 3
    kernel_size: 7
    stride: 2
  }
}
layer {
  name: "bn_conv1"
  type: "BatchNorm"
  bottom: "conv1"
  top: "conv1"
  param {
    lr_mult: 0
    decay_mult: 0
  }
  param {
    lr_mult: 0
    decay_mult: 0
  }
  param {
    lr_mult: 0
    decay_mult: 0
  }
  batch_norm_param {
    use_global_stats: true
  }
}
layer {
  name: "scale_conv1"
  type: "Scale"
  bottom: "conv1"
  top: "conv1"
  param {
    lr_mult: 0
    decay_mult: 0
  }
  param {
    lr_mult: 0
    decay_mult: 0
  }
  scale_param {
    bias_term: true
  }
}
layer {
  name: "conv1_relu"
  type: "ReLU"
  bottom: "conv1"
  top: "conv1"
}
layer {
  name: "pool1"
  type: "Pooling"
  bottom: "conv1"
  top: "pool1"
  pooling_param {
    pool: MAX
    kernel_size: 3
    stride: 2
  }
}
layer {
  name: "res2a_branch1"
  type: "Convolution"
  bottom: "pool1"
  top: "res2a_branch1"
  param {
    lr_mult: 0
  }
  convolution_param {
    num_output: 256
    bias_term: false
    pad: 0
    kernel_size: 1
    stride: 1
  }
}
layer {
  name: "bn2a_branch1"
  type: "BatchNorm"
  bottom: "res2a_branch1"
  top: "res2a_branch1"
  param {
    lr_mult: 0
    decay_mult: 0
  }
  param {
    lr_mult: 0
    decay_mult: 0
  }
  param {
    lr_mult: 0
    decay_mult: 0
  }
  batch_norm_param {
    use_global_stats: true
  }
}
layer {
  name: "scale2a_branch1"
  type: "Scale"
  bottom: "res2a_branch1"
  top: "res2a_branch1"
  param {
    lr_mult: 0
    decay_mult: 0
  }
  param {
    lr_mult: 0
    decay_mult: 0
  }
  scale_param {
    bias_term: true
  }
}
layer {
  name: "res2a_branch2a"
  type: "Convolution"
  bottom: "pool1"
  top: "res2a_branch2a"
  param {
    lr_mult: 0
  }
  convolution_param {
    num_output: 64
    bias_term: false
    pad: 0
    kernel_size: 1
    stride: 1
  }
}
layer {
  name: "bn2a_branch2a"
  type: "BatchNorm"
  bottom: "res2a_branch2a"
  top: "res2a_branch2a"
  param {
    lr_mult: 0
    decay_mult: 0
  }
  param {
    lr_mult: 0
    decay_mult: 0
  }
  param {
    lr_mult: 0
    decay_mult: 0
  }
  batch_norm_param {
    use_global_stats: true
  }
}
layer {
  name: "scale2a_branch2a"
  type: "Scale"
  bottom: "res2a_branch2a"
  top: "res2a_branch2a"
  param {
    lr_mult: 0
    decay_mult: 0
  }
  param {
    lr_mult: 0
    decay_mult: 0
  }
  scale_param {
    bias_term: true
  }
}
layer {
  name: "res2a_branch2a_relu"
  type: "ReLU"
  bottom: "res2a_branch2a"
  top: "res2a_branch2a"
}
layer {
  name: "res2a_branch2b"
  type: "Convolution"
  bottom: "res2a_branch2a"
  top: "res2a_branch2b"
  param {
    lr_mult: 0
  }
  convolution_param {
    num_output: 64
    bias_term: false
    pad: 1
    kernel_size: 3
    stride: 1
  }
}
layer {
  name: "bn2a_branch2b"
  type: "BatchNorm"
  bottom: "res2a_branch2b"
  top: "res2a_branch2b"
  param {
    lr_mult: 0
    decay_mult: 0
  }
  param {
    lr_mult: 0
    decay_mult: 0
  }
  param {
    lr_mult: 0
    decay_mult: 0
  }
  batch_norm_param {
    use_global_stats: true
  }
}
layer {
  name: "scale2a_branch2b"
  type: "Scale"
  bottom: "res2a_branch2b"
  top: "res2a_branch2b"
  param {
    lr_mult: 0
    decay_mult: 0
  }
  param {
    lr_mult: 0
    decay_mult: 0
  }
  scale_param {
    bias_term: true
  }
}
layer {
  name: "res2a_branch2b_relu"
  type: "ReLU"
  bottom: "res2a_branch2b"
  top: "res2a_branch2b"
}
layer {
  name: "res2a_branch2c"
  type: "Convolution"
  bottom: "res2a_branch2b"
  top: "res2a_branch2c"
  param {
    lr_mult: 0
  }
  convolution_param {
    num_output: 256
    bias_term: false
    pad: 0
    kernel_size: 1
    stride: 1
  }
}
layer {
  name: "bn2a_branch2c"
  type: "BatchNorm"
  bottom: "res2a_branch2c"
  top: "res2a_branch2c"
  param {
    lr_mult: 0
    decay_mult: 0
  }
  param {
    lr_mult: 0
    decay_mult: 0
  }
  param {
    lr_mult: 0
    decay_mult: 0
  }
  batch_norm_param {
    use_global_stats: true
  }
}
layer {
  name: "scale2a_branch2c"
  type: "Scale"
  bottom: "res2a_branch2c"
  top: "res2a_branch2c"
  param {
    lr_mult: 0
    decay_mult: 0
  }
  param {
    lr_mult: 0
    decay_mult: 0
  }
  scale_param {
    bias_term: true
  }
}
layer {
  name: "res2a"
  type: "Eltwise"
  bottom: "res2a_branch1"
  bottom: "res2a_branch2c"
  top: "res2a"
}
layer {
  name: "res2a_relu"
  type: "ReLU"
  bottom: "res2a"
  top: "res2a"
}
layer {
  name: "res2b_branch2a"
  type: "Convolution"
  bottom: "res2a"
  top: "res2b_branch2a"
  param {
    lr_mult: 0
  }
  convolution_param {
    num_output: 64
    bias_term: false
    pad: 0
    kernel_size: 1
    stride: 1
  }
}
layer {
  name: "bn2b_branch2a"
  type: "BatchNorm"
  bottom: "res2b_branch2a"
  top: "res2b_branch2a"
  param {
    lr_mult: 0
    decay_mult: 0
  }
  param {
    lr_mult: 0
    decay_mult: 0
  }
  param {
    lr_mult: 0
    decay_mult: 0
  }
  batch_norm_param {
    use_global_stats: true
  }
}
layer {
  name: "scale2b_branch2a"
  type: "Scale"
  bottom: "res2b_branch2a"
  top: "res2b_branch2a"
  param {
    lr_mult: 0
    decay_mult: 0
  }
  param {
    lr_mult: 0
    decay_mult: 0
  }
  scale_param {
    bias_term: true
  }
}
layer {
  name: "res2b_branch2a_relu"
  type: "ReLU"
  bottom: "res2b_branch2a"
  top: "res2b_branch2a"
}
layer {
  name: "res2b_branch2b"
  type: "Convolution"
  bottom: "res2b_branch2a"
  top: "res2b_branch2b"
  param {
    lr_mult: 0
  }
  convolution_param {
    num_output: 64
    bias_term: false
    pad: 1
    kernel_size: 3
    stride: 1
  }
}
layer {
  name: "bn2b_branch2b"
  type: "BatchNorm"
  bottom: "res2b_branch2b"
  top: "res2b_branch2b"
  param {
    lr_mult: 0
    decay_mult: 0
  }
  param {
    lr_mult: 0
    decay_mult: 0
  }
  param {
    lr_mult: 0
    decay_mult: 0
  }
  batch_norm_param {
    use_global_stats: true
  }
}
layer {
  name: "scale2b_branch2b"
  type: "Scale"
  bottom: "res2b_branch2b"
  top: "res2b_branch2b"
  param {
    lr_mult: 0
    decay_mult: 0
  }
  param {
    lr_mult: 0
    decay_mult: 0
  }
  scale_param {
    bias_term: true
  }
}
layer {
  name: "res2b_branch2b_relu"
  type: "ReLU"
  bottom: "res2b_branch2b"
  top: "res2b_branch2b"
}
layer {
  name: "res2b_branch2c"
  type: "Convolution"
  bottom: "res2b_branch2b"
  top: "res2b_branch2c"
  param {
    lr_mult: 0
  }
  convolution_param {
    num_output: 256
    bias_term: false
    pad: 0
    kernel_size: 1
    stride: 1
  }
}
layer {
  name: "bn2b_branch2c"
  type: "BatchNorm"
  bottom: "res2b_branch2c"
  top: "res2b_branch2c"
  param {
    lr_mult: 0
    decay_mult: 0
  }
  param {
    lr_mult: 0
    decay_mult: 0
  }
  param {
    lr_mult: 0
    decay_mult: 0
  }
  batch_norm_param {
    use_global_stats: true
  }
}
layer {
  name: "scale2b_branch2c"
  type: "Scale"
  bottom: "res2b_branch2c"
  top: "res2b_branch2c"
  param {
    lr_mult: 0
    decay_mult: 0
  }
  param {
    lr_mult: 0
    decay_mult: 0
  }
  scale_param {
    bias_term: true
  }
}
layer {
  name: "res2b"
  type: "Eltwise"
  bottom: "res2a"
  bottom: "res2b_branch2c"
  top: "res2b"
}
layer {
  name: "res2b_relu"
  type: "ReLU"
  bottom: "res2b"
  top: "res2b"
}
layer {
  name: "res2c_branch2a"
  type: "Convolution"
  bottom: "res2b"
  top: "res2c_branch2a"
  param {
    lr_mult: 0
  }
  convolution_param {
    num_output: 64
    bias_term: false
    pad: 0
    kernel_size: 1
    stride: 1
  }
}
layer {
  name: "bn2c_branch2a"
  type: "BatchNorm"
  bottom: "res2c_branch2a"
  top: "res2c_branch2a"
  param {
    lr_mult: 0
    decay_mult: 0
  }
  param {
    lr_mult: 0
    decay_mult: 0
  }
  param {
    lr_mult: 0
    decay_mult: 0
  }
  batch_norm_param {
    use_global_stats: true
  }
}
layer {
  name: "scale2c_branch2a"
  type: "Scale"
  bottom: "res2c_branch2a"
  top: "res2c_branch2a"
  param {
    lr_mult: 0
    decay_mult: 0
  }
  param {
    lr_mult: 0
    decay_mult: 0
  }
  scale_param {
    bias_term: true
  }
}
layer {
  name: "res2c_branch2a_relu"
  type: "ReLU"
  bottom: "res2c_branch2a"
  top: "res2c_branch2a"
}
layer {
  name: "res2c_branch2b"
  type: "Convolution"
  bottom: "res2c_branch2a"
  top: "res2c_branch2b"
  param {
    lr_mult: 0
  }
  convolution_param {
    num_output: 64
    bias_term: false
    pad: 1
    kernel_size: 3
    stride: 1
  }
}
layer {
  name: "bn2c_branch2b"
  type: "BatchNorm"
  bottom: "res2c_branch2b"
  top: "res2c_branch2b"
  param {
    lr_mult: 0
    decay_mult: 0
  }
  param {
    lr_mult: 0
    decay_mult: 0
  }
  param {
    lr_mult: 0
    decay_mult: 0
  }
  batch_norm_param {
    use_global_stats: true
  }
}
layer {
  name: "scale2c_branch2b"
  type: "Scale"
  bottom: "res2c_branch2b"
  top: "res2c_branch2b"
  param {
    lr_mult: 0
    decay_mult: 0
  }
  param {
    lr_mult: 0
    decay_mult: 0
  }
  scale_param {
    bias_term: true
  }
}
layer {
  name: "res2c_branch2b_relu"
  type: "ReLU"
  bottom: "res2c_branch2b"
  top: "res2c_branch2b"
}
layer {
  name: "res2c_branch2c"
  type: "Convolution"
  bottom: "res2c_branch2b"
  top: "res2c_branch2c"
  param {
    lr_mult: 0
  }
  convolution_param {
    num_output: 256
    bias_term: false
    pad: 0
    kernel_size: 1
    stride: 1
  }
}
layer {
  name: "bn2c_branch2c"
  type: "BatchNorm"
  bottom: "res2c_branch2c"
  top: "res2c_branch2c"
  param {
    lr_mult: 0
    decay_mult: 0
  }
  param {
    lr_mult: 0
    decay_mult: 0
  }
  param {
    lr_mult: 0
    decay_mult: 0
  }
  batch_norm_param {
    use_global_stats: true
  }
}
layer {
  name: "scale2c_branch2c"
  type: "Scale"
  bottom: "res2c_branch2c"
  top: "res2c_branch2c"
  param {
    lr_mult: 0
    decay_mult: 0
  }
  param {
    lr_mult: 0
    decay_mult: 0
  }
  scale_param {
    bias_term: true
  }
}
layer {
  name: "res2c"
  type: "Eltwise"
  bottom: "res2b"
  bottom: "res2c_branch2c"
  top: "res2c"
}
layer {
  name: "res2c_relu"
  type: "ReLU"
  bottom: "res2c"
  top: "res2c"
}
layer {
  name: "res3a_branch1"
  type: "Convolution"
  bottom: "res2c"
  top: "res3a_branch1"
  param {
    lr_mult: 1
  }
  convolution_param {
    num_output: 512
    bias_term: false
    pad: 0
    kernel_size: 1
    stride: 2
  }
}
layer {
  name: "bn3a_branch1"
  type: "BatchNorm"
  bottom: "res3a_branch1"
  top: "res3a_branch1"
  param {
    lr_mult: 0
    decay_mult: 0
  }
  param {
    lr_mult: 0
    decay_mult: 0
  }
  param {
    lr_mult: 0
    decay_mult: 0
  }
  batch_norm_param {
    use_global_stats: true
  }
}
layer {
  name: "scale3a_branch1"
  type: "Scale"
  bottom: "res3a_branch1"
  top: "res3a_branch1"
  param {
    lr_mult: 0
    decay_mult: 0
  }
  param {
    lr_mult: 0
    decay_mult: 0
  }
  scale_param {
    bias_term: true
  }
}
layer {
  name: "res3a_branch2a"
  type: "Convolution"
  bottom: "res2c"
  top: "res3a_branch2a"
  param {
    lr_mult: 1
  }
  convolution_param {
    num_output: 128
    bias_term: false
    pad: 0
    kernel_size: 1
    stride: 2
  }
}
layer {
  name: "bn3a_branch2a"
  type: "BatchNorm"
  bottom: "res3a_branch2a"
  top: "res3a_branch2a"
  param {
    lr_mult: 0
    decay_mult: 0
  }
  param {
    lr_mult: 0
    decay_mult: 0
  }
  param {
    lr_mult: 0
    decay_mult: 0
  }
  batch_norm_param {
    use_global_stats: true
  }
}
layer {
  name: "scale3a_branch2a"
  type: "Scale"
  bottom: "res3a_branch2a"
  top: "res3a_branch2a"
  param {
    lr_mult: 0
    decay_mult: 0
  }
  param {
    lr_mult: 0
    decay_mult: 0
  }
  scale_param {
    bias_term: true
  }
}
layer {
  name: "res3a_branch2a_relu"
  type: "ReLU"
  bottom: "res3a_branch2a"
  top: "res3a_branch2a"
}
layer {
  name: "res3a_branch2b"
  type: "Convolution"
  bottom: "res3a_branch2a"
  top: "res3a_branch2b"
  param {
    lr_mult: 1
  }
  convolution_param {
    num_output: 128
    bias_term: false
    pad: 1
    kernel_size: 3
    stride: 1
  }
}
layer {
  name: "bn3a_branch2b"
  type: "BatchNorm"
  bottom: "res3a_branch2b"
  top: "res3a_branch2b"
  param {
    lr_mult: 0
    decay_mult: 0
  }
  param {
    lr_mult: 0
    decay_mult: 0
  }
  param {
    lr_mult: 0
    decay_mult: 0
  }
  batch_norm_param {
    use_global_stats: true
  }
}
layer {
  name: "scale3a_branch2b"
  type: "Scale"
  bottom: "res3a_branch2b"
  top: "res3a_branch2b"
  param {
    lr_mult: 0
    decay_mult: 0
  }
  param {
    lr_mult: 0
    decay_mult: 0
  }
  scale_param {
    bias_term: true
  }
}
layer {
  name: "res3a_branch2b_relu"
  type: "ReLU"
  bottom: "res3a_branch2b"
  top: "res3a_branch2b"
}
layer {
  name: "res3a_branch2c"
  type: "Convolution"
  bottom: "res3a_branch2b"
  top: "res3a_branch2c"
  param {
    lr_mult: 1
  }
  convolution_param {
    num_output: 512
    bias_term: false
    pad: 0
    kernel_size: 1
    stride: 1
  }
}
layer {
  name: "bn3a_branch2c"
  type: "BatchNorm"
  bottom: "res3a_branch2c"
  top: "res3a_branch2c"
  param {
    lr_mult: 0
    decay_mult: 0
  }
  param {
    lr_mult: 0
    decay_mult: 0
  }
  param {
    lr_mult: 0
    decay_mult: 0
  }
  batch_norm_param {
    use_global_stats: true
  }
}
layer {
  name: "scale3a_branch2c"
  type: "Scale"
  bottom: "res3a_branch2c"
  top: "res3a_branch2c"
  param {
    lr_mult: 0
    decay_mult: 0
  }
  param {
    lr_mult: 0
    decay_mult: 0
  }
  scale_param {
    bias_term: true
  }
}
layer {
  name: "res3a"
  type: "Eltwise"
  bottom: "res3a_branch1"
  bottom: "res3a_branch2c"
  top: "res3a"
}
layer {
  name: "res3a_relu"
  type: "ReLU"
  bottom: "res3a"
  top: "res3a"
}
layer {
  name: "res3b1_branch2a"
  type: "Convolution"
  bottom: "res3a"
  top: "res3b1_branch2a"
  param {
    lr_mult: 1
  }
  convolution_param {
    num_output: 128
    bias_term: false
    pad: 0
    kernel_size: 1
    stride: 1
  }
}
layer {
  name: "bn3b1_branch2a"
  type: "BatchNorm"
  bottom: "res3b1_branch2a"
  top: "res3b1_branch2a"
  param {
    lr_mult: 0
    decay_mult: 0
  }
  param {
    lr_mult: 0
    decay_mult: 0
  }
  param {
    lr_mult: 0
    decay_mult: 0
  }
  batch_norm_param {
    use_global_stats: true
  }
}
layer {
  name: "scale3b1_branch2a"
  type: "Scale"
  bottom: "res3b1_branch2a"
  top: "res3b1_branch2a"
  param {
    lr_mult: 0
    decay_mult: 0
  }
  param {
    lr_mult: 0
    decay_mult: 0
  }
  scale_param {
    bias_term: true
  }
}
layer {
  name: "res3b1_branch2a_relu"
  type: "ReLU"
  bottom: "res3b1_branch2a"
  top: "res3b1_branch2a"
}
layer {
  name: "res3b1_branch2b"
  type: "Convolution"
  bottom: "res3b1_branch2a"
  top: "res3b1_branch2b"
  param {
    lr_mult: 1
  }
  convolution_param {
    num_output: 128
    bias_term: false
    pad: 1
    kernel_size: 3
    stride: 1
  }
}
layer {
  name: "bn3b1_branch2b"
  type: "BatchNorm"
  bottom: "res3b1_branch2b"
  top: "res3b1_branch2b"
  param {
    lr_mult: 0
    decay_mult: 0
  }
  param {
    lr_mult: 0
    decay_mult: 0
  }
  param {
    lr_mult: 0
    decay_mult: 0
  }
  batch_norm_param {
    use_global_stats: true
  }
}
layer {
  name: "scale3b1_branch2b"
  type: "Scale"
  bottom: "res3b1_branch2b"
  top: "res3b1_branch2b"
  param {
    lr_mult: 0
    decay_mult: 0
  }
  param {
    lr_mult: 0
    decay_mult: 0
  }
  scale_param {
    bias_term: true
  }
}
layer {
  name: "res3b1_branch2b_relu"
  type: "ReLU"
  bottom: "res3b1_branch2b"
  top: "res3b1_branch2b"
}
layer {
  name: "res3b1_branch2c"
  type: "Convolution"
  bottom: "res3b1_branch2b"
  top: "res3b1_branch2c"
  param {
    lr_mult: 1
  }
  convolution_param {
    num_output: 512
    bias_term: false
    pad: 0
    kernel_size: 1
    stride: 1
  }
}
layer {
  name: "bn3b1_branch2c"
  type: "BatchNorm"
  bottom: "res3b1_branch2c"
  top: "res3b1_branch2c"
  param {
    lr_mult: 0
    decay_mult: 0
  }
  param {
    lr_mult: 0
    decay_mult: 0
  }
  param {
    lr_mult: 0
    decay_mult: 0
  }
  batch_norm_param {
    use_global_stats: true
  }
}
layer {
  name: "scale3b1_branch2c"
  type: "Scale"
  bottom: "res3b1_branch2c"
  top: "res3b1_branch2c"
  param {
    lr_mult: 0
    decay_mult: 0
  }
  param {
    lr_mult: 0
    decay_mult: 0
  }
  scale_param {
    bias_term: true
  }
}
layer {
  name: "res3b1"
  type: "Eltwise"
  bottom: "res3a"
  bottom: "res3b1_branch2c"
  top: "res3b1"
}
layer {
  name: "res3b1_relu"
  type: "ReLU"
  bottom: "res3b1"
  top: "res3b1"
}
layer {
  name: "res3b2_branch2a"
  type: "Convolution"
  bottom: "res3b1"
  top: "res3b2_branch2a"
  param {
    lr_mult: 1
  }
  convolution_param {
    num_output: 128
    bias_term: false
    pad: 0
    kernel_size: 1
    stride: 1
  }
}
layer {
  name: "bn3b2_branch2a"
  type: "BatchNorm"
  bottom: "res3b2_branch2a"
  top: "res3b2_branch2a"
  param {
    lr_mult: 0
    decay_mult: 0
  }
  param {
    lr_mult: 0
    decay_mult: 0
  }
  param {
    lr_mult: 0
    decay_mult: 0
  }
  batch_norm_param {
    use_global_stats: true
  }
}
layer {
  name: "scale3b2_branch2a"
  type: "Scale"
  bottom: "res3b2_branch2a"
  top: "res3b2_branch2a"
  param {
    lr_mult: 0
    decay_mult: 0
  }
  param {
    lr_mult: 0
    decay_mult: 0
  }
  scale_param {
    bias_term: true
  }
}
layer {
  name: "res3b2_branch2a_relu"
  type: "ReLU"
  bottom: "res3b2_branch2a"
  top: "res3b2_branch2a"
}
layer {
  name: "res3b2_branch2b"
  type: "Convolution"
  bottom: "res3b2_branch2a"
  top: "res3b2_branch2b"
  param {
    lr_mult: 1
  }
  convolution_param {
    num_output: 128
    bias_term: false
    pad: 1
    kernel_size: 3
    stride: 1
  }
}
layer {
  name: "bn3b2_branch2b"
  type: "BatchNorm"
  bottom: "res3b2_branch2b"
  top: "res3b2_branch2b"
  param {
    lr_mult: 0
    decay_mult: 0
  }
  param {
    lr_mult: 0
    decay_mult: 0
  }
  param {
    lr_mult: 0
    decay_mult: 0
  }
  batch_norm_param {
    use_global_stats: true
  }
}
layer {
  name: "scale3b2_branch2b"
  type: "Scale"
  bottom: "res3b2_branch2b"
  top: "res3b2_branch2b"
  param {
    lr_mult: 0
    decay_mult: 0
  }
  param {
    lr_mult: 0
    decay_mult: 0
  }
  scale_param {
    bias_term: true
  }
}
layer {
  name: "res3b2_branch2b_relu"
  type: "ReLU"
  bottom: "res3b2_branch2b"
  top: "res3b2_branch2b"
}
layer {
  name: "res3b2_branch2c"
  type: "Convolution"
  bottom: "res3b2_branch2b"
  top: "res3b2_branch2c"
  param {
    lr_mult: 1
  }
  convolution_param {
    num_output: 512
    bias_term: false
    pad: 0
    kernel_size: 1
    stride: 1
  }
}
layer {
  name: "bn3b2_branch2c"
  type: "BatchNorm"
  bottom: "res3b2_branch2c"
  top: "res3b2_branch2c"
  param {
    lr_mult: 0
    decay_mult: 0
  }
  param {
    lr_mult: 0
    decay_mult: 0
  }
  param {
    lr_mult: 0
    decay_mult: 0
  }
  batch_norm_param {
    use_global_stats: true
  }
}
layer {
  name: "scale3b2_branch2c"
  type: "Scale"
  bottom: "res3b2_branch2c"
  top: "res3b2_branch2c"
  param {
    lr_mult: 0
    decay_mult: 0
  }
  param {
    lr_mult: 0
    decay_mult: 0
  }
  scale_param {
    bias_term: true
  }
}
layer {
  name: "res3b2"
  type: "Eltwise"
  bottom: "res3b1"
  bottom: "res3b2_branch2c"
  top: "res3b2"
}
layer {
  name: "res3b2_relu"
  type: "ReLU"
  bottom: "res3b2"
  top: "res3b2"
}
layer {
  name: "res3b3_branch2a"
  type: "Convolution"
  bottom: "res3b2"
  top: "res3b3_branch2a"
  param {
    lr_mult: 1
  }
  convolution_param {
    num_output: 128
    bias_term: false
    pad: 0
    kernel_size: 1
    stride: 1
  }
}
layer {
  name: "bn3b3_branch2a"
  type: "BatchNorm"
  bottom: "res3b3_branch2a"
  top: "res3b3_branch2a"
  param {
    lr_mult: 0
    decay_mult: 0
  }
  param {
    lr_mult: 0
    decay_mult: 0
  }
  param {
    lr_mult: 0
    decay_mult: 0
  }
  batch_norm_param {
    use_global_stats: true
  }
}
layer {
  name: "scale3b3_branch2a"
  type: "Scale"
  bottom: "res3b3_branch2a"
  top: "res3b3_branch2a"
  param {
    lr_mult: 0
    decay_mult: 0
  }
  param {
    lr_mult: 0
    decay_mult: 0
  }
  scale_param {
    bias_term: true
  }
}
layer {
  name: "res3b3_branch2a_relu"
  type: "ReLU"
  bottom: "res3b3_branch2a"
  top: "res3b3_branch2a"
}
layer {
  name: "res3b3_branch2b"
  type: "Convolution"
  bottom: "res3b3_branch2a"
  top: "res3b3_branch2b"
  param {
    lr_mult: 1
  }
  convolution_param {
    num_output: 128
    bias_term: false
    pad: 1
    kernel_size: 3
    stride: 1
  }
}
layer {
  name: "bn3b3_branch2b"
  type: "BatchNorm"
  bottom: "res3b3_branch2b"
  top: "res3b3_branch2b"
  param {
    lr_mult: 0
    decay_mult: 0
  }
  param {
    lr_mult: 0
    decay_mult: 0
  }
  param {
    lr_mult: 0
    decay_mult: 0
  }
  batch_norm_param {
    use_global_stats: true
  }
}
layer {
  name: "scale3b3_branch2b"
  type: "Scale"
  bottom: "res3b3_branch2b"
  top: "res3b3_branch2b"
  param {
    lr_mult: 0
    decay_mult: 0
  }
  param {
    lr_mult: 0
    decay_mult: 0
  }
  scale_param {
    bias_term: true
  }
}
layer {
  name: "res3b3_branch2b_relu"
  type: "ReLU"
  bottom: "res3b3_branch2b"
  top: "res3b3_branch2b"
}
layer {
  name: "res3b3_branch2c"
  type: "Convolution"
  bottom: "res3b3_branch2b"
  top: "res3b3_branch2c"
  param {
    lr_mult: 1
  }
  convolution_param {
    num_output: 512
    bias_term: false
    pad: 0
    kernel_size: 1
    stride: 1
  }
}
layer {
  name: "bn3b3_branch2c"
  type: "BatchNorm"
  bottom: "res3b3_branch2c"
  top: "res3b3_branch2c"
  param {
    lr_mult: 0
    decay_mult: 0
  }
  param {
    lr_mult: 0
    decay_mult: 0
  }
  param {
    lr_mult: 0
    decay_mult: 0
  }
  batch_norm_param {
    use_global_stats: true
  }
}
layer {
  name: "scale3b3_branch2c"
  type: "Scale"
  bottom: "res3b3_branch2c"
  top: "res3b3_branch2c"
  param {
    lr_mult: 0
    decay_mult: 0
  }
  param {
    lr_mult: 0
    decay_mult: 0
  }
  scale_param {
    bias_term: true
  }
}
layer {
  name: "res3b3"
  type: "Eltwise"
  bottom: "res3b2"
  bottom: "res3b3_branch2c"
  top: "res3b3"
}
layer {
  name: "res3b3_relu"
  type: "ReLU"
  bottom: "res3b3"
  top: "res3b3"
}
layer {
  name: "res4a_branch1"
  type: "Convolution"
  bottom: "res3b3"
  top: "res4a_branch1"
  param {
    lr_mult: 1
  }
  convolution_param {
    num_output: 1024
    bias_term: false
    pad: 0
    kernel_size: 1
    stride: 2
  }
}
layer {
  name: "bn4a_branch1"
  type: "BatchNorm"
  bottom: "res4a_branch1"
  top: "res4a_branch1"
  param {
    lr_mult: 0
    decay_mult: 0
  }
  param {
    lr_mult: 0
    decay_mult: 0
  }
  param {
    lr_mult: 0
    decay_mult: 0
  }
  batch_norm_param {
    use_global_stats: true
  }
}
layer {
  name: "scale4a_branch1"
  type: "Scale"
  bottom: "res4a_branch1"
  top: "res4a_branch1"
  param {
    lr_mult: 0
    decay_mult: 0
  }
  param {
    lr_mult: 0
    decay_mult: 0
  }
  scale_param {
    bias_term: true
  }
}
layer {
  name: "res4a_branch2a"
  type: "Convolution"
  bottom: "res3b3"
  top: "res4a_branch2a"
  param {
    lr_mult: 1
  }
  convolution_param {
    num_output: 256
    bias_term: false
    pad: 0
    kernel_size: 1
    stride: 2
  }
}
layer {
  name: "bn4a_branch2a"
  type: "BatchNorm"
  bottom: "res4a_branch2a"
  top: "res4a_branch2a"
  param {
    lr_mult: 0
    decay_mult: 0
  }
  param {
    lr_mult: 0
    decay_mult: 0
  }
  param {
    lr_mult: 0
    decay_mult: 0
  }
  batch_norm_param {
    use_global_stats: true
  }
}
layer {
  name: "scale4a_branch2a"
  type: "Scale"
  bottom: "res4a_branch2a"
  top: "res4a_branch2a"
  param {
    lr_mult: 0
    decay_mult: 0
  }
  param {
    lr_mult: 0
    decay_mult: 0
  }
  scale_param {
    bias_term: true
  }
}
layer {
  name: "res4a_branch2a_relu"
  type: "ReLU"
  bottom: "res4a_branch2a"
  top: "res4a_branch2a"
}
layer {
  name: "res4a_branch2b"
  type: "Convolution"
  bottom: "res4a_branch2a"
  top: "res4a_branch2b"
  param {
    lr_mult: 1
  }
  convolution_param {
    num_output: 256
    bias_term: false
    pad: 1
    kernel_size: 3
    stride: 1
  }
}
layer {
  name: "bn4a_branch2b"
  type: "BatchNorm"
  bottom: "res4a_branch2b"
  top: "res4a_branch2b"
  param {
    lr_mult: 0
    decay_mult: 0
  }
  param {
    lr_mult: 0
    decay_mult: 0
  }
  param {
    lr_mult: 0
    decay_mult: 0
  }
  batch_norm_param {
    use_global_stats: true
  }
}
layer {
  name: "scale4a_branch2b"
  type: "Scale"
  bottom: "res4a_branch2b"
  top: "res4a_branch2b"
  param {
    lr_mult: 0
    decay_mult: 0
  }
  param {
    lr_mult: 0
    decay_mult: 0
  }
  scale_param {
    bias_term: true
  }
}
layer {
  name: "res4a_branch2b_relu"
  type: "ReLU"
  bottom: "res4a_branch2b"
  top: "res4a_branch2b"
}
layer {
  name: "res4a_branch2c"
  type: "Convolution"
  bottom: "res4a_branch2b"
  top: "res4a_branch2c"
  param {
    lr_mult: 1
  }
  convolution_param {
    num_output: 1024
    bias_term: false
    pad: 0
    kernel_size: 1
    stride: 1
  }
}
layer {
  name: "bn4a_branch2c"
  type: "BatchNorm"
  bottom: "res4a_branch2c"
  top: "res4a_branch2c"
  param {
    lr_mult: 0
    decay_mult: 0
  }
  param {
    lr_mult: 0
    decay_mult: 0
  }
  param {
    lr_mult: 0
    decay_mult: 0
  }
  batch_norm_param {
    use_global_stats: true
  }
}
layer {
  name: "scale4a_branch2c"
  type: "Scale"
  bottom: "res4a_branch2c"
  top: "res4a_branch2c"
  param {
    lr_mult: 0
    decay_mult: 0
  }
  param {
    lr_mult: 0
    decay_mult: 0
  }
  scale_param {
    bias_term: true
  }
}
layer {
  name: "res4a"
  type: "Eltwise"
  bottom: "res4a_branch1"
  bottom: "res4a_branch2c"
  top: "res4a"
}
layer {
  name: "res4a_relu"
  type: "ReLU"
  bottom: "res4a"
  top: "res4a"
}
layer {
  name: "res4b1_branch2a"
  type: "Convolution"
  bottom: "res4a"
  top: "res4b1_branch2a"
  param {
    lr_mult: 1
  }
  convolution_param {
    num_output: 256
    bias_term: false
    pad: 0
    kernel_size: 1
    stride: 1
  }
}
layer {
  name: "bn4b1_branch2a"
  type: "BatchNorm"
  bottom: "res4b1_branch2a"
  top: "res4b1_branch2a"
  param {
    lr_mult: 0
    decay_mult: 0
  }
  param {
    lr_mult: 0
    decay_mult: 0
  }
  param {
    lr_mult: 0
    decay_mult: 0
  }
  batch_norm_param {
    use_global_stats: true
  }
}
layer {
  name: "scale4b1_branch2a"
  type: "Scale"
  bottom: "res4b1_branch2a"
  top: "res4b1_branch2a"
  param {
    lr_mult: 0
    decay_mult: 0
  }
  param {
    lr_mult: 0
    decay_mult: 0
  }
  scale_param {
    bias_term: true
  }
}
layer {
  name: "res4b1_branch2a_relu"
  type: "ReLU"
  bottom: "res4b1_branch2a"
  top: "res4b1_branch2a"
}
layer {
  name: "res4b1_branch2b"
  type: "Convolution"
  bottom: "res4b1_branch2a"
  top: "res4b1_branch2b"
  param {
    lr_mult: 1
  }
  convolution_param {
    num_output: 256
    bias_term: false
    pad: 1
    kernel_size: 3
    stride: 1
  }
}
layer {
  name: "bn4b1_branch2b"
  type: "BatchNorm"
  bottom: "res4b1_branch2b"
  top: "res4b1_branch2b"
  param {
    lr_mult: 0
    decay_mult: 0
  }
  param {
    lr_mult: 0
    decay_mult: 0
  }
  param {
    lr_mult: 0
    decay_mult: 0
  }
  batch_norm_param {
    use_global_stats: true
  }
}
layer {
  name: "scale4b1_branch2b"
  type: "Scale"
  bottom: "res4b1_branch2b"
  top: "res4b1_branch2b"
  param {
    lr_mult: 0
    decay_mult: 0
  }
  param {
    lr_mult: 0
    decay_mult: 0
  }
  scale_param {
    bias_term: true
  }
}
layer {
  name: "res4b1_branch2b_relu"
  type: "ReLU"
  bottom: "res4b1_branch2b"
  top: "res4b1_branch2b"
}
layer {
  name: "res4b1_branch2c"
  type: "Convolution"
  bottom: "res4b1_branch2b"
  top: "res4b1_branch2c"
  param {
    lr_mult: 1
  }
  convolution_param {
    num_output: 1024
    bias_term: false
    pad: 0
    kernel_size: 1
    stride: 1
  }
}
layer {
  name: "bn4b1_branch2c"
  type: "BatchNorm"
  bottom: "res4b1_branch2c"
  top: "res4b1_branch2c"
  param {
    lr_mult: 0
    decay_mult: 0
  }
  param {
    lr_mult: 0
    decay_mult: 0
  }
  param {
    lr_mult: 0
    decay_mult: 0
  }
  batch_norm_param {
    use_global_stats: true
  }
}
layer {
  name: "scale4b1_branch2c"
  type: "Scale"
  bottom: "res4b1_branch2c"
  top: "res4b1_branch2c"
  param {
    lr_mult: 0
    decay_mult: 0
  }
  param {
    lr_mult: 0
    decay_mult: 0
  }
  scale_param {
    bias_term: true
  }
}
layer {
  name: "res4b1"
  type: "Eltwise"
  bottom: "res4a"
  bottom: "res4b1_branch2c"
  top: "res4b1"
}
layer {
  name: "res4b1_relu"
  type: "ReLU"
  bottom: "res4b1"
  top: "res4b1"
}
layer {
  name: "res4b2_branch2a"
  type: "Convolution"
  bottom: "res4b1"
  top: "res4b2_branch2a"
  param {
    lr_mult: 1
  }
  convolution_param {
    num_output: 256
    bias_term: false
    pad: 0
    kernel_size: 1
    stride: 1
  }
}
layer {
  name: "bn4b2_branch2a"
  type: "BatchNorm"
  bottom: "res4b2_branch2a"
  top: "res4b2_branch2a"
  param {
    lr_mult: 0
    decay_mult: 0
  }
  param {
    lr_mult: 0
    decay_mult: 0
  }
  param {
    lr_mult: 0
    decay_mult: 0
  }
  batch_norm_param {
    use_global_stats: true
  }
}
layer {
  name: "scale4b2_branch2a"
  type: "Scale"
  bottom: "res4b2_branch2a"
  top: "res4b2_branch2a"
  param {
    lr_mult: 0
    decay_mult: 0
  }
  param {
    lr_mult: 0
    decay_mult: 0
  }
  scale_param {
    bias_term: true
  }
}
layer {
  name: "res4b2_branch2a_relu"
  type: "ReLU"
  bottom: "res4b2_branch2a"
  top: "res4b2_branch2a"
}
layer {
  name: "res4b2_branch2b"
  type: "Convolution"
  bottom: "res4b2_branch2a"
  top: "res4b2_branch2b"
  param {
    lr_mult: 1
  }
  convolution_param {
    num_output: 256
    bias_term: false
    pad: 1
    kernel_size: 3
    stride: 1
  }
}
layer {
  name: "bn4b2_branch2b"
  type: "BatchNorm"
  bottom: "res4b2_branch2b"
  top: "res4b2_branch2b"
  param {
    lr_mult: 0
    decay_mult: 0
  }
  param {
    lr_mult: 0
    decay_mult: 0
  }
  param {
    lr_mult: 0
    decay_mult: 0
  }
  batch_norm_param {
    use_global_stats: true
  }
}
layer {
  name: "scale4b2_branch2b"
  type: "Scale"
  bottom: "res4b2_branch2b"
  top: "res4b2_branch2b"
  param {
    lr_mult: 0
    decay_mult: 0
  }
  par
I0731 08:39:38.389606 30983 layer_factory.hpp:77] Creating layer input
I0731 08:39:38.389624 30983 net.cpp:100] Creating Layer input
I0731 08:39:38.389632 30983 net.cpp:418] input -> data
I0731 08:39:38.389652 30983 net.cpp:418] input -> im_info
I0731 08:39:48.651835 30983 net.cpp:150] Setting up input
I0731 08:39:48.651897 30983 net.cpp:157] Top shape: 1 3 224 224 (150528)
I0731 08:39:48.651906 30983 net.cpp:157] Top shape: 1 3 (3)
I0731 08:39:48.651911 30983 net.cpp:165] Memory required for data: 602124
I0731 08:39:48.651921 30983 layer_factory.hpp:77] Creating layer conv1
I0731 08:39:48.651942 30983 net.cpp:100] Creating Layer conv1
I0731 08:39:48.651949 30983 net.cpp:444] conv1 <- data
I0731 08:39:48.651962 30983 net.cpp:418] conv1 -> conv1
I0731 08:39:49.936215 30983 net.cpp:150] Setting up conv1
I0731 08:39:49.936260 30983 net.cpp:157] Top shape: 1 64 112 112 (802816)
I0731 08:39:49.936269 30983 net.cpp:165] Memory required for data: 3813388
I0731 08:39:49.936288 30983 layer_factory.hpp:77] Creating layer bn_conv1
I0731 08:39:49.936306 30983 net.cpp:100] Creating Layer bn_conv1
I0731 08:39:49.936313 30983 net.cpp:444] bn_conv1 <- conv1
I0731 08:39:49.936322 30983 net.cpp:405] bn_conv1 -> conv1 (in-place)
I0731 08:39:49.948638 30983 net.cpp:150] Setting up bn_conv1
I0731 08:39:49.948669 30983 net.cpp:157] Top shape: 1 64 112 112 (802816)
I0731 08:39:49.948675 30983 net.cpp:165] Memory required for data: 7024652
I0731 08:39:49.948688 30983 layer_factory.hpp:77] Creating layer scale_conv1
I0731 08:39:49.948704 30983 net.cpp:100] Creating Layer scale_conv1
I0731 08:39:49.948710 30983 net.cpp:444] scale_conv1 <- conv1
I0731 08:39:49.948724 30983 net.cpp:405] scale_conv1 -> conv1 (in-place)
I0731 08:39:49.948786 30983 layer_factory.hpp:77] Creating layer scale_conv1
I0731 08:39:49.948925 30983 net.cpp:150] Setting up scale_conv1
I0731 08:39:49.948935 30983 net.cpp:157] Top shape: 1 64 112 112 (802816)
I0731 08:39:49.948940 30983 net.cpp:165] Memory required for data: 10235916
I0731 08:39:49.948948 30983 layer_factory.hpp:77] Creating layer conv1_relu
I0731 08:39:49.948957 30983 net.cpp:100] Creating Layer conv1_relu
I0731 08:39:49.948962 30983 net.cpp:444] conv1_relu <- conv1
I0731 08:39:49.948967 30983 net.cpp:405] conv1_relu -> conv1 (in-place)
I0731 08:39:49.949196 30983 net.cpp:150] Setting up conv1_relu
I0731 08:39:49.949209 30983 net.cpp:157] Top shape: 1 64 112 112 (802816)
I0731 08:39:49.949214 30983 net.cpp:165] Memory required for data: 13447180
I0731 08:39:49.949219 30983 layer_factory.hpp:77] Creating layer pool1
I0731 08:39:49.949229 30983 net.cpp:100] Creating Layer pool1
I0731 08:39:49.949234 30983 net.cpp:444] pool1 <- conv1
I0731 08:39:49.949239 30983 net.cpp:418] pool1 -> pool1
I0731 08:39:49.949288 30983 net.cpp:150] Setting up pool1
I0731 08:39:49.949297 30983 net.cpp:157] Top shape: 1 64 56 56 (200704)
I0731 08:39:49.949301 30983 net.cpp:165] Memory required for data: 14249996
I0731 08:39:49.949306 30983 layer_factory.hpp:77] Creating layer pool1_pool1_0_split
I0731 08:39:49.949316 30983 net.cpp:100] Creating Layer pool1_pool1_0_split
I0731 08:39:49.949321 30983 net.cpp:444] pool1_pool1_0_split <- pool1
I0731 08:39:49.949327 30983 net.cpp:418] pool1_pool1_0_split -> pool1_pool1_0_split_0
I0731 08:39:49.949337 30983 net.cpp:418] pool1_pool1_0_split -> pool1_pool1_0_split_1
I0731 08:39:49.949388 30983 net.cpp:150] Setting up pool1_pool1_0_split
I0731 08:39:49.949396 30983 net.cpp:157] Top shape: 1 64 56 56 (200704)
I0731 08:39:49.949403 30983 net.cpp:157] Top shape: 1 64 56 56 (200704)
I0731 08:39:49.949406 30983 net.cpp:165] Memory required for data: 15855628
I0731 08:39:49.949414 30983 layer_factory.hpp:77] Creating layer res2a_branch1
I0731 08:39:49.949425 30983 net.cpp:100] Creating Layer res2a_branch1
I0731 08:39:49.949430 30983 net.cpp:444] res2a_branch1 <- pool1_pool1_0_split_0
I0731 08:39:49.949439 30983 net.cpp:418] res2a_branch1 -> res2a_branch1
I0731 08:39:49.955864 30983 net.cpp:150] Setting up res2a_branch1
I0731 08:39:49.955883 30983 net.cpp:157] Top shape: 1 256 56 56 (802816)
I0731 08:39:49.955888 30983 net.cpp:165] Memory required for data: 19066892
I0731 08:39:49.955898 30983 layer_factory.hpp:77] Creating layer bn2a_branch1
I0731 08:39:49.955907 30983 net.cpp:100] Creating Layer bn2a_branch1
I0731 08:39:49.955914 30983 net.cpp:444] bn2a_branch1 <- res2a_branch1
I0731 08:39:49.955920 30983 net.cpp:405] bn2a_branch1 -> res2a_branch1 (in-place)
I0731 08:39:49.956849 30983 net.cpp:150] Setting up bn2a_branch1
I0731 08:39:49.956866 30983 net.cpp:157] Top shape: 1 256 56 56 (802816)
I0731 08:39:49.956871 30983 net.cpp:165] Memory required for data: 22278156
I0731 08:39:49.956883 30983 layer_factory.hpp:77] Creating layer scale2a_branch1
I0731 08:39:49.956893 30983 net.cpp:100] Creating Layer scale2a_branch1
I0731 08:39:49.956898 30983 net.cpp:444] scale2a_branch1 <- res2a_branch1
I0731 08:39:49.956905 30983 net.cpp:405] scale2a_branch1 -> res2a_branch1 (in-place)
I0731 08:39:49.956953 30983 layer_factory.hpp:77] Creating layer scale2a_branch1
I0731 08:39:49.957068 30983 net.cpp:150] Setting up scale2a_branch1
I0731 08:39:49.957078 30983 net.cpp:157] Top shape: 1 256 56 56 (802816)
I0731 08:39:49.957082 30983 net.cpp:165] Memory required for data: 25489420
I0731 08:39:49.957090 30983 layer_factory.hpp:77] Creating layer res2a_branch2a
I0731 08:39:49.957103 30983 net.cpp:100] Creating Layer res2a_branch2a
I0731 08:39:49.957109 30983 net.cpp:444] res2a_branch2a <- pool1_pool1_0_split_1
I0731 08:39:49.957128 30983 net.cpp:418] res2a_branch2a -> res2a_branch2a
I0731 08:39:49.960588 30983 net.cpp:150] Setting up res2a_branch2a
I0731 08:39:49.960608 30983 net.cpp:157] Top shape: 1 64 56 56 (200704)
I0731 08:39:49.960618 30983 net.cpp:165] Memory required for data: 26292236
I0731 08:39:49.960628 30983 layer_factory.hpp:77] Creating layer bn2a_branch2a
I0731 08:39:49.960638 30983 net.cpp:100] Creating Layer bn2a_branch2a
I0731 08:39:49.960644 30983 net.cpp:444] bn2a_branch2a <- res2a_branch2a
I0731 08:39:49.960650 30983 net.cpp:405] bn2a_branch2a -> res2a_branch2a (in-place)
I0731 08:39:49.960853 30983 net.cpp:150] Setting up bn2a_branch2a
I0731 08:39:49.960863 30983 net.cpp:157] Top shape: 1 64 56 56 (200704)
I0731 08:39:49.960867 30983 net.cpp:165] Memory required for data: 27095052
I0731 08:39:49.960877 30983 layer_factory.hpp:77] Creating layer scale2a_branch2a
I0731 08:39:49.960886 30983 net.cpp:100] Creating Layer scale2a_branch2a
I0731 08:39:49.960891 30983 net.cpp:444] scale2a_branch2a <- res2a_branch2a
I0731 08:39:49.960897 30983 net.cpp:405] scale2a_branch2a -> res2a_branch2a (in-place)
I0731 08:39:49.960940 30983 layer_factory.hpp:77] Creating layer scale2a_branch2a
I0731 08:39:49.961064 30983 net.cpp:150] Setting up scale2a_branch2a
I0731 08:39:49.961074 30983 net.cpp:157] Top shape: 1 64 56 56 (200704)
I0731 08:39:49.961079 30983 net.cpp:165] Memory required for data: 27897868
I0731 08:39:49.961089 30983 layer_factory.hpp:77] Creating layer res2a_branch2a_relu
I0731 08:39:49.961097 30983 net.cpp:100] Creating Layer res2a_branch2a_relu
I0731 08:39:49.961112 30983 net.cpp:444] res2a_branch2a_relu <- res2a_branch2a
I0731 08:39:49.961119 30983 net.cpp:405] res2a_branch2a_relu -> res2a_branch2a (in-place)
I0731 08:39:49.962091 30983 net.cpp:150] Setting up res2a_branch2a_relu
I0731 08:39:49.962106 30983 net.cpp:157] Top shape: 1 64 56 56 (200704)
I0731 08:39:49.962111 30983 net.cpp:165] Memory required for data: 28700684
I0731 08:39:49.962121 30983 layer_factory.hpp:77] Creating layer res2a_branch2b
I0731 08:39:49.962131 30983 net.cpp:100] Creating Layer res2a_branch2b
I0731 08:39:49.962137 30983 net.cpp:444] res2a_branch2b <- res2a_branch2a
I0731 08:39:49.962144 30983 net.cpp:418] res2a_branch2b -> res2a_branch2b
I0731 08:39:49.969117 30983 net.cpp:150] Setting up res2a_branch2b
I0731 08:39:49.969136 30983 net.cpp:157] Top shape: 1 64 56 56 (200704)
I0731 08:39:49.969141 30983 net.cpp:165] Memory required for data: 29503500
I0731 08:39:49.969149 30983 layer_factory.hpp:77] Creating layer bn2a_branch2b
I0731 08:39:49.969158 30983 net.cpp:100] Creating Layer bn2a_branch2b
I0731 08:39:49.969164 30983 net.cpp:444] bn2a_branch2b <- res2a_branch2b
I0731 08:39:49.969182 30983 net.cpp:405] bn2a_branch2b -> res2a_branch2b (in-place)
I0731 08:39:49.969399 30983 net.cpp:150] Setting up bn2a_branch2b
I0731 08:39:49.969409 30983 net.cpp:157] Top shape: 1 64 56 56 (200704)
I0731 08:39:49.969414 30983 net.cpp:165] Memory required for data: 30306316
I0731 08:39:49.969424 30983 layer_factory.hpp:77] Creating layer scale2a_branch2b
I0731 08:39:49.969434 30983 net.cpp:100] Creating Layer scale2a_branch2b
I0731 08:39:49.969439 30983 net.cpp:444] scale2a_branch2b <- res2a_branch2b
I0731 08:39:49.969446 30983 net.cpp:405] scale2a_branch2b -> res2a_branch2b (in-place)
I0731 08:39:49.969503 30983 layer_factory.hpp:77] Creating layer scale2a_branch2b
I0731 08:39:49.969625 30983 net.cpp:150] Setting up scale2a_branch2b
I0731 08:39:49.969635 30983 net.cpp:157] Top shape: 1 64 56 56 (200704)
I0731 08:39:49.969640 30983 net.cpp:165] Memory required for data: 31109132
I0731 08:39:49.969646 30983 layer_factory.hpp:77] Creating layer res2a_branch2b_relu
I0731 08:39:49.969657 30983 net.cpp:100] Creating Layer res2a_branch2b_relu
I0731 08:39:49.969662 30983 net.cpp:444] res2a_branch2b_relu <- res2a_branch2b
I0731 08:39:49.969668 30983 net.cpp:405] res2a_branch2b_relu -> res2a_branch2b (in-place)
I0731 08:39:49.970326 30983 net.cpp:150] Setting up res2a_branch2b_relu
I0731 08:39:49.970343 30983 net.cpp:157] Top shape: 1 64 56 56 (200704)
I0731 08:39:49.970350 30983 net.cpp:165] Memory required for data: 31911948
I0731 08:39:49.970355 30983 layer_factory.hpp:77] Creating layer res2a_branch2c
I0731 08:39:49.970366 30983 net.cpp:100] Creating Layer res2a_branch2c
I0731 08:39:49.970377 30983 net.cpp:444] res2a_branch2c <- res2a_branch2b
I0731 08:39:49.970386 30983 net.cpp:418] res2a_branch2c -> res2a_branch2c
I0731 08:39:49.975687 30983 net.cpp:150] Setting up res2a_branch2c
I0731 08:39:49.975705 30983 net.cpp:157] Top shape: 1 256 56 56 (802816)
I0731 08:39:49.975710 30983 net.cpp:165] Memory required for data: 35123212
I0731 08:39:49.975718 30983 layer_factory.hpp:77] Creating layer bn2a_branch2c
I0731 08:39:49.975728 30983 net.cpp:100] Creating Layer bn2a_branch2c
I0731 08:39:49.975733 30983 net.cpp:444] bn2a_branch2c <- res2a_branch2c
I0731 08:39:49.975739 30983 net.cpp:405] bn2a_branch2c -> res2a_branch2c (in-place)
I0731 08:39:49.975951 30983 net.cpp:150] Setting up bn2a_branch2c
I0731 08:39:49.975962 30983 net.cpp:157] Top shape: 1 256 56 56 (802816)
I0731 08:39:49.975967 30983 net.cpp:165] Memory required for data: 38334476
I0731 08:39:49.975976 30983 layer_factory.hpp:77] Creating layer scale2a_branch2c
I0731 08:39:49.975986 30983 net.cpp:100] Creating Layer scale2a_branch2c
I0731 08:39:49.975991 30983 net.cpp:444] scale2a_branch2c <- res2a_branch2c
I0731 08:39:49.975997 30983 net.cpp:405] scale2a_branch2c -> res2a_branch2c (in-place)
I0731 08:39:49.976040 30983 layer_factory.hpp:77] Creating layer scale2a_branch2c
I0731 08:39:49.976167 30983 net.cpp:150] Setting up scale2a_branch2c
I0731 08:39:49.976177 30983 net.cpp:157] Top shape: 1 256 56 56 (802816)
I0731 08:39:49.976181 30983 net.cpp:165] Memory required for data: 41545740
I0731 08:39:49.976191 30983 layer_factory.hpp:77] Creating layer res2a
I0731 08:39:49.976204 30983 net.cpp:100] Creating Layer res2a
I0731 08:39:49.976209 30983 net.cpp:444] res2a <- res2a_branch1
I0731 08:39:49.976215 30983 net.cpp:444] res2a <- res2a_branch2c
I0731 08:39:49.976222 30983 net.cpp:418] res2a -> res2a
I0731 08:39:49.976250 30983 net.cpp:150] Setting up res2a
I0731 08:39:49.976259 30983 net.cpp:157] Top shape: 1 256 56 56 (802816)
I0731 08:39:49.976263 30983 net.cpp:165] Memory required for data: 44757004
I0731 08:39:49.976267 30983 layer_factory.hpp:77] Creating layer res2a_relu
I0731 08:39:49.976274 30983 net.cpp:100] Creating Layer res2a_relu
I0731 08:39:49.976279 30983 net.cpp:444] res2a_relu <- res2a
I0731 08:39:49.976285 30983 net.cpp:405] res2a_relu -> res2a (in-place)
I0731 08:39:49.977682 30983 net.cpp:150] Setting up res2a_relu
I0731 08:39:49.977695 30983 net.cpp:157] Top shape: 1 256 56 56 (802816)
I0731 08:39:49.977700 30983 net.cpp:165] Memory required for data: 47968268
I0731 08:39:49.977705 30983 layer_factory.hpp:77] Creating layer res2a_res2a_relu_0_split
I0731 08:39:49.977712 30983 net.cpp:100] Creating Layer res2a_res2a_relu_0_split
I0731 08:39:49.977717 30983 net.cpp:444] res2a_res2a_relu_0_split <- res2a
I0731 08:39:49.977725 30983 net.cpp:418] res2a_res2a_relu_0_split -> res2a_res2a_relu_0_split_0
I0731 08:39:49.977733 30983 net.cpp:418] res2a_res2a_relu_0_split -> res2a_res2a_relu_0_split_1
I0731 08:39:49.977778 30983 net.cpp:150] Setting up res2a_res2a_relu_0_split
I0731 08:39:49.977787 30983 net.cpp:157] Top shape: 1 256 56 56 (802816)
I0731 08:39:49.977793 30983 net.cpp:157] Top shape: 1 256 56 56 (802816)
I0731 08:39:49.977797 30983 net.cpp:165] Memory required for data: 54390796
I0731 08:39:49.977802 30983 layer_factory.hpp:77] Creating layer res2b_branch2a
I0731 08:39:49.977815 30983 net.cpp:100] Creating Layer res2b_branch2a
I0731 08:39:49.977820 30983 net.cpp:444] res2b_branch2a <- res2a_res2a_relu_0_split_0
I0731 08:39:49.977828 30983 net.cpp:418] res2b_branch2a -> res2b_branch2a
I0731 08:39:49.983244 30983 net.cpp:150] Setting up res2b_branch2a
I0731 08:39:49.983264 30983 net.cpp:157] Top shape: 1 64 56 56 (200704)
I0731 08:39:49.983269 30983 net.cpp:165] Memory required for data: 55193612
I0731 08:39:49.983278 30983 layer_factory.hpp:77] Creating layer bn2b_branch2a
I0731 08:39:49.983288 30983 net.cpp:100] Creating Layer bn2b_branch2a
I0731 08:39:49.983294 30983 net.cpp:444] bn2b_branch2a <- res2b_branch2a
I0731 08:39:49.983300 30983 net.cpp:405] bn2b_branch2a -> res2b_branch2a (in-place)
I0731 08:39:49.983528 30983 net.cpp:150] Setting up bn2b_branch2a
I0731 08:39:49.983541 30983 net.cpp:157] Top shape: 1 64 56 56 (200704)
I0731 08:39:49.983546 30983 net.cpp:165] Memory required for data: 55996428
I0731 08:39:49.983558 30983 layer_factory.hpp:77] Creating layer scale2b_branch2a
I0731 08:39:49.983567 30983 net.cpp:100] Creating Layer scale2b_branch2a
I0731 08:39:49.983573 30983 net.cpp:444] scale2b_branch2a <- res2b_branch2a
I0731 08:39:49.983579 30983 net.cpp:405] scale2b_branch2a -> res2b_branch2a (in-place)
I0731 08:39:49.983625 30983 layer_factory.hpp:77] Creating layer scale2b_branch2a
I0731 08:39:49.983763 30983 net.cpp:150] Setting up scale2b_branch2a
I0731 08:39:49.983774 30983 net.cpp:157] Top shape: 1 64 56 56 (200704)
I0731 08:39:49.983779 30983 net.cpp:165] Memory required for data: 56799244
I0731 08:39:49.983786 30983 layer_factory.hpp:77] Creating layer res2b_branch2a_relu
I0731 08:39:49.983793 30983 net.cpp:100] Creating Layer res2b_branch2a_relu
I0731 08:39:49.983798 30983 net.cpp:444] res2b_branch2a_relu <- res2b_branch2a
I0731 08:39:49.983804 30983 net.cpp:405] res2b_branch2a_relu -> res2b_branch2a (in-place)
I0731 08:39:49.984455 30983 net.cpp:150] Setting up res2b_branch2a_relu
I0731 08:39:49.984468 30983 net.cpp:157] Top shape: 1 64 56 56 (200704)
I0731 08:39:49.984473 30983 net.cpp:165] Memory required for data: 57602060
I0731 08:39:49.984481 30983 layer_factory.hpp:77] Creating layer res2b_branch2b
I0731 08:39:49.984493 30983 net.cpp:100] Creating Layer res2b_branch2b
I0731 08:39:49.984498 30983 net.cpp:444] res2b_branch2b <- res2b_branch2a
I0731 08:39:49.984504 30983 net.cpp:418] res2b_branch2b -> res2b_branch2b
I0731 08:39:49.990417 30983 net.cpp:150] Setting up res2b_branch2b
I0731 08:39:49.990434 30983 net.cpp:157] Top shape: 1 64 56 56 (200704)
I0731 08:39:49.990439 30983 net.cpp:165] Memory required for data: 58404876
I0731 08:39:49.990447 30983 layer_factory.hpp:77] Creating layer bn2b_branch2b
I0731 08:39:49.990455 30983 net.cpp:100] Creating Layer bn2b_branch2b
I0731 08:39:49.990460 30983 net.cpp:444] bn2b_branch2b <- res2b_branch2b
I0731 08:39:49.990469 30983 net.cpp:405] bn2b_branch2b -> res2b_branch2b (in-place)
I0731 08:39:49.990692 30983 net.cpp:150] Setting up bn2b_branch2b
I0731 08:39:49.990702 30983 net.cpp:157] Top shape: 1 64 56 56 (200704)
I0731 08:39:49.990707 30983 net.cpp:165] Memory required for data: 59207692
I0731 08:39:49.990715 30983 layer_factory.hpp:77] Creating layer scale2b_branch2b
I0731 08:39:49.990725 30983 net.cpp:100] Creating Layer scale2b_branch2b
I0731 08:39:49.990731 30983 net.cpp:444] scale2b_branch2b <- res2b_branch2b
I0731 08:39:49.990736 30983 net.cpp:405] scale2b_branch2b -> res2b_branch2b (in-place)
I0731 08:39:49.990782 30983 layer_factory.hpp:77] Creating layer scale2b_branch2b
I0731 08:39:49.990917 30983 net.cpp:150] Setting up scale2b_branch2b
I0731 08:39:49.990926 30983 net.cpp:157] Top shape: 1 64 56 56 (200704)
I0731 08:39:49.990931 30983 net.cpp:165] Memory required for data: 60010508
I0731 08:39:49.990938 30983 layer_factory.hpp:77] Creating layer res2b_branch2b_relu
I0731 08:39:49.990947 30983 net.cpp:100] Creating Layer res2b_branch2b_relu
I0731 08:39:49.990952 30983 net.cpp:444] res2b_branch2b_relu <- res2b_branch2b
I0731 08:39:49.990959 30983 net.cpp:405] res2b_branch2b_relu -> res2b_branch2b (in-place)
I0731 08:39:49.991650 30983 net.cpp:150] Setting up res2b_branch2b_relu
I0731 08:39:49.991667 30983 net.cpp:157] Top shape: 1 64 56 56 (200704)
I0731 08:39:49.991672 30983 net.cpp:165] Memory required for data: 60813324
I0731 08:39:49.991677 30983 layer_factory.hpp:77] Creating layer res2b_branch2c
I0731 08:39:49.991693 30983 net.cpp:100] Creating Layer res2b_branch2c
I0731 08:39:49.991698 30983 net.cpp:444] res2b_branch2c <- res2b_branch2b
I0731 08:39:49.991705 30983 net.cpp:418] res2b_branch2c -> res2b_branch2c
I0731 08:39:49.997479 30983 net.cpp:150] Setting up res2b_branch2c
I0731 08:39:49.997498 30983 net.cpp:157] Top shape: 1 256 56 56 (802816)
I0731 08:39:49.997503 30983 net.cpp:165] Memory required for data: 64024588
I0731 08:39:49.997517 30983 layer_factory.hpp:77] Creating layer bn2b_branch2c
I0731 08:39:49.997529 30983 net.cpp:100] Creating Layer bn2b_branch2c
I0731 08:39:49.997535 30983 net.cpp:444] bn2b_branch2c <- res2b_branch2c
I0731 08:39:49.997542 30983 net.cpp:405] bn2b_branch2c -> res2b_branch2c (in-place)
I0731 08:39:49.997793 30983 net.cpp:150] Setting up bn2b_branch2c
I0731 08:39:49.997804 30983 net.cpp:157] Top shape: 1 256 56 56 (802816)
I0731 08:39:49.997808 30983 net.cpp:165] Memory required for data: 67235852
I0731 08:39:49.997817 30983 layer_factory.hpp:77] Creating layer scale2b_branch2c
I0731 08:39:49.997826 30983 net.cpp:100] Creating Layer scale2b_branch2c
I0731 08:39:49.997831 30983 net.cpp:444] scale2b_branch2c <- res2b_branch2c
I0731 08:39:49.997841 30983 net.cpp:405] scale2b_branch2c -> res2b_branch2c (in-place)
I0731 08:39:49.997890 30983 layer_factory.hpp:77] Creating layer scale2b_branch2c
I0731 08:39:49.998025 30983 net.cpp:150] Setting up scale2b_branch2c
I0731 08:39:49.998035 30983 net.cpp:157] Top shape: 1 256 56 56 (802816)
I0731 08:39:49.998039 30983 net.cpp:165] Memory required for data: 70447116
I0731 08:39:49.998049 30983 layer_factory.hpp:77] Creating layer res2b
I0731 08:39:49.998056 30983 net.cpp:100] Creating Layer res2b
I0731 08:39:49.998072 30983 net.cpp:444] res2b <- res2a_res2a_relu_0_split_1
I0731 08:39:49.998078 30983 net.cpp:444] res2b <- res2b_branch2c
I0731 08:39:49.998086 30983 net.cpp:418] res2b -> res2b
I0731 08:39:49.998119 30983 net.cpp:150] Setting up res2b
I0731 08:39:49.998128 30983 net.cpp:157] Top shape: 1 256 56 56 (802816)
I0731 08:39:49.998133 30983 net.cpp:165] Memory required for data: 73658380
I0731 08:39:49.998138 30983 layer_factory.hpp:77] Creating layer res2b_relu
I0731 08:39:49.998145 30983 net.cpp:100] Creating Layer res2b_relu
I0731 08:39:49.998149 30983 net.cpp:444] res2b_relu <- res2b
I0731 08:39:49.998158 30983 net.cpp:405] res2b_relu -> res2b (in-place)
I0731 08:39:50.000092 30983 net.cpp:150] Setting up res2b_relu
I0731 08:39:50.000105 30983 net.cpp:157] Top shape: 1 256 56 56 (802816)
I0731 08:39:50.000110 30983 net.cpp:165] Memory required for data: 76869644
I0731 08:39:50.000116 30983 layer_factory.hpp:77] Creating layer res2b_res2b_relu_0_split
I0731 08:39:50.000124 30983 net.cpp:100] Creating Layer res2b_res2b_relu_0_split
I0731 08:39:50.000129 30983 net.cpp:444] res2b_res2b_relu_0_split <- res2b
I0731 08:39:50.000138 30983 net.cpp:418] res2b_res2b_relu_0_split -> res2b_res2b_relu_0_split_0
I0731 08:39:50.000147 30983 net.cpp:418] res2b_res2b_relu_0_split -> res2b_res2b_relu_0_split_1
I0731 08:39:50.000200 30983 net.cpp:150] Setting up res2b_res2b_relu_0_split
I0731 08:39:50.000210 30983 net.cpp:157] Top shape: 1 256 56 56 (802816)
I0731 08:39:50.000214 30983 net.cpp:157] Top shape: 1 256 56 56 (802816)
I0731 08:39:50.000219 30983 net.cpp:165] Memory required for data: 83292172
I0731 08:39:50.000223 30983 layer_factory.hpp:77] Creating layer res2c_branch2a
I0731 08:39:50.000237 30983 net.cpp:100] Creating Layer res2c_branch2a
I0731 08:39:50.000243 30983 net.cpp:444] res2c_branch2a <- res2b_res2b_relu_0_split_0
I0731 08:39:50.000253 30983 net.cpp:418] res2c_branch2a -> res2c_branch2a
I0731 08:39:50.006028 30983 net.cpp:150] Setting up res2c_branch2a
I0731 08:39:50.006047 30983 net.cpp:157] Top shape: 1 64 56 56 (200704)
I0731 08:39:50.006052 30983 net.cpp:165] Memory required for data: 84094988
I0731 08:39:50.006059 30983 layer_factory.hpp:77] Creating layer bn2c_branch2a
I0731 08:39:50.006069 30983 net.cpp:100] Creating Layer bn2c_branch2a
I0731 08:39:50.006075 30983 net.cpp:444] bn2c_branch2a <- res2c_branch2a
I0731 08:39:50.006084 30983 net.cpp:405] bn2c_branch2a -> res2c_branch2a (in-place)
I0731 08:39:50.006319 30983 net.cpp:150] Setting up bn2c_branch2a
I0731 08:39:50.006330 30983 net.cpp:157] Top shape: 1 64 56 56 (200704)
I0731 08:39:50.006333 30983 net.cpp:165] Memory required for data: 84897804
I0731 08:39:50.006342 30983 layer_factory.hpp:77] Creating layer scale2c_branch2a
I0731 08:39:50.006350 30983 net.cpp:100] Creating Layer scale2c_branch2a
I0731 08:39:50.006361 30983 net.cpp:444] scale2c_branch2a <- res2c_branch2a
I0731 08:39:50.006369 30983 net.cpp:405] scale2c_branch2a -> res2c_branch2a (in-place)
I0731 08:39:50.006414 30983 layer_factory.hpp:77] Creating layer scale2c_branch2a
I0731 08:39:50.006563 30983 net.cpp:150] Setting up scale2c_branch2a
I0731 08:39:50.006574 30983 net.cpp:157] Top shape: 1 64 56 56 (200704)
I0731 08:39:50.006578 30983 net.cpp:165] Memory required for data: 85700620
I0731 08:39:50.006587 30983 layer_factory.hpp:77] Creating layer res2c_branch2a_relu
I0731 08:39:50.006595 30983 net.cpp:100] Creating Layer res2c_branch2a_relu
I0731 08:39:50.006602 30983 net.cpp:444] res2c_branch2a_relu <- res2c_branch2a
I0731 08:39:50.006608 30983 net.cpp:405] res2c_branch2a_relu -> res2c_branch2a (in-place)
I0731 08:39:50.007375 30983 net.cpp:150] Setting up res2c_branch2a_relu
I0731 08:39:50.007387 30983 net.cpp:157] Top shape: 1 64 56 56 (200704)
I0731 08:39:50.007392 30983 net.cpp:165] Memory required for data: 86503436
I0731 08:39:50.007410 30983 layer_factory.hpp:77] Creating layer res2c_branch2b
I0731 08:39:50.007421 30983 net.cpp:100] Creating Layer res2c_branch2b
I0731 08:39:50.007427 30983 net.cpp:444] res2c_branch2b <- res2c_branch2a
I0731 08:39:50.007443 30983 net.cpp:418] res2c_branch2b -> res2c_branch2b
I0731 08:39:50.014652 30983 net.cpp:150] Setting up res2c_branch2b
I0731 08:39:50.014668 30983 net.cpp:157] Top shape: 1 64 56 56 (200704)
I0731 08:39:50.014673 30983 net.cpp:165] Memory required for data: 87306252
I0731 08:39:50.014680 30983 layer_factory.hpp:77] Creating layer bn2c_branch2b
I0731 08:39:50.014688 30983 net.cpp:100] Creating Layer bn2c_branch2b
I0731 08:39:50.014694 30983 net.cpp:444] bn2c_branch2b <- res2c_branch2b
I0731 08:39:50.014703 30983 net.cpp:405] bn2c_branch2b -> res2c_branch2b (in-place)
I0731 08:39:50.014930 30983 net.cpp:150] Setting up bn2c_branch2b
I0731 08:39:50.014940 30983 net.cpp:157] Top shape: 1 64 56 56 (200704)
I0731 08:39:50.014945 30983 net.cpp:165] Memory required for data: 88109068
I0731 08:39:50.014953 30983 layer_factory.hpp:77] Creating layer scale2c_branch2b
I0731 08:39:50.014963 30983 net.cpp:100] Creating Layer scale2c_branch2b
I0731 08:39:50.014968 30983 net.cpp:444] scale2c_branch2b <- res2c_branch2b
I0731 08:39:50.014974 30983 net.cpp:405] scale2c_branch2b -> res2c_branch2b (in-place)
I0731 08:39:50.015022 30983 layer_factory.hpp:77] Creating layer scale2c_branch2b
I0731 08:39:50.015157 30983 net.cpp:150] Setting up scale2c_branch2b
I0731 08:39:50.015167 30983 net.cpp:157] Top shape: 1 64 56 56 (200704)
I0731 08:39:50.015172 30983 net.cpp:165] Memory required for data: 88911884
I0731 08:39:50.015178 30983 layer_factory.hpp:77] Creating layer res2c_branch2b_relu
I0731 08:39:50.015187 30983 net.cpp:100] Creating Layer res2c_branch2b_relu
I0731 08:39:50.015192 30983 net.cpp:444] res2c_branch2b_relu <- res2c_branch2b
I0731 08:39:50.015199 30983 net.cpp:405] res2c_branch2b_relu -> res2c_branch2b (in-place)
I0731 08:39:50.015877 30983 net.cpp:150] Setting up res2c_branch2b_relu
I0731 08:39:50.015892 30983 net.cpp:157] Top shape: 1 64 56 56 (200704)
I0731 08:39:50.015897 30983 net.cpp:165] Memory required for data: 89714700
I0731 08:39:50.015902 30983 layer_factory.hpp:77] Creating layer res2c_branch2c
I0731 08:39:50.015915 30983 net.cpp:100] Creating Layer res2c_branch2c
I0731 08:39:50.015921 30983 net.cpp:444] res2c_branch2c <- res2c_branch2b
I0731 08:39:50.015928 30983 net.cpp:418] res2c_branch2c -> res2c_branch2c
I0731 08:39:50.023560 30983 net.cpp:150] Setting up res2c_branch2c
I0731 08:39:50.023577 30983 net.cpp:157] Top shape: 1 256 56 56 (802816)
I0731 08:39:50.023582 30983 net.cpp:165] Memory required for data: 92925964
I0731 08:39:50.023591 30983 layer_factory.hpp:77] Creating layer bn2c_branch2c
I0731 08:39:50.023602 30983 net.cpp:100] Creating Layer bn2c_branch2c
I0731 08:39:50.023607 30983 net.cpp:444] bn2c_branch2c <- res2c_branch2c
I0731 08:39:50.023615 30983 net.cpp:405] bn2c_branch2c -> res2c_branch2c (in-place)
I0731 08:39:50.023851 30983 net.cpp:150] Setting up bn2c_branch2c
I0731 08:39:50.023867 30983 net.cpp:157] Top shape: 1 256 56 56 (802816)
I0731 08:39:50.023871 30983 net.cpp:165] Memory required for data: 96137228
I0731 08:39:50.023880 30983 layer_factory.hpp:77] Creating layer scale2c_branch2c
I0731 08:39:50.023892 30983 net.cpp:100] Creating Layer scale2c_branch2c
I0731 08:39:50.023897 30983 net.cpp:444] scale2c_branch2c <- res2c_branch2c
I0731 08:39:50.023903 30983 net.cpp:405] scale2c_branch2c -> res2c_branch2c (in-place)
I0731 08:39:50.023977 30983 layer_factory.hpp:77] Creating layer scale2c_branch2c
I0731 08:39:50.024113 30983 net.cpp:150] Setting up scale2c_branch2c
I0731 08:39:50.024123 30983 net.cpp:157] Top shape: 1 256 56 56 (802816)
I0731 08:39:50.024128 30983 net.cpp:165] Memory required for data: 99348492
I0731 08:39:50.024144 30983 layer_factory.hpp:77] Creating layer res2c
I0731 08:39:50.024153 30983 net.cpp:100] Creating Layer res2c
I0731 08:39:50.024159 30983 net.cpp:444] res2c <- res2b_res2b_relu_0_split_1
I0731 08:39:50.024165 30983 net.cpp:444] res2c <- res2c_branch2c
I0731 08:39:50.024173 30983 net.cpp:418] res2c -> res2c
I0731 08:39:50.024204 30983 net.cpp:150] Setting up res2c
I0731 08:39:50.024214 30983 net.cpp:157] Top shape: 1 256 56 56 (802816)
I0731 08:39:50.024219 30983 net.cpp:165] Memory required for data: 102559756
I0731 08:39:50.024224 30983 layer_factory.hpp:77] Creating layer res2c_relu
I0731 08:39:50.024231 30983 net.cpp:100] Creating Layer res2c_relu
I0731 08:39:50.024236 30983 net.cpp:444] res2c_relu <- res2c
I0731 08:39:50.024242 30983 net.cpp:405] res2c_relu -> res2c (in-place)
I0731 08:39:50.024951 30983 net.cpp:150] Setting up res2c_relu
I0731 08:39:50.024965 30983 net.cpp:157] Top shape: 1 256 56 56 (802816)
I0731 08:39:50.024969 30983 net.cpp:165] Memory required for data: 105771020
I0731 08:39:50.024974 30983 layer_factory.hpp:77] Creating layer res2c_res2c_relu_0_split
I0731 08:39:50.024983 30983 net.cpp:100] Creating Layer res2c_res2c_relu_0_split
I0731 08:39:50.024988 30983 net.cpp:444] res2c_res2c_relu_0_split <- res2c
I0731 08:39:50.025008 30983 net.cpp:418] res2c_res2c_relu_0_split -> res2c_res2c_relu_0_split_0
I0731 08:39:50.025020 30983 net.cpp:418] res2c_res2c_relu_0_split -> res2c_res2c_relu_0_split_1
I0731 08:39:50.025072 30983 net.cpp:150] Setting up res2c_res2c_relu_0_split
I0731 08:39:50.025082 30983 net.cpp:157] Top shape: 1 256 56 56 (802816)
I0731 08:39:50.025089 30983 net.cpp:157] Top shape: 1 256 56 56 (802816)
I0731 08:39:50.025092 30983 net.cpp:165] Memory required for data: 112193548
I0731 08:39:50.025099 30983 layer_factory.hpp:77] Creating layer res3a_branch1
I0731 08:39:50.025110 30983 net.cpp:100] Creating Layer res3a_branch1
I0731 08:39:50.025115 30983 net.cpp:444] res3a_branch1 <- res2c_res2c_relu_0_split_0
I0731 08:39:50.025125 30983 net.cpp:418] res3a_branch1 -> res3a_branch1
I0731 08:39:50.032074 30983 net.cpp:150] Setting up res3a_branch1
I0731 08:39:50.032094 30983 net.cpp:157] Top shape: 1 512 28 28 (401408)
I0731 08:39:50.032099 30983 net.cpp:165] Memory required for data: 113799180
I0731 08:39:50.032107 30983 layer_factory.hpp:77] Creating layer bn3a_branch1
I0731 08:39:50.032119 30983 net.cpp:100] Creating Layer bn3a_branch1
I0731 08:39:50.032135 30983 net.cpp:444] bn3a_branch1 <- res3a_branch1
I0731 08:39:50.032141 30983 net.cpp:405] bn3a_branch1 -> res3a_branch1 (in-place)
I0731 08:39:50.033020 30983 net.cpp:150] Setting up bn3a_branch1
I0731 08:39:50.033035 30983 net.cpp:157] Top shape: 1 512 28 28 (401408)
I0731 08:39:50.033041 30983 net.cpp:165] Memory required for data: 115404812
I0731 08:39:50.033051 30983 layer_factory.hpp:77] Creating layer scale3a_branch1
I0731 08:39:50.033059 30983 net.cpp:100] Creating Layer scale3a_branch1
I0731 08:39:50.033066 30983 net.cpp:444] scale3a_branch1 <- res3a_branch1
I0731 08:39:50.033074 30983 net.cpp:405] scale3a_branch1 -> res3a_branch1 (in-place)
I0731 08:39:50.033126 30983 layer_factory.hpp:77] Creating layer scale3a_branch1
I0731 08:39:50.033270 30983 net.cpp:150] Setting up scale3a_branch1
I0731 08:39:50.033282 30983 net.cpp:157] Top shape: 1 512 28 28 (401408)
I0731 08:39:50.033290 30983 net.cpp:165] Memory required for data: 117010444
I0731 08:39:50.033298 30983 layer_factory.hpp:77] Creating layer res3a_branch2a
I0731 08:39:50.033313 30983 net.cpp:100] Creating Layer res3a_branch2a
I0731 08:39:50.033318 30983 net.cpp:444] res3a_branch2a <- res2c_res2c_relu_0_split_1
I0731 08:39:50.033325 30983 net.cpp:418] res3a_branch2a -> res3a_branch2a
I0731 08:39:50.039117 30983 net.cpp:150] Setting up res3a_branch2a
I0731 08:39:50.039139 30983 net.cpp:157] Top shape: 1 128 28 28 (100352)
I0731 08:39:50.039144 30983 net.cpp:165] Memory required for data: 117411852
I0731 08:39:50.039152 30983 layer_factory.hpp:77] Creating layer bn3a_branch2a
I0731 08:39:50.039165 30983 net.cpp:100] Creating Layer bn3a_branch2a
I0731 08:39:50.039170 30983 net.cpp:444] bn3a_branch2a <- res3a_branch2a
I0731 08:39:50.039182 30983 net.cpp:405] bn3a_branch2a -> res3a_branch2a (in-place)
I0731 08:39:50.039417 30983 net.cpp:150] Setting up bn3a_branch2a
I0731 08:39:50.039427 30983 net.cpp:157] Top shape: 1 128 28 28 (100352)
I0731 08:39:50.039440 30983 net.cpp:165] Memory required for data: 117813260
I0731 08:39:50.039450 30983 layer_factory.hpp:77] Creating layer scale3a_branch2a
I0731 08:39:50.039459 30983 net.cpp:100] Creating Layer scale3a_branch2a
I0731 08:39:50.039464 30983 net.cpp:444] scale3a_branch2a <- res3a_branch2a
I0731 08:39:50.039474 30983 net.cpp:405] scale3a_branch2a -> res3a_branch2a (in-place)
I0731 08:39:50.039528 30983 layer_factory.hpp:77] Creating layer scale3a_branch2a
I0731 08:39:50.039660 30983 net.cpp:150] Setting up scale3a_branch2a
I0731 08:39:50.039672 30983 net.cpp:157] Top shape: 1 128 28 28 (100352)
I0731 08:39:50.039677 30983 net.cpp:165] Memory required for data: 118214668
I0731 08:39:50.039685 30983 layer_factory.hpp:77] Creating layer res3a_branch2a_relu
I0731 08:39:50.039692 30983 net.cpp:100] Creating Layer res3a_branch2a_relu
I0731 08:39:50.039697 30983 net.cpp:444] res3a_branch2a_relu <- res3a_branch2a
I0731 08:39:50.039703 30983 net.cpp:405] res3a_branch2a_relu -> res3a_branch2a (in-place)
I0731 08:39:50.041530 30983 net.cpp:150] Setting up res3a_branch2a_relu
I0731 08:39:50.041543 30983 net.cpp:157] Top shape: 1 128 28 28 (100352)
I0731 08:39:50.041548 30983 net.cpp:165] Memory required for data: 118616076
I0731 08:39:50.041554 30983 layer_factory.hpp:77] Creating layer res3a_branch2b
I0731 08:39:50.041565 30983 net.cpp:100] Creating Layer res3a_branch2b
I0731 08:39:50.041570 30983 net.cpp:444] res3a_branch2b <- res3a_branch2a
I0731 08:39:50.041579 30983 net.cpp:418] res3a_branch2b -> res3a_branch2b
I0731 08:39:50.067867 30983 net.cpp:150] Setting up res3a_branch2b
I0731 08:39:50.067898 30983 net.cpp:157] Top shape: 1 128 28 28 (100352)
I0731 08:39:50.067906 30983 net.cpp:165] Memory required for data: 119017484
I0731 08:39:50.067917 30983 layer_factory.hpp:77] Creating layer bn3a_branch2b
I0731 08:39:50.067930 30983 net.cpp:100] Creating Layer bn3a_branch2b
I0731 08:39:50.067939 30983 net.cpp:444] bn3a_branch2b <- res3a_branch2b
I0731 08:39:50.067952 30983 net.cpp:405] bn3a_branch2b -> res3a_branch2b (in-place)
I0731 08:39:50.068289 30983 net.cpp:150] Setting up bn3a_branch2b
I0731 08:39:50.068303 30983 net.cpp:157] Top shape: 1 128 28 28 (100352)
I0731 08:39:50.068310 30983 net.cpp:165] Memory required for data: 119418892
I0731 08:39:50.068323 30983 layer_factory.hpp:77] Creating layer scale3a_branch2b
I0731 08:39:50.068336 30983 net.cpp:100] Creating Layer scale3a_branch2b
I0731 08:39:50.068342 30983 net.cpp:444] scale3a_branch2b <- res3a_branch2b
I0731 08:39:50.068354 30983 net.cpp:405] scale3a_branch2b -> res3a_branch2b (in-place)
I0731 08:39:50.068420 30983 layer_factory.hpp:77] Creating layer scale3a_branch2b
I0731 08:39:50.068610 30983 net.cpp:150] Setting up scale3a_branch2b
I0731 08:39:50.068624 30983 net.cpp:157] Top shape: 1 128 28 28 (100352)
I0731 08:39:50.068630 30983 net.cpp:165] Memory required for data: 119820300
I0731 08:39:50.068640 30983 layer_factory.hpp:77] Creating layer res3a_branch2b_relu
I0731 08:39:50.068655 30983 net.cpp:100] Creating Layer res3a_branch2b_relu
I0731 08:39:50.068670 30983 net.cpp:444] res3a_branch2b_relu <- res3a_branch2b
I0731 08:39:50.068680 30983 net.cpp:405] res3a_branch2b_relu -> res3a_branch2b (in-place)
I0731 08:39:50.069609 30983 net.cpp:150] Setting up res3a_branch2b_relu
I0731 08:39:50.069631 30983 net.cpp:157] Top shape: 1 128 28 28 (100352)
I0731 08:39:50.069639 30983 net.cpp:165] Memory required for data: 120221708
I0731 08:39:50.069646 30983 layer_factory.hpp:77] Creating layer res3a_branch2c
I0731 08:39:50.069664 30983 net.cpp:100] Creating Layer res3a_branch2c
I0731 08:39:50.069671 30983 net.cpp:444] res3a_branch2c <- res3a_branch2b
I0731 08:39:50.069684 30983 net.cpp:418] res3a_branch2c -> res3a_branch2c
I0731 08:39:50.074542 30983 net.cpp:150] Setting up res3a_branch2c
I0731 08:39:50.074568 30983 net.cpp:157] Top shape: 1 512 28 28 (401408)
I0731 08:39:50.074576 30983 net.cpp:165] Memory required for data: 121827340
I0731 08:39:50.074586 30983 layer_factory.hpp:77] Creating layer bn3a_branch2c
I0731 08:39:50.074610 30983 net.cpp:100] Creating Layer bn3a_branch2c
I0731 08:39:50.074618 30983 net.cpp:444] bn3a_branch2c <- res3a_branch2c
I0731 08:39:50.074630 30983 net.cpp:405] bn3a_branch2c -> res3a_branch2c (in-place)
I0731 08:39:50.074960 30983 net.cpp:150] Setting up bn3a_branch2c
I0731 08:39:50.074975 30983 net.cpp:157] Top shape: 1 512 28 28 (401408)
I0731 08:39:50.074982 30983 net.cpp:165] Memory required for data: 123432972
I0731 08:39:50.074995 30983 layer_factory.hpp:77] Creating layer scale3a_branch2c
I0731 08:39:50.075009 30983 net.cpp:100] Creating Layer scale3a_branch2c
I0731 08:39:50.075016 30983 net.cpp:444] scale3a_branch2c <- res3a_branch2c
I0731 08:39:50.075026 30983 net.cpp:405] scale3a_branch2c -> res3a_branch2c (in-place)
I0731 08:39:50.075098 30983 layer_factory.hpp:77] Creating layer scale3a_branch2c
I0731 08:39:50.075281 30983 net.cpp:150] Setting up scale3a_branch2c
I0731 08:39:50.075297 30983 net.cpp:157] Top shape: 1 512 28 28 (401408)
I0731 08:39:50.075304 30983 net.cpp:165] Memory required for data: 125038604
I0731 08:39:50.075317 30983 layer_factory.hpp:77] Creating layer res3a
I0731 08:39:50.075327 30983 net.cpp:100] Creating Layer res3a
I0731 08:39:50.075335 30983 net.cpp:444] res3a <- res3a_branch1
I0731 08:39:50.075343 30983 net.cpp:444] res3a <- res3a_branch2c
I0731 08:39:50.075352 30983 net.cpp:418] res3a -> res3a
I0731 08:39:50.075399 30983 net.cpp:150] Setting up res3a
I0731 08:39:50.075412 30983 net.cpp:157] Top shape: 1 512 28 28 (401408)
I0731 08:39:50.075417 30983 net.cpp:165] Memory required for data: 126644236
I0731 08:39:50.075424 30983 layer_factory.hpp:77] Creating layer res3a_relu
I0731 08:39:50.075445 30983 net.cpp:100] Creating Layer res3a_relu
I0731 08:39:50.075454 30983 net.cpp:444] res3a_relu <- res3a
I0731 08:39:50.075466 30983 net.cpp:405] res3a_relu -> res3a (in-place)
I0731 08:39:50.076983 30983 net.cpp:150] Setting up res3a_relu
I0731 08:39:50.077005 30983 net.cpp:157] Top shape: 1 512 28 28 (401408)
I0731 08:39:50.077013 30983 net.cpp:165] Memory required for data: 128249868
I0731 08:39:50.077020 30983 layer_factory.hpp:77] Creating layer res3a_res3a_relu_0_split
I0731 08:39:50.077031 30983 net.cpp:100] Creating Layer res3a_res3a_relu_0_split
I0731 08:39:50.077039 30983 net.cpp:444] res3a_res3a_relu_0_split <- res3a
I0731 08:39:50.077055 30983 net.cpp:418] res3a_res3a_relu_0_split -> res3a_res3a_relu_0_split_0
I0731 08:39:50.077069 30983 net.cpp:418] res3a_res3a_relu_0_split -> res3a_res3a_relu_0_split_1
I0731 08:39:50.077153 30983 net.cpp:150] Setting up res3a_res3a_relu_0_split
I0731 08:39:50.077167 30983 net.cpp:157] Top shape: 1 512 28 28 (401408)
I0731 08:39:50.077174 30983 net.cpp:157] Top shape: 1 512 28 28 (401408)
I0731 08:39:50.077181 30983 net.cpp:165] Memory required for data: 131461132
I0731 08:39:50.077188 30983 layer_factory.hpp:77] Creating layer res3b1_branch2a
I0731 08:39:50.077206 30983 net.cpp:100] Creating Layer res3b1_branch2a
I0731 08:39:50.077214 30983 net.cpp:444] res3b1_branch2a <- res3a_res3a_relu_0_split_0
I0731 08:39:50.077232 30983 net.cpp:418] res3b1_branch2a -> res3b1_branch2a
I0731 08:39:50.081601 30983 net.cpp:150] Setting up res3b1_branch2a
I0731 08:39:50.081620 30983 net.cpp:157] Top shape: 1 128 28 28 (100352)
I0731 08:39:50.081626 30983 net.cpp:165] Memory required for data: 131862540
I0731 08:39:50.081635 30983 layer_factory.hpp:77] Creating layer bn3b1_branch2a
I0731 08:39:50.081647 30983 net.cpp:100] Creating Layer bn3b1_branch2a
I0731 08:39:50.081653 30983 net.cpp:444] bn3b1_branch2a <- res3b1_branch2a
I0731 08:39:50.081662 30983 net.cpp:405] bn3b1_branch2a -> res3b1_branch2a (in-place)
I0731 08:39:50.081902 30983 net.cpp:150] Setting up bn3b1_branch2a
I0731 08:39:50.081912 30983 net.cpp:157] Top shape: 1 128 28 28 (100352)
I0731 08:39:50.081918 30983 net.cpp:165] Memory required for data: 132263948
I0731 08:39:50.081926 30983 layer_factory.hpp:77] Creating layer scale3b1_branch2a
I0731 08:39:50.081938 30983 net.cpp:100] Creating Layer scale3b1_branch2a
I0731 08:39:50.081943 30983 net.cpp:444] scale3b1_branch2a <- res3b1_branch2a
I0731 08:39:50.081949 30983 net.cpp:405] scale3b1_branch2a -> res3b1_branch2a (in-place)
I0731 08:39:50.082000 30983 layer_factory.hpp:77] Creating layer scale3b1_branch2a
I0731 08:39:50.082142 30983 net.cpp:150] Setting up scale3b1_branch2a
I0731 08:39:50.082152 30983 net.cpp:157] Top shape: 1 128 28 28 (100352)
I0731 08:39:50.082157 30983 net.cpp:165] Memory required for data: 132665356
I0731 08:39:50.082165 30983 layer_factory.hpp:77] Creating layer res3b1_branch2a_relu
I0731 08:39:50.082175 30983 net.cpp:100] Creating Layer res3b1_branch2a_relu
I0731 08:39:50.082180 30983 net.cpp:444] res3b1_branch2a_relu <- res3b1_branch2a
I0731 08:39:50.082185 30983 net.cpp:405] res3b1_branch2a_relu -> res3b1_branch2a (in-place)
I0731 08:39:50.083855 30983 net.cpp:150] Setting up res3b1_branch2a_relu
I0731 08:39:50.083870 30983 net.cpp:157] Top shape: 1 128 28 28 (100352)
I0731 08:39:50.083875 30983 net.cpp:165] Memory required for data: 133066764
I0731 08:39:50.083883 30983 layer_factory.hpp:77] Creating layer res3b1_branch2b
I0731 08:39:50.083894 30983 net.cpp:100] Creating Layer res3b1_branch2b
I0731 08:39:50.083900 30983 net.cpp:444] res3b1_branch2b <- res3b1_branch2a
I0731 08:39:50.083909 30983 net.cpp:418] res3b1_branch2b -> res3b1_branch2b
I0731 08:39:50.094022 30983 net.cpp:150] Setting up res3b1_branch2b
I0731 08:39:50.094043 30983 net.cpp:157] Top shape: 1 128 28 28 (100352)
I0731 08:39:50.094048 30983 net.cpp:165] Memory required for data: 133468172
I0731 08:39:50.094056 30983 layer_factory.hpp:77] Creating layer bn3b1_branch2b
I0731 08:39:50.094067 30983 net.cpp:100] Creating Layer bn3b1_branch2b
I0731 08:39:50.094074 30983 net.cpp:444] bn3b1_branch2b <- res3b1_branch2b
I0731 08:39:50.094080 30983 net.cpp:405] bn3b1_branch2b -> res3b1_branch2b (in-place)
I0731 08:39:50.094328 30983 net.cpp:150] Setting up bn3b1_branch2b
I0731 08:39:50.094339 30983 net.cpp:157] Top shape: 1 128 28 28 (100352)
I0731 08:39:50.094343 30983 net.cpp:165] Memory required for data: 133869580
I0731 08:39:50.094352 30983 layer_factory.hpp:77] Creating layer scale3b1_branch2b
I0731 08:39:50.094364 30983 net.cpp:100] Creating Layer scale3b1_branch2b
I0731 08:39:50.094369 30983 net.cpp:444] scale3b1_branch2b <- res3b1_branch2b
I0731 08:39:50.094375 30983 net.cpp:405] scale3b1_branch2b -> res3b1_branch2b (in-place)
I0731 08:39:50.094425 30983 layer_factory.hpp:77] Creating layer scale3b1_branch2b
I0731 08:39:50.094559 30983 net.cpp:150] Setting up scale3b1_branch2b
I0731 08:39:50.094569 30983 net.cpp:157] Top shape: 1 128 28 28 (100352)
I0731 08:39:50.094574 30983 net.cpp:165] Memory required for data: 134270988
I0731 08:39:50.094583 30983 layer_factory.hpp:77] Creating layer res3b1_branch2b_relu
I0731 08:39:50.094590 30983 net.cpp:100] Creating Layer res3b1_branch2b_relu
I0731 08:39:50.094595 30983 net.cpp:444] res3b1_branch2b_relu <- res3b1_branch2b
I0731 08:39:50.094604 30983 net.cpp:405] res3b1_branch2b_relu -> res3b1_branch2b (in-place)
I0731 08:39:50.098258 30983 net.cpp:150] Setting up res3b1_branch2b_relu
I0731 08:39:50.098290 30983 net.cpp:157] Top shape: 1 128 28 28 (100352)
I0731 08:39:50.098296 30983 net.cpp:165] Memory required for data: 134672396
I0731 08:39:50.098304 30983 layer_factory.hpp:77] Creating layer res3b1_branch2c
I0731 08:39:50.098316 30983 net.cpp:100] Creating Layer res3b1_branch2c
I0731 08:39:50.098322 30983 net.cpp:444] res3b1_branch2c <- res3b1_branch2b
I0731 08:39:50.098331 30983 net.cpp:418] res3b1_branch2c -> res3b1_branch2c
I0731 08:39:50.105873 30983 net.cpp:150] Setting up res3b1_branch2c
I0731 08:39:50.105891 30983 net.cpp:157] Top shape: 1 512 28 28 (401408)
I0731 08:39:50.105897 30983 net.cpp:165] Memory required for data: 136278028
I0731 08:39:50.105904 30983 layer_factory.hpp:77] Creating layer bn3b1_branch2c
I0731 08:39:50.105917 30983 net.cpp:100] Creating Layer bn3b1_branch2c
I0731 08:39:50.105923 30983 net.cpp:444] bn3b1_branch2c <- res3b1_branch2c
I0731 08:39:50.105931 30983 net.cpp:405] bn3b1_branch2c -> res3b1_branch2c (in-place)
I0731 08:39:50.106169 30983 net.cpp:150] Setting up bn3b1_branch2c
I0731 08:39:50.106179 30983 net.cpp:157] Top shape: 1 512 28 28 (401408)
I0731 08:39:50.106184 30983 net.cpp:165] Memory required for data: 137883660
I0731 08:39:50.106194 30983 layer_factory.hpp:77] Creating layer scale3b1_branch2c
I0731 08:39:50.106202 30983 net.cpp:100] Creating Layer scale3b1_branch2c
I0731 08:39:50.106207 30983 net.cpp:444] scale3b1_branch2c <- res3b1_branch2c
I0731 08:39:50.106215 30983 net.cpp:405] scale3b1_branch2c -> res3b1_branch2c (in-place)
I0731 08:39:50.106268 30983 layer_factory.hpp:77] Creating layer scale3b1_branch2c
I0731 08:39:50.106406 30983 net.cpp:150] Setting up scale3b1_branch2c
I0731 08:39:50.106416 30983 net.cpp:157] Top shape: 1 512 28 28 (401408)
I0731 08:39:50.106421 30983 net.cpp:165] Memory required for data: 139489292
I0731 08:39:50.106431 30983 layer_factory.hpp:77] Creating layer res3b1
I0731 08:39:50.106438 30983 net.cpp:100] Creating Layer res3b1
I0731 08:39:50.106443 30983 net.cpp:444] res3b1 <- res3a_res3a_relu_0_split_1
I0731 08:39:50.106449 30983 net.cpp:444] res3b1 <- res3b1_branch2c
I0731 08:39:50.106459 30983 net.cpp:418] res3b1 -> res3b1
I0731 08:39:50.106492 30983 net.cpp:150] Setting up res3b1
I0731 08:39:50.106501 30983 net.cpp:157] Top shape: 1 512 28 28 (401408)
I0731 08:39:50.106506 30983 net.cpp:165] Memory required for data: 141094924
I0731 08:39:50.106511 30983 layer_factory.hpp:77] Creating layer res3b1_relu
I0731 08:39:50.106520 30983 net.cpp:100] Creating Layer res3b1_relu
I0731 08:39:50.106525 30983 net.cpp:444] res3b1_relu <- res3b1
I0731 08:39:50.106532 30983 net.cpp:405] res3b1_relu -> res3b1 (in-place)
I0731 08:39:50.107851 30983 net.cpp:150] Setting up res3b1_relu
I0731 08:39:50.107868 30983 net.cpp:157] Top shape: 1 512 28 28 (401408)
I0731 08:39:50.107873 30983 net.cpp:165] Memory required for data: 142700556
I0731 08:39:50.107879 30983 layer_factory.hpp:77] Creating layer res3b1_res3b1_relu_0_split
I0731 08:39:50.107889 30983 net.cpp:100] Creating Layer res3b1_res3b1_relu_0_split
I0731 08:39:50.107895 30983 net.cpp:444] res3b1_res3b1_relu_0_split <- res3b1
I0731 08:39:50.107903 30983 net.cpp:418] res3b1_res3b1_relu_0_split -> res3b1_res3b1_relu_0_split_0
I0731 08:39:50.107914 30983 net.cpp:418] res3b1_res3b1_relu_0_split -> res3b1_res3b1_relu_0_split_1
I0731 08:39:50.107970 30983 net.cpp:150] Setting up res3b1_res3b1_relu_0_split
I0731 08:39:50.107980 30983 net.cpp:157] Top shape: 1 512 28 28 (401408)
I0731 08:39:50.107986 30983 net.cpp:157] Top shape: 1 512 28 28 (401408)
I0731 08:39:50.107990 30983 net.cpp:165] Memory required for data: 145911820
I0731 08:39:50.107995 30983 layer_factory.hpp:77] Creating layer res3b2_branch2a
I0731 08:39:50.108009 30983 net.cpp:100] Creating Layer res3b2_branch2a
I0731 08:39:50.108016 30983 net.cpp:444] res3b2_branch2a <- res3b1_res3b1_relu_0_split_0
I0731 08:39:50.108024 30983 net.cpp:418] res3b2_branch2a -> res3b2_branch2a
I0731 08:39:50.115090 30983 net.cpp:150] Setting up res3b2_branch2a
I0731 08:39:50.115108 30983 net.cpp:157] Top shape: 1 128 28 28 (100352)
I0731 08:39:50.115113 30983 net.cpp:165] Memory required for data: 146313228
I0731 08:39:50.115126 30983 layer_factory.hpp:77] Creating layer bn3b2_branch2a
I0731 08:39:50.115137 30983 net.cpp:100] Creating Layer bn3b2_branch2a
I0731 08:39:50.115145 30983 net.cpp:444] bn3b2_branch2a <- res3b2_branch2a
I0731 08:39:50.115151 30983 net.cpp:405] bn3b2_branch2a -> res3b2_branch2a (in-place)
I0731 08:39:50.115396 30983 net.cpp:150] Setting up bn3b2_branch2a
I0731 08:39:50.115406 30983 net.cpp:157] Top shape: 1 128 28 28 (100352)
I0731 08:39:50.115411 30983 net.cpp:165] Memory required for data: 146714636
I0731 08:39:50.115420 30983 layer_factory.hpp:77] Creating layer scale3b2_branch2a
I0731 08:39:50.115442 30983 net.cpp:100] Creating Layer scale3b2_branch2a
I0731 08:39:50.115448 30983 net.cpp:444] scale3b2_branch2a <- res3b2_branch2a
I0731 08:39:50.115455 30983 net.cpp:405] scale3b2_branch2a -> res3b2_branch2a (in-place)
I0731 08:39:50.115509 30983 layer_factory.hpp:77] Creating layer scale3b2_branch2a
I0731 08:39:50.115664 30983 net.cpp:150] Setting up scale3b2_branch2a
I0731 08:39:50.115674 30983 net.cpp:157] Top shape: 1 128 28 28 (100352)
I0731 08:39:50.115679 30983 net.cpp:165] Memory required for data: 147116044
I0731 08:39:50.115686 30983 layer_factory.hpp:77] Creating layer res3b2_branch2a_relu
I0731 08:39:50.115694 30983 net.cpp:100] Creating Layer res3b2_branch2a_relu
I0731 08:39:50.115700 30983 net.cpp:444] res3b2_branch2a_relu <- res3b2_branch2a
I0731 08:39:50.115707 30983 net.cpp:405] res3b2_branch2a_relu -> res3b2_branch2a (in-place)
I0731 08:39:50.116413 30983 net.cpp:150] Setting up res3b2_branch2a_relu
I0731 08:39:50.116438 30983 net.cpp:157] Top shape: 1 128 28 28 (100352)
I0731 08:39:50.116443 30983 net.cpp:165] Memory required for data: 147517452
I0731 08:39:50.116451 30983 layer_factory.hpp:77] Creating layer res3b2_branch2b
I0731 08:39:50.116462 30983 net.cpp:100] Creating Layer res3b2_branch2b
I0731 08:39:50.116468 30983 net.cpp:444] res3b2_branch2b <- res3b2_branch2a
I0731 08:39:50.116475 30983 net.cpp:418] res3b2_branch2b -> res3b2_branch2b
I0731 08:39:50.124011 30983 net.cpp:150] Setting up res3b2_branch2b
I0731 08:39:50.124027 30983 net.cpp:157] Top shape: 1 128 28 28 (100352)
I0731 08:39:50.124033 30983 net.cpp:165] Memory required for data: 147918860
I0731 08:39:50.124040 30983 layer_factory.hpp:77] Creating layer bn3b2_branch2b
I0731 08:39:50.124052 30983 net.cpp:100] Creating Layer bn3b2_branch2b
I0731 08:39:50.124058 30983 net.cpp:444] bn3b2_branch2b <- res3b2_branch2b
I0731 08:39:50.124064 30983 net.cpp:405] bn3b2_branch2b -> res3b2_branch2b (in-place)
I0731 08:39:50.124332 30983 net.cpp:150] Setting up bn3b2_branch2b
I0731 08:39:50.124343 30983 net.cpp:157] Top shape: 1 128 28 28 (100352)
I0731 08:39:50.124348 30983 net.cpp:165] Memory required for data: 148320268
I0731 08:39:50.124357 30983 layer_factory.hpp:77] Creating layer scale3b2_branch2b
I0731 08:39:50.124366 30983 net.cpp:100] Creating Layer scale3b2_branch2b
I0731 08:39:50.124372 30983 net.cpp:444] scale3b2_branch2b <- res3b2_branch2b
I0731 08:39:50.124378 30983 net.cpp:405] scale3b2_branch2b -> res3b2_branch2b (in-place)
I0731 08:39:50.124433 30983 layer_factory.hpp:77] Creating layer scale3b2_branch2b
I0731 08:39:50.124577 30983 net.cpp:150] Setting up scale3b2_branch2b
I0731 08:39:50.124588 30983 net.cpp:157] Top shape: 1 128 28 28 (100352)
I0731 08:39:50.124593 30983 net.cpp:165] Memory required for data: 148721676
I0731 08:39:50.124599 30983 layer_factory.hpp:77] Creating layer res3b2_branch2b_relu
I0731 08:39:50.124609 30983 net.cpp:100] Creating Layer res3b2_branch2b_relu
I0731 08:39:50.124614 30983 net.cpp:444] res3b2_branch2b_relu <- res3b2_branch2b
I0731 08:39:50.124620 30983 net.cpp:405] res3b2_branch2b_relu -> res3b2_branch2b (in-place)
I0731 08:39:50.125282 30983 net.cpp:150] Setting up res3b2_branch2b_relu
I0731 08:39:50.125298 30983 net.cpp:157] Top shape: 1 128 28 28 (100352)
I0731 08:39:50.125303 30983 net.cpp:165] Memory required for data: 149123084
I0731 08:39:50.125309 30983 layer_factory.hpp:77] Creating layer res3b2_branch2c
I0731 08:39:50.125329 30983 net.cpp:100] Creating Layer res3b2_branch2c
I0731 08:39:50.125335 30983 net.cpp:444] res3b2_branch2c <- res3b2_branch2b
I0731 08:39:50.125342 30983 net.cpp:418] res3b2_branch2c -> res3b2_branch2c
I0731 08:39:50.135015 30983 net.cpp:150] Setting up res3b2_branch2c
I0731 08:39:50.135032 30983 net.cpp:157] Top shape: 1 512 28 28 (401408)
I0731 08:39:50.135038 30983 net.cpp:165] Memory required for data: 150728716
I0731 08:39:50.135046 30983 layer_factory.hpp:77] Creating layer bn3b2_branch2c
I0731 08:39:50.135058 30983 net.cpp:100] Creating Layer bn3b2_branch2c
I0731 08:39:50.135064 30983 net.cpp:444] bn3b2_branch2c <- res3b2_branch2c
I0731 08:39:50.135071 30983 net.cpp:405] bn3b2_branch2c -> res3b2_branch2c (in-place)
I0731 08:39:50.135327 30983 net.cpp:150] Setting up bn3b2_branch2c
I0731 08:39:50.135337 30983 net.cpp:157] Top shape: 1 512 28 28 (401408)
I0731 08:39:50.135342 30983 net.cpp:165] Memory required for data: 152334348
I0731 08:39:50.135351 30983 layer_factory.hpp:77] Creating layer scale3b2_branch2c
I0731 08:39:50.135360 30983 net.cpp:100] Creating Layer scale3b2_branch2c
I0731 08:39:50.135365 30983 net.cpp:444] scale3b2_branch2c <- res3b2_branch2c
I0731 08:39:50.135371 30983 net.cpp:405] scale3b2_branch2c -> res3b2_branch2c (in-place)
I0731 08:39:50.135432 30983 layer_factory.hpp:77] Creating layer scale3b2_branch2c
I0731 08:39:50.135597 30983 net.cpp:150] Setting up scale3b2_branch2c
I0731 08:39:50.135607 30983 net.cpp:157] Top shape: 1 512 28 28 (401408)
I0731 08:39:50.135612 30983 net.cpp:165] Memory required for data: 153939980
I0731 08:39:50.135619 30983 layer_factory.hpp:77] Creating layer res3b2
I0731 08:39:50.135627 30983 net.cpp:100] Creating Layer res3b2
I0731 08:39:50.135635 30983 net.cpp:444] res3b2 <- res3b1_res3b1_relu_0_split_1
I0731 08:39:50.135640 30983 net.cpp:444] res3b2 <- res3b2_branch2c
I0731 08:39:50.135648 30983 net.cpp:418] res3b2 -> res3b2
I0731 08:39:50.135679 30983 net.cpp:150] Setting up res3b2
I0731 08:39:50.135687 30983 net.cpp:157] Top shape: 1 512 28 28 (401408)
I0731 08:39:50.135691 30983 net.cpp:165] Memory required for data: 155545612
I0731 08:39:50.135695 30983 layer_factory.hpp:77] Creating layer res3b2_relu
I0731 08:39:50.135702 30983 net.cpp:100] Creating Layer res3b2_relu
I0731 08:39:50.135706 30983 net.cpp:444] res3b2_relu <- res3b2
I0731 08:39:50.135712 30983 net.cpp:405] res3b2_relu -> res3b2 (in-place)
I0731 08:39:50.136525 30983 net.cpp:150] Setting up res3b2_relu
I0731 08:39:50.136541 30983 net.cpp:157] Top shape: 1 512 28 28 (401408)
I0731 08:39:50.136545 30983 net.cpp:165] Memory required for data: 157151244
I0731 08:39:50.136551 30983 layer_factory.hpp:77] Creating layer res3b2_res3b2_relu_0_split
I0731 08:39:50.136572 30983 net.cpp:100] Creating Layer res3b2_res3b2_relu_0_split
I0731 08:39:50.136579 30983 net.cpp:444] res3b2_res3b2_relu_0_split <- res3b2
I0731 08:39:50.136586 30983 net.cpp:418] res3b2_res3b2_relu_0_split -> res3b2_res3b2_relu_0_split_0
I0731 08:39:50.136598 30983 net.cpp:418] res3b2_res3b2_relu_0_split -> res3b2_res3b2_relu_0_split_1
I0731 08:39:50.136656 30983 net.cpp:150] Setting up res3b2_res3b2_relu_0_split
I0731 08:39:50.136665 30983 net.cpp:157] Top shape: 1 512 28 28 (401408)
I0731 08:39:50.136672 30983 net.cpp:157] Top shape: 1 512 28 28 (401408)
I0731 08:39:50.136675 30983 net.cpp:165] Memory required for data: 160362508
I0731 08:39:50.136680 30983 layer_factory.hpp:77] Creating layer res3b3_branch2a
I0731 08:39:50.136694 30983 net.cpp:100] Creating Layer res3b3_branch2a
I0731 08:39:50.136700 30983 net.cpp:444] res3b3_branch2a <- res3b2_res3b2_relu_0_split_0
I0731 08:39:50.136709 30983 net.cpp:418] res3b3_branch2a -> res3b3_branch2a
I0731 08:39:50.145093 30983 net.cpp:150] Setting up res3b3_branch2a
I0731 08:39:50.145112 30983 net.cpp:157] Top shape: 1 128 28 28 (100352)
I0731 08:39:50.145117 30983 net.cpp:165] Memory required for data: 160763916
I0731 08:39:50.145125 30983 layer_factory.hpp:77] Creating layer bn3b3_branch2a
I0731 08:39:50.145133 30983 net.cpp:100] Creating Layer bn3b3_branch2a
I0731 08:39:50.145139 30983 net.cpp:444] bn3b3_branch2a <- res3b3_branch2a
I0731 08:39:50.145153 30983 net.cpp:405] bn3b3_branch2a -> res3b3_branch2a (in-place)
I0731 08:39:50.145411 30983 net.cpp:150] Setting up bn3b3_branch2a
I0731 08:39:50.145421 30983 net.cpp:157] Top shape: 1 128 28 28 (100352)
I0731 08:39:50.145426 30983 net.cpp:165] Memory required for data: 161165324
I0731 08:39:50.145443 30983 layer_factory.hpp:77] Creating layer scale3b3_branch2a
I0731 08:39:50.145452 30983 net.cpp:100] Creating Layer scale3b3_branch2a
I0731 08:39:50.145457 30983 net.cpp:444] scale3b3_branch2a <- res3b3_branch2a
I0731 08:39:50.145465 30983 net.cpp:405] scale3b3_branch2a -> res3b3_branch2a (in-place)
I0731 08:39:50.145515 30983 layer_factory.hpp:77] Creating layer scale3b3_branch2a
I0731 08:39:50.145642 30983 net.cpp:150] Setting up scale3b3_branch2a
I0731 08:39:50.145651 30983 net.cpp:157] Top shape: 1 128 28 28 (100352)
I0731 08:39:50.145655 30983 net.cpp:165] Memory required for data: 161566732
I0731 08:39:50.145663 30983 layer_factory.hpp:77] Creating layer res3b3_branch2a_relu
I0731 08:39:50.145669 30983 net.cpp:100] Creating Layer res3b3_branch2a_relu
I0731 08:39:50.145674 30983 net.cpp:444] res3b3_branch2a_relu <- res3b3_branch2a
I0731 08:39:50.145681 30983 net.cpp:405] res3b3_branch2a_relu -> res3b3_branch2a (in-place)
I0731 08:39:50.147708 30983 net.cpp:150] Setting up res3b3_branch2a_relu
I0731 08:39:50.147722 30983 net.cpp:157] Top shape: 1 128 28 28 (100352)
I0731 08:39:50.147727 30983 net.cpp:165] Memory required for data: 161968140
I0731 08:39:50.147733 30983 layer_factory.hpp:77] Creating layer res3b3_branch2b
I0731 08:39:50.147755 30983 net.cpp:100] Creating Layer res3b3_branch2b
I0731 08:39:50.147761 30983 net.cpp:444] res3b3_branch2b <- res3b3_branch2a
I0731 08:39:50.147770 30983 net.cpp:418] res3b3_branch2b -> res3b3_branch2b
I0731 08:39:50.154899 30983 net.cpp:150] Setting up res3b3_branch2b
I0731 08:39:50.154918 30983 net.cpp:157] Top shape: 1 128 28 28 (100352)
I0731 08:39:50.154924 30983 net.cpp:165] Memory required for data: 162369548
I0731 08:39:50.154932 30983 layer_factory.hpp:77] Creating layer bn3b3_branch2b
I0731 08:39:50.154943 30983 net.cpp:100] Creating Layer bn3b3_branch2b
I0731 08:39:50.154949 30983 net.cpp:444] bn3b3_branch2b <- res3b3_branch2b
I0731 08:39:50.154959 30983 net.cpp:405] bn3b3_branch2b -> res3b3_branch2b (in-place)
I0731 08:39:50.155221 30983 net.cpp:150] Setting up bn3b3_branch2b
I0731 08:39:50.155232 30983 net.cpp:157] Top shape: 1 128 28 28 (100352)
I0731 08:39:50.155236 30983 net.cpp:165] Memory required for data: 162770956
I0731 08:39:50.155246 30983 layer_factory.hpp:77] Creating layer scale3b3_branch2b
I0731 08:39:50.155256 30983 net.cpp:100] Creating Layer scale3b3_branch2b
I0731 08:39:50.155261 30983 net.cpp:444] scale3b3_branch2b <- res3b3_branch2b
I0731 08:39:50.155267 30983 net.cpp:405] scale3b3_branch2b -> res3b3_branch2b (in-place)
I0731 08:39:50.155318 30983 layer_factory.hpp:77] Creating layer scale3b3_branch2b
I0731 08:39:50.155465 30983 net.cpp:150] Setting up scale3b3_branch2b
I0731 08:39:50.155478 30983 net.cpp:157] Top shape: 1 128 28 28 (100352)
I0731 08:39:50.155481 30983 net.cpp:165] Memory required for data: 163172364
I0731 08:39:50.155489 30983 layer_factory.hpp:77] Creating layer res3b3_branch2b_relu
I0731 08:39:50.155500 30983 net.cpp:100] Creating Layer res3b3_branch2b_relu
I0731 08:39:50.155506 30983 net.cpp:444] res3b3_branch2b_relu <- res3b3_branch2b
I0731 08:39:50.155513 30983 net.cpp:405] res3b3_branch2b_relu -> res3b3_branch2b (in-place)
I0731 08:39:50.158083 30983 net.cpp:150] Setting up res3b3_branch2b_relu
I0731 08:39:50.158112 30983 net.cpp:157] Top shape: 1 128 28 28 (100352)
I0731 08:39:50.158116 30983 net.cpp:165] Memory required for data: 163573772
I0731 08:39:50.158123 30983 layer_factory.hpp:77] Creating layer res3b3_branch2c
I0731 08:39:50.158134 30983 net.cpp:100] Creating Layer res3b3_branch2c
I0731 08:39:50.158141 30983 net.cpp:444] res3b3_branch2c <- res3b3_branch2b
I0731 08:39:50.158149 30983 net.cpp:418] res3b3_branch2c -> res3b3_branch2c
I0731 08:39:50.165271 30983 net.cpp:150] Setting up res3b3_branch2c
I0731 08:39:50.165288 30983 net.cpp:157] Top shape: 1 512 28 28 (401408)
I0731 08:39:50.165294 30983 net.cpp:165] Memory required for data: 165179404
I0731 08:39:50.165302 30983 layer_factory.hpp:77] Creating layer bn3b3_branch2c
I0731 08:39:50.165313 30983 net.cpp:100] Creating Layer bn3b3_branch2c
I0731 08:39:50.165319 30983 net.cpp:444] bn3b3_branch2c <- res3b3_branch2c
I0731 08:39:50.165325 30983 net.cpp:405] bn3b3_branch2c -> res3b3_branch2c (in-place)
I0731 08:39:50.165580 30983 net.cpp:150] Setting up bn3b3_branch2c
I0731 08:39:50.165591 30983 net.cpp:157] Top shape: 1 512 28 28 (401408)
I0731 08:39:50.165596 30983 net.cpp:165] Memory required for data: 166785036
I0731 08:39:50.165603 30983 layer_factory.hpp:77] Creating layer scale3b3_branch2c
I0731 08:39:50.165613 30983 net.cpp:100] Creating Layer scale3b3_branch2c
I0731 08:39:50.165619 30983 net.cpp:444] scale3b3_branch2c <- res3b3_branch2c
I0731 08:39:50.165626 30983 net.cpp:405] scale3b3_branch2c -> res3b3_branch2c (in-place)
I0731 08:39:50.165691 30983 layer_factory.hpp:77] Creating layer scale3b3_branch2c
I0731 08:39:50.165860 30983 net.cpp:150] Setting up scale3b3_branch2c
I0731 08:39:50.165871 30983 net.cpp:157] Top shape: 1 512 28 28 (401408)
I0731 08:39:50.165875 30983 net.cpp:165] Memory required for data: 168390668
I0731 08:39:50.165884 30983 layer_factory.hpp:77] Creating layer res3b3
I0731 08:39:50.165892 30983 net.cpp:100] Creating Layer res3b3
I0731 08:39:50.165899 30983 net.cpp:444] res3b3 <- res3b2_res3b2_relu_0_split_1
I0731 08:39:50.165904 30983 net.cpp:444] res3b3 <- res3b3_branch2c
I0731 08:39:50.165912 30983 net.cpp:418] res3b3 -> res3b3
I0731 08:39:50.165946 30983 net.cpp:150] Setting up res3b3
I0731 08:39:50.165964 30983 net.cpp:157] Top shape: 1 512 28 28 (401408)
I0731 08:39:50.165969 30983 net.cpp:165] Memory required for data: 169996300
I0731 08:39:50.165973 30983 layer_factory.hpp:77] Creating layer res3b3_relu
I0731 08:39:50.165982 30983 net.cpp:100] Creating Layer res3b3_relu
I0731 08:39:50.165987 30983 net.cpp:444] res3b3_relu <- res3b3
I0731 08:39:50.165993 30983 net.cpp:405] res3b3_relu -> res3b3 (in-place)
I0731 08:39:50.167866 30983 net.cpp:150] Setting up res3b3_relu
I0731 08:39:50.167894 30983 net.cpp:157] Top shape: 1 512 28 28 (401408)
I0731 08:39:50.167899 30983 net.cpp:165] Memory required for data: 171601932
I0731 08:39:50.167904 30983 layer_factory.hpp:77] Creating layer res3b3_res3b3_relu_0_split
I0731 08:39:50.167914 30983 net.cpp:100] Creating Layer res3b3_res3b3_relu_0_split
I0731 08:39:50.167920 30983 net.cpp:444] res3b3_res3b3_relu_0_split <- res3b3
I0731 08:39:50.167927 30983 net.cpp:418] res3b3_res3b3_relu_0_split -> res3b3_res3b3_relu_0_split_0
I0731 08:39:50.167942 30983 net.cpp:418] res3b3_res3b3_relu_0_split -> res3b3_res3b3_relu_0_split_1
I0731 08:39:50.167999 30983 net.cpp:150] Setting up res3b3_res3b3_relu_0_split
I0731 08:39:50.168009 30983 net.cpp:157] Top shape: 1 512 28 28 (401408)
I0731 08:39:50.168014 30983 net.cpp:157] Top shape: 1 512 28 28 (401408)
I0731 08:39:50.168017 30983 net.cpp:165] Memory required for data: 174813196
I0731 08:39:50.168022 30983 layer_factory.hpp:77] Creating layer res4a_branch1
I0731 08:39:50.168035 30983 net.cpp:100] Creating Layer res4a_branch1
I0731 08:39:50.168041 30983 net.cpp:444] res4a_branch1 <- res3b3_res3b3_relu_0_split_0
I0731 08:39:50.168051 30983 net.cpp:418] res4a_branch1 -> res4a_branch1
I0731 08:39:50.174331 30983 net.cpp:150] Setting up res4a_branch1
I0731 08:39:50.174350 30983 net.cpp:157] Top shape: 1 1024 14 14 (200704)
I0731 08:39:50.174355 30983 net.cpp:165] Memory required for data: 175616012
I0731 08:39:50.174362 30983 layer_factory.hpp:77] Creating layer bn4a_branch1
I0731 08:39:50.174372 30983 net.cpp:100] Creating Layer bn4a_branch1
I0731 08:39:50.174378 30983 net.cpp:444] bn4a_branch1 <- res4a_branch1
I0731 08:39:50.174386 30983 net.cpp:405] bn4a_branch1 -> res4a_branch1 (in-place)
I0731 08:39:50.174682 30983 net.cpp:150] Setting up bn4a_branch1
I0731 08:39:50.174693 30983 net.cpp:157] Top shape: 1 1024 14 14 (200704)
I0731 08:39:50.174703 30983 net.cpp:165] Memory required for data: 176418828
I0731 08:39:50.174712 30983 layer_factory.hpp:77] Creating layer scale4a_branch1
I0731 08:39:50.174721 30983 net.cpp:100] Creating Layer scale4a_branch1
I0731 08:39:50.174726 30983 net.cpp:444] scale4a_branch1 <- res4a_branch1
I0731 08:39:50.174734 30983 net.cpp:405] scale4a_branch1 -> res4a_branch1 (in-place)
I0731 08:39:50.174790 30983 layer_factory.hpp:77] Creating layer scale4a_branch1
I0731 08:39:50.174945 30983 net.cpp:150] Setting up scale4a_branch1
I0731 08:39:50.174955 30983 net.cpp:157] Top shape: 1 1024 14 14 (200704)
I0731 08:39:50.174959 30983 net.cpp:165] Memory required for data: 177221644
I0731 08:39:50.174966 30983 layer_factory.hpp:77] Creating layer res4a_branch2a
I0731 08:39:50.174978 30983 net.cpp:100] Creating Layer res4a_branch2a
I0731 08:39:50.174983 30983 net.cpp:444] res4a_branch2a <- res3b3_res3b3_relu_0_split_1
I0731 08:39:50.174993 30983 net.cpp:418] res4a_branch2a -> res4a_branch2a
I0731 08:39:50.181166 30983 net.cpp:150] Setting up res4a_branch2a
I0731 08:39:50.181185 30983 net.cpp:157] Top shape: 1 256 14 14 (50176)
I0731 08:39:50.181190 30983 net.cpp:165] Memory required for data: 177422348
I0731 08:39:50.181200 30983 layer_factory.hpp:77] Creating layer bn4a_branch2a
I0731 08:39:50.181212 30983 net.cpp:100] Creating Layer bn4a_branch2a
I0731 08:39:50.181218 30983 net.cpp:444] bn4a_branch2a <- res4a_branch2a
I0731 08:39:50.181226 30983 net.cpp:405] bn4a_branch2a -> res4a_branch2a (in-place)
I0731 08:39:50.181495 30983 net.cpp:150] Setting up bn4a_branch2a
I0731 08:39:50.181505 30983 net.cpp:157] Top shape: 1 256 14 14 (50176)
I0731 08:39:50.181509 30983 net.cpp:165] Memory required for data: 177623052
I0731 08:39:50.181519 30983 layer_factory.hpp:77] Creating layer scale4a_branch2a
I0731 08:39:50.181529 30983 net.cpp:100] Creating Layer scale4a_branch2a
I0731 08:39:50.181533 30983 net.cpp:444] scale4a_branch2a <- res4a_branch2a
I0731 08:39:50.181540 30983 net.cpp:405] scale4a_branch2a -> res4a_branch2a (in-place)
I0731 08:39:50.181589 30983 layer_factory.hpp:77] Creating layer scale4a_branch2a
I0731 08:39:50.181726 30983 net.cpp:150] Setting up scale4a_branch2a
I0731 08:39:50.181735 30983 net.cpp:157] Top shape: 1 256 14 14 (50176)
I0731 08:39:50.181740 30983 net.cpp:165] Memory required for data: 177823756
I0731 08:39:50.181747 30983 layer_factory.hpp:77] Creating layer res4a_branch2a_relu
I0731 08:39:50.181756 30983 net.cpp:100] Creating Layer res4a_branch2a_relu
I0731 08:39:50.181761 30983 net.cpp:444] res4a_branch2a_relu <- res4a_branch2a
I0731 08:39:50.181766 30983 net.cpp:405] res4a_branch2a_relu -> res4a_branch2a (in-place)
I0731 08:39:50.183454 30983 net.cpp:150] Setting up res4a_branch2a_relu
I0731 08:39:50.183470 30983 net.cpp:157] Top shape: 1 256 14 14 (50176)
I0731 08:39:50.183475 30983 net.cpp:165] Memory required for data: 178024460
I0731 08:39:50.183481 30983 layer_factory.hpp:77] Creating layer res4a_branch2b
I0731 08:39:50.183496 30983 net.cpp:100] Creating Layer res4a_branch2b
I0731 08:39:50.183502 30983 net.cpp:444] res4a_branch2b <- res4a_branch2a
I0731 08:39:50.183512 30983 net.cpp:418] res4a_branch2b -> res4a_branch2b
I0731 08:39:50.192557 30983 net.cpp:150] Setting up res4a_branch2b
I0731 08:39:50.192575 30983 net.cpp:157] Top shape: 1 256 14 14 (50176)
I0731 08:39:50.192580 30983 net.cpp:165] Memory required for data: 178225164
I0731 08:39:50.192589 30983 layer_factory.hpp:77] Creating layer bn4a_branch2b
I0731 08:39:50.192600 30983 net.cpp:100] Creating Layer bn4a_branch2b
I0731 08:39:50.192605 30983 net.cpp:444] bn4a_branch2b <- res4a_branch2b
I0731 08:39:50.192615 30983 net.cpp:405] bn4a_branch2b -> res4a_branch2b (in-place)
I0731 08:39:50.192885 30983 net.cpp:150] Setting up bn4a_branch2b
I0731 08:39:50.192896 30983 net.cpp:157] Top shape: 1 256 14 14 (50176)
I0731 08:39:50.192901 30983 net.cpp:165] Memory required for data: 178425868
I0731 08:39:50.192910 30983 layer_factory.hpp:77] Creating layer scale4a_branch2b
I0731 08:39:50.192919 30983 net.cpp:100] Creating Layer scale4a_branch2b
I0731 08:39:50.192929 30983 net.cpp:444] scale4a_branch2b <- res4a_branch2b
I0731 08:39:50.192936 30983 net.cpp:405] scale4a_branch2b -> res4a_branch2b (in-place)
I0731 08:39:50.192991 30983 layer_factory.hpp:77] Creating layer scale4a_branch2b
I0731 08:39:50.193133 30983 net.cpp:150] Setting up scale4a_branch2b
I0731 08:39:50.193143 30983 net.cpp:157] Top shape: 1 256 14 14 (50176)
I0731 08:39:50.193148 30983 net.cpp:165] Memory required for data: 178626572
I0731 08:39:50.193156 30983 layer_factory.hpp:77] Creating layer res4a_branch2b_relu
I0731 08:39:50.193164 30983 net.cpp:100] Creating Layer res4a_branch2b_relu
I0731 08:39:50.193171 30983 net.cpp:444] res4a_branch2b_relu <- res4a_branch2b
I0731 08:39:50.193176 30983 net.cpp:405] res4a_branch2b_relu -> res4a_branch2b (in-place)
I0731 08:39:50.193951 30983 net.cpp:150] Setting up res4a_branch2b_relu
I0731 08:39:50.193964 30983 net.cpp:157] Top shape: 1 256 14 14 (50176)
I0731 08:39:50.193969 30983 net.cpp:165] Memory required for data: 178827276
I0731 08:39:50.193987 30983 layer_factory.hpp:77] Creating layer res4a_branch2c
I0731 08:39:50.194000 30983 net.cpp:100] Creating Layer res4a_branch2c
I0731 08:39:50.194005 30983 net.cpp:444] res4a_branch2c <- res4a_branch2b
I0731 08:39:50.194015 30983 net.cpp:418] res4a_branch2c -> res4a_branch2c
I0731 08:39:50.203325 30983 net.cpp:150] Setting up res4a_branch2c
I0731 08:39:50.203344 30983 net.cpp:157] Top shape: 1 1024 14 14 (200704)
I0731 08:39:50.203349 30983 net.cpp:165] Memory required for data: 179630092
I0731 08:39:50.203357 30983 layer_factory.hpp:77] Creating layer bn4a_branch2c
I0731 08:39:50.203368 30983 net.cpp:100] Creating Layer bn4a_branch2c
I0731 08:39:50.203375 30983 net.cpp:444] bn4a_branch2c <- res4a_branch2c
I0731 08:39:50.203384 30983 net.cpp:405] bn4a_branch2c -> res4a_branch2c (in-place)
I0731 08:39:50.203655 30983 net.cpp:150] Setting up bn4a_branch2c
I0731 08:39:50.203666 30983 net.cpp:157] Top shape: 1 1024 14 14 (200704)
I0731 08:39:50.203670 30983 net.cpp:165] Memory required for data: 180432908
I0731 08:39:50.203691 30983 layer_factory.hpp:77] Creating layer scale4a_branch2c
I0731 08:39:50.203702 30983 net.cpp:100] Creating Layer scale4a_branch2c
I0731 08:39:50.203707 30983 net.cpp:444] scale4a_branch2c <- res4a_branch2c
I0731 08:39:50.203714 30983 net.cpp:405] scale4a_branch2c -> res4a_branch2c (in-place)
I0731 08:39:50.203765 30983 layer_factory.hpp:77] Creating layer scale4a_branch2c
I0731 08:39:50.203922 30983 net.cpp:150] Setting up scale4a_branch2c
I0731 08:39:50.203932 30983 net.cpp:157] Top shape: 1 1024 14 14 (200704)
I0731 08:39:50.203936 30983 net.cpp:165] Memory required for data: 181235724
I0731 08:39:50.203943 30983 layer_factory.hpp:77] Creating layer res4a
I0731 08:39:50.203955 30983 net.cpp:100] Creating Layer res4a
I0731 08:39:50.203961 30983 net.cpp:444] res4a <- res4a_branch1
I0731 08:39:50.203968 30983 net.cpp:444] res4a <- res4a_branch2c
I0731 08:39:50.203974 30983 net.cpp:418] res4a -> res4a
I0731 08:39:50.204010 30983 net.cpp:150] Setting up res4a
I0731 08:39:50.204020 30983 net.cpp:157] Top shape: 1 1024 14 14 (200704)
I0731 08:39:50.204025 30983 net.cpp:165] Memory required for data: 182038540
I0731 08:39:50.204030 30983 layer_factory.hpp:77] Creating layer res4a_relu
I0731 08:39:50.204036 30983 net.cpp:100] Creating Layer res4a_relu
I0731 08:39:50.204041 30983 net.cpp:444] res4a_relu <- res4a
I0731 08:39:50.204053 30983 net.cpp:405] res4a_relu -> res4a (in-place)
I0731 08:39:50.205814 30983 net.cpp:150] Setting up res4a_relu
I0731 08:39:50.205832 30983 net.cpp:157] Top shape: 1 1024 14 14 (200704)
I0731 08:39:50.205837 30983 net.cpp:165] Memory required for data: 182841356
I0731 08:39:50.205842 30983 layer_factory.hpp:77] Creating layer res4a_res4a_relu_0_split
I0731 08:39:50.205850 30983 net.cpp:100] Creating Layer res4a_res4a_relu_0_split
I0731 08:39:50.205868 30983 net.cpp:444] res4a_res4a_relu_0_split <- res4a
I0731 08:39:50.205879 30983 net.cpp:418] res4a_res4a_relu_0_split -> res4a_res4a_relu_0_split_0
I0731 08:39:50.205889 30983 net.cpp:418] res4a_res4a_relu_0_split -> res4a_res4a_relu_0_split_1
I0731 08:39:50.205957 30983 net.cpp:150] Setting up res4a_res4a_relu_0_split
I0731 08:39:50.205967 30983 net.cpp:157] Top shape: 1 1024 14 14 (200704)
I0731 08:39:50.205973 30983 net.cpp:157] Top shape: 1 1024 14 14 (200704)
I0731 08:39:50.205977 30983 net.cpp:165] Memory required for data: 184446988
I0731 08:39:50.205982 30983 layer_factory.hpp:77] Creating layer res4b1_branch2a
I0731 08:39:50.206004 30983 net.cpp:100] Creating Layer res4b1_branch2a
I0731 08:39:50.206012 30983 net.cpp:444] res4b1_branch2a <- res4a_res4a_relu_0_split_0
I0731 08:39:50.206019 30983 net.cpp:418] res4b1_branch2a -> res4b1_branch2a
I0731 08:39:50.213547 30983 net.cpp:150] Setting up res4b1_branch2a
I0731 08:39:50.213565 30983 net.cpp:157] Top shape: 1 256 14 14 (50176)
I0731 08:39:50.213572 30983 net.cpp:165] Memory required for data: 184647692
I0731 08:39:50.213582 30983 layer_factory.hpp:77] Creating layer bn4b1_branch2a
I0731 08:39:50.213593 30983 net.cpp:100] Creating Layer bn4b1_branch2a
I0731 08:39:50.213598 30983 net.cpp:444] bn4b1_branch2a <- res4b1_branch2a
I0731 08:39:50.213605 30983 net.cpp:405] bn4b1_branch2a -> res4b1_branch2a (in-place)
I0731 08:39:50.213861 30983 net.cpp:150] Setting up bn4b1_branch2a
I0731 08:39:50.213871 30983 net.cpp:157] Top shape: 1 256 14 14 (50176)
I0731 08:39:50.213876 30983 net.cpp:165] Memory required for data: 184848396
I0731 08:39:50.213884 30983 layer_factory.hpp:77] Creating layer scale4b1_branch2a
I0731 08:39:50.213893 30983 net.cpp:100] Creating Layer scale4b1_branch2a
I0731 08:39:50.213898 30983 net.cpp:444] scale4b1_branch2a <- res4b1_branch2a
I0731 08:39:50.213904 30983 net.cpp:405] scale4b1_branch2a -> res4b1_branch2a (in-place)
I0731 08:39:50.213958 30983 layer_factory.hpp:77] Creating layer scale4b1_branch2a
I0731 08:39:50.214118 30983 net.cpp:150] Setting up scale4b1_branch2a
I0731 08:39:50.214128 30983 net.cpp:157] Top shape: 1 256 14 14 (50176)
I0731 08:39:50.214133 30983 net.cpp:165] Memory required for data: 185049100
I0731 08:39:50.214140 30983 layer_factory.hpp:77] Creating layer res4b1_branch2a_relu
I0731 08:39:50.214148 30983 net.cpp:100] Creating Layer res4b1_branch2a_relu
I0731 08:39:50.214155 30983 net.cpp:444] res4b1_branch2a_relu <- res4b1_branch2a
I0731 08:39:50.214161 30983 net.cpp:405] res4b1_branch2a_relu -> res4b1_branch2a (in-place)
I0731 08:39:50.216020 30983 net.cpp:150] Setting up res4b1_branch2a_relu
I0731 08:39:50.216037 30983 net.cpp:157] Top shape: 1 256 14 14 (50176)
I0731 08:39:50.216042 30983 net.cpp:165] Memory required for data: 185249804
I0731 08:39:50.216048 30983 layer_factory.hpp:77] Creating layer res4b1_branch2b
I0731 08:39:50.216063 30983 net.cpp:100] Creating Layer res4b1_branch2b
I0731 08:39:50.216068 30983 net.cpp:444] res4b1_branch2b <- res4b1_branch2a
I0731 08:39:50.216076 30983 net.cpp:418] res4b1_branch2b -> res4b1_branch2b
I0731 08:39:50.224247 30983 net.cpp:150] Setting up res4b1_branch2b
I0731 08:39:50.224267 30983 net.cpp:157] Top shape: 1 256 14 14 (50176)
I0731 08:39:50.224282 30983 net.cpp:165] Memory required for data: 185450508
I0731 08:39:50.224290 30983 layer_factory.hpp:77] Creating layer bn4b1_branch2b
I0731 08:39:50.224299 30983 net.cpp:100] Creating Layer bn4b1_branch2b
I0731 08:39:50.224305 30983 net.cpp:444] bn4b1_branch2b <- res4b1_branch2b
I0731 08:39:50.224311 30983 net.cpp:405] bn4b1_branch2b -> res4b1_branch2b (in-place)
I0731 08:39:50.224576 30983 net.cpp:150] Setting up bn4b1_branch2b
I0731 08:39:50.224589 30983 net.cpp:157] Top shape: 1 256 14 14 (50176)
I0731 08:39:50.224593 30983 net.cpp:165] Memory required for data: 185651212
I0731 08:39:50.224602 30983 layer_factory.hpp:77] Creating layer scale4b1_branch2b
I0731 08:39:50.224611 30983 net.cpp:100] Creating Layer scale4b1_branch2b
I0731 08:39:50.224617 30983 net.cpp:444] scale4b1_branch2b <- res4b1_branch2b
I0731 08:39:50.224625 30983 net.cpp:405] scale4b1_branch2b -> res4b1_branch2b (in-place)
I0731 08:39:50.224680 30983 layer_factory.hpp:77] Creating layer scale4b1_branch2b
I0731 08:39:50.224838 30983 net.cpp:150] Setting up scale4b1_branch2b
I0731 08:39:50.224853 30983 net.cpp:157] Top shape: 1 256 14 14 (50176)
I0731 08:39:50.224858 30983 net.cpp:165] Memory required for data: 185851916
I0731 08:39:50.224864 30983 layer_factory.hpp:77] Creating layer res4b1_branch2b_relu
I0731 08:39:50.224871 30983 net.cpp:100] Creating Layer res4b1_branch2b_relu
I0731 08:39:50.224876 30983 net.cpp:444] res4b1_branch2b_relu <- res4b1_branch2b
I0731 08:39:50.224884 30983 net.cpp:405] res4b1_branch2b_relu -> res4b1_branch2b (in-place)
I0731 08:39:50.227546 30983 net.cpp:150] Setting up res4b1_branch2b_relu
I0731 08:39:50.227561 30983 net.cpp:157] Top shape: 1 256 14 14 (50176)
I0731 08:39:50.227566 30983 net.cpp:165] Memory required for data: 186052620
I0731 08:39:50.227583 30983 layer_factory.hpp:77] Creating layer res4b1_branch2c
I0731 08:39:50.227597 30983 net.cpp:100] Creating Layer res4b1_branch2c
I0731 08:39:50.227602 30983 net.cpp:444] res4b1_branch2c <- res4b1_branch2b
I0731 08:39:50.227609 30983 net.cpp:418] res4b1_branch2c -> res4b1_branch2c
I0731 08:39:50.235276 30983 net.cpp:150] Setting up res4b1_branch2c
I0731 08:39:50.235296 30983 net.cpp:157] Top shape: 1 1024 14 14 (200704)
I0731 08:39:50.235301 30983 net.cpp:165] Memory required for data: 186855436
I0731 08:39:50.235309 30983 layer_factory.hpp:77] Creating layer bn4b1_branch2c
I0731 08:39:50.235328 30983 net.cpp:100] Creating Layer bn4b1_branch2c
I0731 08:39:50.235334 30983 net.cpp:444] bn4b1_branch2c <- res4b1_branch2c
I0731 08:39:50.235342 30983 net.cpp:405] bn4b1_branch2c -> res4b1_branch2c (in-place)
I0731 08:39:50.235616 30983 net.cpp:150] Setting up bn4b1_branch2c
I0731 08:39:50.235628 30983 net.cpp:157] Top shape: 1 1024 14 14 (200704)
I0731 08:39:50.235632 30983 net.cpp:165] Memory required for data: 187658252
I0731 08:39:50.235641 30983 layer_factory.hpp:77] Creating layer scale4b1_branch2c
I0731 08:39:50.235649 30983 net.cpp:100] Creating Layer scale4b1_branch2c
I0731 08:39:50.235654 30983 net.cpp:444] scale4b1_branch2c <- res4b1_branch2c
I0731 08:39:50.235662 30983 net.cpp:405] scale4b1_branch2c -> res4b1_branch2c (in-place)
I0731 08:39:50.235710 30983 layer_factory.hpp:77] Creating layer scale4b1_branch2c
I0731 08:39:50.235868 30983 net.cpp:150] Setting up scale4b1_branch2c
I0731 08:39:50.235879 30983 net.cpp:157] Top shape: 1 1024 14 14 (200704)
I0731 08:39:50.235884 30983 net.cpp:165] Memory required for data: 188461068
I0731 08:39:50.235893 30983 layer_factory.hpp:77] Creating layer res4b1
I0731 08:39:50.235899 30983 net.cpp:100] Creating Layer res4b1
I0731 08:39:50.235904 30983 net.cpp:444] res4b1 <- res4a_res4a_relu_0_split_1
I0731 08:39:50.235909 30983 net.cpp:444] res4b1 <- res4b1_branch2c
I0731 08:39:50.235915 30983 net.cpp:418] res4b1 -> res4b1
I0731 08:39:50.235954 30983 net.cpp:150] Setting up res4b1
I0731 08:39:50.235962 30983 net.cpp:157] Top shape: 1 1024 14 14 (200704)
I0731 08:39:50.235966 30983 net.cpp:165] Memory required for data: 189263884
I0731 08:39:50.235971 30983 layer_factory.hpp:77] Creating layer res4b1_relu
I0731 08:39:50.235980 30983 net.cpp:100] Creating Layer res4b1_relu
I0731 08:39:50.235985 30983 net.cpp:444] res4b1_relu <- res4b1
I0731 08:39:50.235991 30983 net.cpp:405] res4b1_relu -> res4b1 (in-place)
I0731 08:39:50.236706 30983 net.cpp:150] Setting up res4b1_relu
I0731 08:39:50.236721 30983 net.cpp:157] Top shape: 1 1024 14 14 (200704)
I0731 08:39:50.236726 30983 net.cpp:165] Memory required for data: 190066700
I0731 08:39:50.236732 30983 layer_factory.hpp:77] Creating layer res4b1_res4b1_relu_0_split
I0731 08:39:50.236739 30983 net.cpp:100] Creating Layer res4b1_res4b1_relu_0_split
I0731 08:39:50.236745 30983 net.cpp:444] res4b1_res4b1_relu_0_split <- res4b1
I0731 08:39:50.236755 30983 net.cpp:418] res4b1_res4b1_relu_0_split -> res4b1_res4b1_relu_0_split_0
I0731 08:39:50.236778 30983 net.cpp:418] res4b1_res4b1_relu_0_split -> res4b1_res4b1_relu_0_split_1
I0731 08:39:50.236851 30983 net.cpp:150] Setting up res4b1_res4b1_relu_0_split
I0731 08:39:50.236861 30983 net.cpp:157] Top shape: 1 1024 14 14 (200704)
I0731 08:39:50.236872 30983 net.cpp:157] Top shape: 1 1024 14 14 (200704)
I0731 08:39:50.236877 30983 net.cpp:165] Memory required for data: 191672332
I0731 08:39:50.236881 30983 layer_factory.hpp:77] Creating layer res4b2_branch2a
I0731 08:39:50.236893 30983 net.cpp:100] Creating Layer res4b2_branch2a
I0731 08:39:50.236899 30983 net.cpp:444] res4b2_branch2a <- res4b1_res4b1_relu_0_split_0
I0731 08:39:50.236908 30983 net.cpp:418] res4b2_branch2a -> res4b2_branch2a
I0731 08:39:50.245273 30983 net.cpp:150] Setting up res4b2_branch2a
I0731 08:39:50.245291 30983 net.cpp:157] Top shape: 1 256 14 14 (50176)
I0731 08:39:50.245296 30983 net.cpp:165] Memory required for data: 191873036
I0731 08:39:50.245306 30983 layer_factory.hpp:77] Creating layer bn4b2_branch2a
I0731 08:39:50.245317 30983 net.cpp:100] Creating Layer bn4b2_branch2a
I0731 08:39:50.245323 30983 net.cpp:444] bn4b2_branch2a <- res4b2_branch2a
I0731 08:39:50.245332 30983 net.cpp:405] bn4b2_branch2a -> res4b2_branch2a (in-place)
I0731 08:39:50.245615 30983 net.cpp:150] Setting up bn4b2_branch2a
I0731 08:39:50.245625 30983 net.cpp:157] Top shape: 1 256 14 14 (50176)
I0731 08:39:50.245628 30983 net.cpp:165] Memory required for data: 192073740
I0731 08:39:50.245637 30983 layer_factory.hpp:77] Creating layer scale4b2_branch2a
I0731 08:39:50.245645 30983 net.cpp:100] Creating Layer scale4b2_branch2a
I0731 08:39:50.245651 30983 net.cpp:444] scale4b2_branch2a <- res4b2_branch2a
I0731 08:39:50.245656 30983 net.cpp:405] scale4b2_branch2a -> res4b2_branch2a (in-place)
I0731 08:39:50.245708 30983 layer_factory.hpp:77] Creating layer scale4b2_branch2a
I0731 08:39:50.245857 30983 net.cpp:150] Setting up scale4b2_branch2a
I0731 08:39:50.245869 30983 net.cpp:157] Top shape: 1 256 14 14 (50176)
I0731 08:39:50.245873 30983 net.cpp:165] Memory required for data: 192274444
I0731 08:39:50.245880 30983 layer_factory.hpp:77] Creating layer res4b2_branch2a_relu
I0731 08:39:50.245888 30983 net.cpp:100] Creating Layer res4b2_branch2a_relu
I0731 08:39:50.245893 30983 net.cpp:444] res4b2_branch2a_relu <- res4b2_branch2a
I0731 08:39:50.245898 30983 net.cpp:405] res4b2_branch2a_relu -> res4b2_branch2a (in-place)
I0731 08:39:50.246670 30983 net.cpp:150] Setting up res4b2_branch2a_relu
I0731 08:39:50.246685 30983 net.cpp:157] Top shape: 1 256 14 14 (50176)
I0731 08:39:50.246690 30983 net.cpp:165] Memory required for data: 192475148
I0731 08:39:50.246695 30983 layer_factory.hpp:77] Creating layer res4b2_branch2b
I0731 08:39:50.246721 30983 net.cpp:100] Creating Layer res4b2_branch2b
I0731 08:39:50.246727 30983 net.cpp:444] res4b2_branch2b <- res4b2_branch2a
I0731 08:39:50.246737 30983 net.cpp:418] res4b2_branch2b -> res4b2_branch2b
I0731 08:39:50.254855 30983 net.cpp:150] Setting up res4b2_branch2b
I0731 08:39:50.254876 30983 net.cpp:157] Top shape: 1 256 14 14 (50176)
I0731 08:39:50.254882 30983 net.cpp:165] Memory required for data: 192675852
I0731 08:39:50.254891 30983 layer_factory.hpp:77] Creating layer bn4b2_branch2b
I0731 08:39:50.254900 30983 net.cpp:100] Creating Layer bn4b2_branch2b
I0731 08:39:50.254906 30983 net.cpp:444] bn4b2_branch2b <- res4b2_branch2b
I0731 08:39:50.254916 30983 net.cpp:405] bn4b2_branch2b -> res4b2_branch2b (in-place)
I0731 08:39:50.255199 30983 net.cpp:150] Setting up bn4b2_branch2b
I0731 08:39:50.255210 30983 net.cpp:157] Top shape: 1 256 14 14 (50176)
I0731 08:39:50.255215 30983 net.cpp:165] Memory required for data: 192876556
I0731 08:39:50.255224 30983 layer_factory.hpp:77] Creating layer scale4b2_branch2b
I0731 08:39:50.255233 30983 net.cpp:100] Creating Layer scale4b2_branch2b
I0731 08:39:50.255237 30983 net.cpp:444] scale4b2_branch2b <- res4b2_branch2b
I0731 08:39:50.255246 30983 net.cpp:405] scale4b2_branch2b -> res4b2_branch2b (in-place)
I0731 08:39:50.255298 30983 layer_factory.hpp:77] Creating layer scale4b2_branch2b
I0731 08:39:50.255455 30983 net.cpp:150] Setting up scale4b2_branch2b
I0731 08:39:50.255467 30983 net.cpp:157] Top shape: 1 256 14 14 (50176)
I0731 08:39:50.255472 30983 net.cpp:165] Memory required for data: 193077260
I0731 08:39:50.255479 30983 layer_factory.hpp:77] Creating layer res4b2_branch2b_relu
I0731 08:39:50.255492 30983 net.cpp:100] Creating Layer res4b2_branch2b_relu
I0731 08:39:50.255498 30983 net.cpp:444] res4b2_branch2b_relu <- res4b2_branch2b
I0731 08:39:50.255506 30983 net.cpp:405] res4b2_branch2b_relu -> res4b2_branch2b (in-place)
I0731 08:39:50.256009 30983 net.cpp:150] Setting up res4b2_branch2b_relu
I0731 08:39:50.256023 30983 net.cpp:157] Top shape: 1 256 14 14 (50176)
I0731 08:39:50.256028 30983 net.cpp:165] Memory required for data: 193277964
I0731 08:39:50.256036 30983 layer_factory.hpp:77] Creating layer res4b2_branch2c
I0731 08:39:50.256050 30983 net.cpp:100] Creating Layer res4b2_branch2c
I0731 08:39:50.256055 30983 net.cpp:444] res4b2_branch2c <- res4b2_branch2b
I0731 08:39:50.256063 30983 net.cpp:418] res4b2_branch2c -> res4b2_branch2c
I0731 08:39:50.263176 30983 net.cpp:150] Setting up res4b2_branch2c
I0731 08:39:50.263195 30983 net.cpp:157] Top shape: 1 1024 14 14 (200704)
I0731 08:39:50.263200 30983 net.cpp:165] Memory required for data: 194080780
I0731 08:39:50.263208 30983 layer_factory.hpp:77] Creating layer bn4b2_branch2c
I0731 08:39:50.263221 30983 net.cpp:100] Creating Layer bn4b2_branch2c
I0731 08:39:50.263227 30983 net.cpp:444] bn4b2_branch2c <- res4b2_branch2c
I0731 08:39:50.263233 30983 net.cpp:405] bn4b2_branch2c -> res4b2_branch2c (in-place)
I0731 08:39:50.263540 30983 net.cpp:150] Setting up bn4b2_branch2c
I0731 08:39:50.263551 30983 net.cpp:157] Top shape: 1 1024 14 14 (200704)
I0731 08:39:50.263556 30983 net.cpp:165] Memory required for data: 194883596
I0731 08:39:50.263566 30983 layer_factory.hpp:77] Creating layer scale4b2_branch2c
I0731 08:39:50.263576 30983 net.cpp:100] Creating Layer scale4b2_branch2c
I0731 08:39:50.263582 30983 net.cpp:444] scale4b2_branch2c <- res4b2_branch2c
I0731 08:39:50.263588 30983 net.cpp:405] scale4b2_branch2c -> res4b2_branch2c (in-place)
I0731 08:39:50.263643 30983 layer_factory.hpp:77] Creating layer scale4b2_branch2c
I0731 08:39:50.263818 30983 net.cpp:150] Setting up scale4b2_branch2c
I0731 08:39:50.263828 30983 net.cpp:157] Top shape: 1 1024 14 14 (200704)
I0731 08:39:50.263833 30983 net.cpp:165] Memory required for data: 195686412
I0731 08:39:50.263840 30983 layer_factory.hpp:77] Creating layer res4b2
I0731 08:39:50.263849 30983 net.cpp:100] Creating Layer res4b2
I0731 08:39:50.263855 30983 net.cpp:444] res4b2 <- res4b1_res4b1_relu_0_split_1
I0731 08:39:50.263862 30983 net.cpp:444] res4b2 <- res4b2_branch2c
I0731 08:39:50.263871 30983 net.cpp:418] res4b2 -> res4b2
I0731 08:39:50.263906 30983 net.cpp:150] Setting up res4b2
I0731 08:39:50.263916 30983 net.cpp:157] Top shape: 1 1024 14 14 (200704)
I0731 08:39:50.263919 30983 net.cpp:165] Memory required for data: 196489228
I0731 08:39:50.263924 30983 layer_factory.hpp:77] Creating layer res4b2_relu
I0731 08:39:50.263934 30983 net.cpp:100] Creating Layer res4b2_relu
I0731 08:39:50.263939 30983 net.cpp:444] res4b2_relu <- res4b2
I0731 08:39:50.263945 30983 net.cpp:405] res4b2_relu -> res4b2 (in-place)
I0731 08:39:50.265826 30983 net.cpp:150] Setting up res4b2_relu
I0731 08:39:50.265854 30983 net.cpp:157] Top shape: 1 1024 14 14 (200704)
I0731 08:39:50.265859 30983 net.cpp:165] Memory required for data: 197292044
I0731 08:39:50.265866 30983 layer_factory.hpp:77] Creating layer res4b2_res4b2_relu_0_split
I0731 08:39:50.265873 30983 net.cpp:100] Creating Layer res4b2_res4b2_relu_0_split
I0731 08:39:50.265878 30983 net.cpp:444] res4b2_res4b2_relu_0_split <- res4b2
I0731 08:39:50.265888 30983 net.cpp:418] res4b2_res4b2_relu_0_split -> res4b2_res4b2_relu_0_split_0
I0731 08:39:50.265898 30983 net.cpp:418] res4b2_res4b2_relu_0_split -> res4b2_res4b2_relu_0_split_1
I0731 08:39:50.265962 30983 net.cpp:150] Setting up res4b2_res4b2_relu_0_split
I0731 08:39:50.265972 30983 net.cpp:157] Top shape: 1 1024 14 14 (200704)
I0731 08:39:50.265978 30983 net.cpp:157] Top shape: 1 1024 14 14 (200704)
I0731 08:39:50.265982 30983 net.cpp:165] Memory required for data: 198897676
I0731 08:39:50.265993 30983 layer_factory.hpp:77] Creating layer res4b3_branch2a
I0731 08:39:50.266012 30983 net.cpp:100] Creating Layer res4b3_branch2a
I0731 08:39:50.266018 30983 net.cpp:444] res4b3_branch2a <- res4b2_res4b2_relu_0_split_0
I0731 08:39:50.266027 30983 net.cpp:418] res4b3_branch2a -> res4b3_branch2a
I0731 08:39:50.272770 30983 net.cpp:150] Setting up res4b3_branch2a
I0731 08:39:50.272789 30983 net.cpp:157] Top shape: 1 256 14 14 (50176)
I0731 08:39:50.272794 30983 net.cpp:165] Memory required for data: 199098380
I0731 08:39:50.272804 30983 layer_factory.hpp:77] Creating layer bn4b3_branch2a
I0731 08:39:50.272815 30983 net.cpp:100] Creating Layer bn4b3_branch2a
I0731 08:39:50.272821 30983 net.cpp:444] bn4b3_branch2a <- res4b3_branch2a
I0731 08:39:50.272830 30983 net.cpp:405] bn4b3_branch2a -> res4b3_branch2a (in-place)
I0731 08:39:50.273102 30983 net.cpp:150] Setting up bn4b3_branch2a
I0731 08:39:50.273113 30983 net.cpp:157] Top shape: 1 256 14 14 (50176)
I0731 08:39:50.273118 30983 net.cpp:165] Memory required for data: 199299084
I0731 08:39:50.273126 30983 layer_factory.hpp:77] Creating layer scale4b3_branch2a
I0731 08:39:50.273138 30983 net.cpp:100] Creating Layer scale4b3_branch2a
I0731 08:39:50.273144 30983 net.cpp:444] scale4b3_branch2a <- res4b3_branch2a
I0731 08:39:50.273149 30983 net.cpp:405] scale4b3_branch2a -> res4b3_branch2a (in-place)
I0731 08:39:50.273205 30983 layer_factory.hpp:77] Creating layer scale4b3_branch2a
I0731 08:39:50.273366 30983 net.cpp:150] Setting up scale4b3_branch2a
I0731 08:39:50.273376 30983 net.cpp:157] Top shape: 1 256 14 14 (50176)
I0731 08:39:50.273380 30983 net.cpp:165] Memory required for data: 199499788
I0731 08:39:50.273388 30983 layer_factory.hpp:77] Creating layer res4b3_branch2a_relu
I0731 08:39:50.273397 30983 net.cpp:100] Creating Layer res4b3_branch2a_relu
I0731 08:39:50.273402 30983 net.cpp:444] res4b3_branch2a_relu <- res4b3_branch2a
I0731 08:39:50.273411 30983 net.cpp:405] res4b3_branch2a_relu -> res4b3_branch2a (in-place)
I0731 08:39:50.274114 30983 net.cpp:150] Setting up res4b3_branch2a_relu
I0731 08:39:50.274142 30983 net.cpp:157] Top shape: 1 256 14 14 (50176)
I0731 08:39:50.274147 30983 net.cpp:165] Memory required for data: 199700492
I0731 08:39:50.274152 30983 layer_factory.hpp:77] Creating layer res4b3_branch2b
I0731 08:39:50.274166 30983 net.cpp:100] Creating Layer res4b3_branch2b
I0731 08:39:50.274173 30983 net.cpp:444] res4b3_branch2b <- res4b3_branch2a
I0731 08:39:50.274183 30983 net.cpp:418] res4b3_branch2b -> res4b3_branch2b
I0731 08:39:50.282150 30983 net.cpp:150] Setting up res4b3_branch2b
I0731 08:39:50.282167 30983 net.cpp:157] Top shape: 1 256 14 14 (50176)
I0731 08:39:50.282173 30983 net.cpp:165] Memory required for data: 199901196
I0731 08:39:50.282181 30983 layer_factory.hpp:77] Creating layer bn4b3_branch2b
I0731 08:39:50.282191 30983 net.cpp:100] Creating Layer bn4b3_branch2b
I0731 08:39:50.282196 30983 net.cpp:444] bn4b3_branch2b <- res4b3_branch2b
I0731 08:39:50.282205 30983 net.cpp:405] bn4b3_branch2b -> res4b3_branch2b (in-place)
I0731 08:39:50.282505 30983 net.cpp:150] Setting up bn4b3_branch2b
I0731 08:39:50.282516 30983 net.cpp:157] Top shape: 1 256 14 14 (50176)
I0731 08:39:50.282521 30983 net.cpp:165] Memory required for data: 200101900
I0731 08:39:50.282531 30983 layer_factory.hpp:77] Creating layer scale4b3_branch2b
I0731 08:39:50.282539 30983 net.cpp:100] Creating Layer scale4b3_branch2b
I0731 08:39:50.282555 30983 net.cpp:444] scale4b3_branch2b <- res4b3_branch2b
I0731 08:39:50.282563 30983 net.cpp:405] scale4b3_branch2b -> res4b3_branch2b (in-place)
I0731 08:39:50.282616 30983 layer_factory.hpp:77] Creating layer scale4b3_branch2b
I0731 08:39:50.282768 30983 net.cpp:150] Setting up scale4b3_branch2b
I0731 08:39:50.282779 30983 net.cpp:157] Top shape: 1 256 14 14 (50176)
I0731 08:39:50.282783 30983 net.cpp:165] Memory required for data: 200302604
I0731 08:39:50.282790 30983 layer_factory.hpp:77] Creating layer res4b3_branch2b_relu
I0731 08:39:50.282799 30983 net.cpp:100] Creating Layer res4b3_branch2b_relu
I0731 08:39:50.282804 30983 net.cpp:444] res4b3_branch2b_relu <- res4b3_branch2b
I0731 08:39:50.282816 30983 net.cpp:405] res4b3_branch2b_relu -> res4b3_branch2b (in-place)
I0731 08:39:50.284448 30983 net.cpp:150] Setting up res4b3_branch2b_relu
I0731 08:39:50.284463 30983 net.cpp:157] Top shape: 1 256 14 14 (50176)
I0731 08:39:50.284468 30983 net.cpp:165] Memory required for data: 200503308
I0731 08:39:50.284476 30983 layer_factory.hpp:77] Creating layer res4b3_branch2c
I0731 08:39:50.284489 30983 net.cpp:100] Creating Layer res4b3_branch2c
I0731 08:39:50.284497 30983 net.cpp:444] res4b3_branch2c <- res4b3_branch2b
I0731 08:39:50.284503 30983 net.cpp:418] res4b3_branch2c -> res4b3_branch2c
I0731 08:39:50.292731 30983 net.cpp:150] Setting up res4b3_branch2c
I0731 08:39:50.292748 30983 net.cpp:157] Top shape: 1 1024 14 14 (200704)
I0731 08:39:50.292754 30983 net.cpp:165] Memory required for data: 201306124
I0731 08:39:50.292762 30983 layer_factory.hpp:77] Creating layer bn4b3_branch2c
I0731 08:39:50.292783 30983 net.cpp:100] Creating Layer bn4b3_branch2c
I0731 08:39:50.292791 30983 net.cpp:444] bn4b3_branch2c <- res4b3_branch2c
I0731 08:39:50.292798 30983 net.cpp:405] bn4b3_branch2c -> res4b3_branch2c (in-place)
I0731 08:39:50.293081 30983 net.cpp:150] Setting up bn4b3_branch2c
I0731 08:39:50.293102 30983 net.cpp:157] Top shape: 1 1024 14 14 (200704)
I0731 08:39:50.293107 30983 net.cpp:165] Memory required for data: 202108940
I0731 08:39:50.293115 30983 layer_factory.hpp:77] Creating layer scale4b3_branch2c
I0731 08:39:50.293126 30983 net.cpp:100] Creating Layer scale4b3_branch2c
I0731 08:39:50.293131 30983 net.cpp:444] scale4b3_branch2c <- res4b3_branch2c
I0731 08:39:50.293138 30983 net.cpp:405] scale4b3_branch2c -> res4b3_branch2c (in-place)
I0731 08:39:50.293205 30983 layer_factory.hpp:77] Creating layer scale4b3_branch2c
I0731 08:39:50.293395 30983 net.cpp:150] Setting up scale4b3_branch2c
I0731 08:39:50.293406 30983 net.cpp:157] Top shape: 1 1024 14 14 (200704)
I0731 08:39:50.293409 30983 net.cpp:165] Memory required for data: 202911756
I0731 08:39:50.293418 30983 layer_factory.hpp:77] Creating layer res4b3
I0731 08:39:50.293426 30983 net.cpp:100] Creating Layer res4b3
I0731 08:39:50.293431 30983 net.cpp:444] res4b3 <- res4b2_res4b2_relu_0_split_1
I0731 08:39:50.293437 30983 net.cpp:444] res4b3 <- res4b3_branch2c
I0731 08:39:50.293448 30983 net.cpp:418] res4b3 -> res4b3
I0731 08:39:50.293493 30983 net.cpp:150] Setting up res4b3
I0731 08:39:50.293501 30983 net.cpp:157] Top shape: 1 1024 14 14 (200704)
I0731 08:39:50.293505 30983 net.cpp:165] Memory required for data: 203714572
I0731 08:39:50.293510 30983 layer_factory.hpp:77] Creating layer res4b3_relu
I0731 08:39:50.293519 30983 net.cpp:100] Creating Layer res4b3_relu
I0731 08:39:50.293524 30983 net.cpp:444] res4b3_relu <- res4b3
I0731 08:39:50.293530 30983 net.cpp:405] res4b3_relu -> res4b3 (in-place)
I0731 08:39:50.295435 30983 net.cpp:150] Setting up res4b3_relu
I0731 08:39:50.295452 30983 net.cpp:157] Top shape: 1 1024 14 14 (200704)
I0731 08:39:50.295457 30983 net.cpp:165] Memory required for data: 204517388
I0731 08:39:50.295464 30983 layer_factory.hpp:77] Creating layer res4b3_res4b3_relu_0_split
I0731 08:39:50.295471 30983 net.cpp:100] Creating Layer res4b3_res4b3_relu_0_split
I0731 08:39:50.295476 30983 net.cpp:444] res4b3_res4b3_relu_0_split <- res4b3
I0731 08:39:50.295486 30983 net.cpp:418] res4b3_res4b3_relu_0_split -> res4b3_res4b3_relu_0_split_0
I0731 08:39:50.295496 30983 net.cpp:418] res4b3_res4b3_relu_0_split -> res4b3_res4b3_relu_0_split_1
I0731 08:39:50.295572 30983 net.cpp:150] Setting up res4b3_res4b3_relu_0_split
I0731 08:39:50.295583 30983 net.cpp:157] Top shape: 1 1024 14 14 (200704)
I0731 08:39:50.295588 30983 net.cpp:157] Top shape: 1 1024 14 14 (200704)
I0731 08:39:50.295591 30983 net.cpp:165] Memory required for data: 206123020
I0731 08:39:50.295596 30983 layer_factory.hpp:77] Creating layer res4b4_branch2a
I0731 08:39:50.295608 30983 net.cpp:100] Creating Layer res4b4_branch2a
I0731 08:39:50.295614 30983 net.cpp:444] res4b4_branch2a <- res4b3_res4b3_relu_0_split_0
I0731 08:39:50.295621 30983 net.cpp:418] res4b4_branch2a -> res4b4_branch2a
I0731 08:39:50.301811 30983 net.cpp:150] Setting up res4b4_branch2a
I0731 08:39:50.301841 30983 net.cpp:157] Top shape: 1 256 14 14 (50176)
I0731 08:39:50.301847 30983 net.cpp:165] Memory required for data: 206323724
I0731 08:39:50.301857 30983 layer_factory.hpp:77] Creating layer bn4b4_branch2a
I0731 08:39:50.301869 30983 net.cpp:100] Creating Layer bn4b4_branch2a
I0731 08:39:50.301875 30983 net.cpp:444] bn4b4_branch2a <- res4b4_branch2a
I0731 08:39:50.301885 30983 net.cpp:405] bn4b4_branch2a -> res4b4_branch2a (in-place)
I0731 08:39:50.302183 30983 net.cpp:150] Setting up bn4b4_branch2a
I0731 08:39:50.302194 30983 net.cpp:157] Top shape: 1 256 14 14 (50176)
I0731 08:39:50.302198 30983 net.cpp:165] Memory required for data: 206524428
I0731 08:39:50.302207 30983 layer_factory.hpp:77] Creating layer scale4b4_branch2a
I0731 08:39:50.302217 30983 net.cpp:100] Creating Layer scale4b4_branch2a
I0731 08:39:50.302223 30983 net.cpp:444] scale4b4_branch2a <- res4b4_branch2a
I0731 08:39:50.302229 30983 net.cpp:405] scale4b4_branch2a -> res4b4_branch2a (in-place)
I0731 08:39:50.302284 30983 layer_factory.hpp:77] Creating layer scale4b4_branch2a
I0731 08:39:50.302434 30983 net.cpp:150] Setting up scale4b4_branch2a
I0731 08:39:50.302444 30983 net.cpp:157] Top shape: 1 256 14 14 (50176)
I0731 08:39:50.302448 30983 net.cpp:165] Memory required for data: 206725132
I0731 08:39:50.302455 30983 layer_factory.hpp:77] Creating layer res4b4_branch2a_relu
I0731 08:39:50.302465 30983 net.cpp:100] Creating Layer res4b4_branch2a_relu
I0731 08:39:50.302470 30983 net.cpp:444] res4b4_branch2a_relu <- res4b4_branch2a
I0731 08:39:50.302476 30983 net.cpp:405] res4b4_branch2a_relu -> res4b4_branch2a (in-place)
I0731 08:39:50.304431 30983 net.cpp:150] Setting up res4b4_branch2a_relu
I0731 08:39:50.304447 30983 net.cpp:157] Top shape: 1 256 14 14 (50176)
I0731 08:39:50.304452 30983 net.cpp:165] Memory required for data: 206925836
I0731 08:39:50.304460 30983 layer_factory.hpp:77] Creating layer res4b4_branch2b
I0731 08:39:50.304471 30983 net.cpp:100] Creating Layer res4b4_branch2b
I0731 08:39:50.304477 30983 net.cpp:444] res4b4_branch2b <- res4b4_branch2a
I0731 08:39:50.304486 30983 net.cpp:418] res4b4_branch2b -> res4b4_branch2b
I0731 08:39:50.310190 30983 net.cpp:150] Setting up res4b4_branch2b
I0731 08:39:50.310207 30983 net.cpp:157] Top shape: 1 256 14 14 (50176)
I0731 08:39:50.310212 30983 net.cpp:165] Memory required for data: 207126540
I0731 08:39:50.310220 30983 layer_factory.hpp:77] Creating layer bn4b4_branch2b
I0731 08:39:50.310231 30983 net.cpp:100] Creating Layer bn4b4_branch2b
I0731 08:39:50.310236 30983 net.cpp:444] bn4b4_branch2b <- res4b4_branch2b
I0731 08:39:50.310245 30983 net.cpp:405] bn4b4_branch2b -> res4b4_branch2b (in-place)
I0731 08:39:50.310524 30983 net.cpp:150] Setting up bn4b4_branch2b
I0731 08:39:50.310535 30983 net.cpp:157] Top shape: 1 256 14 14 (50176)
I0731 08:39:50.310539 30983 net.cpp:165] Memory required for data: 207327244
I0731 08:39:50.310560 30983 layer_factory.hpp:77] Creating layer scale4b4_branch2b
I0731 08:39:50.310570 30983 net.cpp:100] Creating Layer scale4b4_branch2b
I0731 08:39:50.310575 30983 net.cpp:444] scale4b4_branch2b <- res4b4_branch2b
I0731 08:39:50.310582 30983 net.cpp:405] scale4b4_branch2b -> res4b4_branch2b (in-place)
I0731 08:39:50.310655 30983 layer_factory.hpp:77] Creating layer scale4b4_branch2b
I0731 08:39:50.310818 30983 net.cpp:150] Setting up scale4b4_branch2b
I0731 08:39:50.310829 30983 net.cpp:157] Top shape: 1 256 14 14 (50176)
I0731 08:39:50.310834 30983 net.cpp:165] Memory required for data: 207527948
I0731 08:39:50.310842 30983 layer_factory.hpp:77] Creating layer res4b4_branch2b_relu
I0731 08:39:50.310851 30983 net.cpp:100] Creating Layer res4b4_branch2b_relu
I0731 08:39:50.310856 30983 net.cpp:444] res4b4_branch2b_relu <- res4b4_branch2b
I0731 08:39:50.310865 30983 net.cpp:405] res4b4_branch2b_relu -> res4b4_branch2b (in-place)
I0731 08:39:50.312017 30983 net.cpp:150] Setting up res4b4_branch2b_relu
I0731 08:39:50.312032 30983 net.cpp:157] Top shape: 1 256 14 14 (50176)
I0731 08:39:50.312047 30983 net.cpp:165] Memory required for data: 207728652
I0731 08:39:50.312062 30983 layer_factory.hpp:77] Creating layer res4b4_branch2c
I0731 08:39:50.312074 30983 net.cpp:100] Creating Layer res4b4_branch2c
I0731 08:39:50.312080 30983 net.cpp:444] res4b4_branch2c <- res4b4_branch2b
I0731 08:39:50.312088 30983 net.cpp:418] res4b4_branch2c -> res4b4_branch2c
I0731 08:39:50.319469 30983 net.cpp:150] Setting up res4b4_branch2c
I0731 08:39:50.319489 30983 net.cpp:157] Top shape: 1 1024 14 14 (200704)
I0731 08:39:50.319494 30983 net.cpp:165] Memory required for data: 208531468
I0731 08:39:50.319501 30983 layer_factory.hpp:77] Creating layer bn4b4_branch2c
I0731 08:39:50.319514 30983 net.cpp:100] Creating Layer bn4b4_branch2c
I0731 08:39:50.319519 30983 net.cpp:444] bn4b4_branch2c <- res4b4_branch2c
I0731 08:39:50.319526 30983 net.cpp:405] bn4b4_branch2c -> res4b4_branch2c (in-place)
I0731 08:39:50.319828 30983 net.cpp:150] Setting up bn4b4_branch2c
I0731 08:39:50.319839 30983 net.cpp:157] Top shape: 1 1024 14 14 (200704)
I0731 08:39:50.319844 30983 net.cpp:165] Memory required for data: 209334284
I0731 08:39:50.319852 30983 layer_factory.hpp:77] Creating layer scale4b4_branch2c
I0731 08:39:50.319861 30983 net.cpp:100] Creating Layer scale4b4_branch2c
I0731 08:39:50.319866 30983 net.cpp:444] scale4b4_branch2c <- res4b4_branch2c
I0731 08:39:50.319874 30983 net.cpp:405] scale4b4_branch2c -> res4b4_branch2c (in-place)
I0731 08:39:50.319931 30983 layer_factory.hpp:77] Creating layer scale4b4_branch2c
I0731 08:39:50.320096 30983 net.cpp:150] Setting up scale4b4_branch2c
I0731 08:39:50.320107 30983 net.cpp:157] Top shape: 1 1024 14 14 (200704)
I0731 08:39:50.320111 30983 net.cpp:165] Memory required for data: 210137100
I0731 08:39:50.320122 30983 layer_factory.hpp:77] Creating layer res4b4
I0731 08:39:50.320130 30983 net.cpp:100] Creating Layer res4b4
I0731 08:39:50.320137 30983 net.cpp:444] res4b4 <- res4b3_res4b3_relu_0_split_1
I0731 08:39:50.320142 30983 net.cpp:444] res4b4 <- res4b4_branch2c
I0731 08:39:50.320148 30983 net.cpp:418] res4b4 -> res4b4
I0731 08:39:50.320188 30983 net.cpp:150] Setting up res4b4
I0731 08:39:50.320197 30983 net.cpp:157] Top shape: 1 1024 14 14 (200704)
I0731 08:39:50.320202 30983 net.cpp:165] Memory required for data: 210939916
I0731 08:39:50.320206 30983 layer_factory.hpp:77] Creating layer res4b4_relu
I0731 08:39:50.320214 30983 net.cpp:100] Creating Layer res4b4_relu
I0731 08:39:50.320219 30983 net.cpp:444] res4b4_relu <- res4b4
I0731 08:39:50.320225 30983 net.cpp:405] res4b4_relu -> res4b4 (in-place)
I0731 08:39:50.320947 30983 net.cpp:150] Setting up res4b4_relu
I0731 08:39:50.320963 30983 net.cpp:157] Top shape: 1 1024 14 14 (200704)
I0731 08:39:50.320968 30983 net.cpp:165] Memory required for data: 211742732
I0731 08:39:50.320973 30983 layer_factory.hpp:77] Creating layer res4b4_res4b4_relu_0_split
I0731 08:39:50.320983 30983 net.cpp:100] Creating Layer res4b4_res4b4_relu_0_split
I0731 08:39:50.320989 30983 net.cpp:444] res4b4_res4b4_relu_0_split <- res4b4
I0731 08:39:50.320996 30983 net.cpp:418] res4b4_res4b4_relu_0_split -> res4b4_res4b4_relu_0_split_0
I0731 08:39:50.321007 30983 net.cpp:418] res4b4_res4b4_relu_0_split -> res4b4_res4b4_relu_0_split_1
I0731 08:39:50.321071 30983 net.cpp:150] Setting up res4b4_res4b4_relu_0_split
I0731 08:39:50.321081 30983 net.cpp:157] Top shape: 1 1024 14 14 (200704)
I0731 08:39:50.321099 30983 net.cpp:157] Top shape: 1 1024 14 14 (200704)
I0731 08:39:50.321104 30983 net.cpp:165] Memory required for data: 213348364
I0731 08:39:50.321107 30983 layer_factory.hpp:77] Creating layer res4b5_branch2a
I0731 08:39:50.321120 30983 net.cpp:100] Creating Layer res4b5_branch2a
I0731 08:39:50.321125 30983 net.cpp:444] res4b5_branch2a <- res4b4_res4b4_relu_0_split_0
I0731 08:39:50.321135 30983 net.cpp:418] res4b5_branch2a -> res4b5_branch2a
I0731 08:39:50.329339 30983 net.cpp:150] Setting up res4b5_branch2a
I0731 08:39:50.329358 30983 net.cpp:157] Top shape: 1 256 14 14 (50176)
I0731 08:39:50.329363 30983 net.cpp:165] Memory required for data: 213549068
I0731 08:39:50.329380 30983 layer_factory.hpp:77] Creating layer bn4b5_branch2a
I0731 08:39:50.329391 30983 net.cpp:100] Creating Layer bn4b5_branch2a
I0731 08:39:50.329398 30983 net.cpp:444] bn4b5_branch2a <- res4b5_branch2a
I0731 08:39:50.329406 30983 net.cpp:405] bn4b5_branch2a -> res4b5_branch2a (in-place)
I0731 08:39:50.329690 30983 net.cpp:150] Setting up bn4b5_branch2a
I0731 08:39:50.329701 30983 net.cpp:157] Top shape: 1 256 14 14 (50176)
I0731 08:39:50.329706 30983 net.cpp:165] Memory required for data: 213749772
I0731 08:39:50.329716 30983 layer_factory.hpp:77] Creating layer scale4b5_branch2a
I0731 08:39:50.329728 30983 net.cpp:100] Creating Layer scale4b5_branch2a
I0731 08:39:50.329735 30983 net.cpp:444] scale4b5_branch2a <- res4b5_branch2a
I0731 08:39:50.329741 30983 net.cpp:405] scale4b5_branch2a -> res4b5_branch2a (in-place)
I0731 08:39:50.329803 30983 layer_factory.hpp:77] Creating layer scale4b5_branch2a
I0731 08:39:50.329969 30983 net.cpp:150] Setting up scale4b5_branch2a
I0731 08:39:50.329980 30983 net.cpp:157] Top shape: 1 256 14 14 (50176)
I0731 08:39:50.329984 30983 net.cpp:165] Memory required for data: 213950476
I0731 08:39:50.329993 30983 layer_factory.hpp:77] Creating layer res4b5_branch2a_relu
I0731 08:39:50.330000 30983 net.cpp:100] Creating Layer res4b5_branch2a_relu
I0731 08:39:50.330005 30983 net.cpp:444] res4b5_branch2a_relu <- res4b5_branch2a
I0731 08:39:50.330013 30983 net.cpp:405] res4b5_branch2a_relu -> res4b5_branch2a (in-place)
I0731 08:39:50.331794 30983 net.cpp:150] Setting up res4b5_branch2a_relu
I0731 08:39:50.331812 30983 net.cpp:157] Top shape: 1 256 14 14 (50176)
I0731 08:39:50.331817 30983 net.cpp:165] Memory required for data: 214151180
I0731 08:39:50.331823 30983 layer_factory.hpp:77] Creating layer res4b5_branch2b
I0731 08:39:50.331837 30983 net.cpp:100] Creating Layer res4b5_branch2b
I0731 08:39:50.331845 30983 net.cpp:444] res4b5_branch2b <- res4b5_branch2a
I0731 08:39:50.331854 30983 net.cpp:418] res4b5_branch2b -> res4b5_branch2b
I0731 08:39:50.338886 30983 net.cpp:150] Setting up res4b5_branch2b
I0731 08:39:50.338907 30983 net.cpp:157] Top shape: 1 256 14 14 (50176)
I0731 08:39:50.338912 30983 net.cpp:165] Memory required for data: 214351884
I0731 08:39:50.338920 30983 layer_factory.hpp:77] Creating layer bn4b5_branch2b
I0731 08:39:50.338929 30983 net.cpp:100] Creating Layer bn4b5_branch2b
I0731 08:39:50.338934 30983 net.cpp:444] bn4b5_branch2b <- res4b5_branch2b
I0731 08:39:50.338943 30983 net.cpp:405] bn4b5_branch2b -> res4b5_branch2b (in-place)
I0731 08:39:50.339254 30983 net.cpp:150] Setting up bn4b5_branch2b
I0731 08:39:50.339267 30983 net.cpp:157] Top shape: 1 256 14 14 (50176)
I0731 08:39:50.339270 30983 net.cpp:165] Memory required for data: 214552588
I0731 08:39:50.339280 30983 layer_factory.hpp:77] Creating layer scale4b5_branch2b
I0731 08:39:50.339288 30983 net.cpp:100] Creating Layer scale4b5_branch2b
I0731 08:39:50.339294 30983 net.cpp:444] scale4b5_branch2b <- res4b5_branch2b
I0731 08:39:50.339303 30983 net.cpp:405] scale4b5_branch2b -> res4b5_branch2b (in-place)
I0731 08:39:50.339363 30983 layer_factory.hpp:77] Creating layer scale4b5_branch2b
I0731 08:39:50.339565 30983 net.cpp:150] Setting up scale4b5_branch2b
I0731 08:39:50.339577 30983 net.cpp:157] Top shape: 1 256 14 14 (50176)
I0731 08:39:50.339582 30983 net.cpp:165] Memory required for data: 214753292
I0731 08:39:50.339591 30983 layer_factory.hpp:77] Creating layer res4b5_branch2b_relu
I0731 08:39:50.339597 30983 net.cpp:100] Creating Layer res4b5_branch2b_relu
I0731 08:39:50.339602 30983 net.cpp:444] res4b5_branch2b_relu <- res4b5_branch2b
I0731 08:39:50.339608 30983 net.cpp:405] res4b5_branch2b_relu -> res4b5_branch2b (in-place)
I0731 08:39:50.341020 30983 net.cpp:150] Setting up res4b5_branch2b_relu
I0731 08:39:50.341033 30983 net.cpp:157] Top shape: 1 256 14 14 (50176)
I0731 08:39:50.341038 30983 net.cpp:165] Memory required for data: 214953996
I0731 08:39:50.341058 30983 layer_factory.hpp:77] Creating layer res4b5_branch2c
I0731 08:39:50.341069 30983 net.cpp:100] Creating Layer res4b5_branch2c
I0731 08:39:50.341083 30983 net.cpp:444] res4b5_branch2c <- res4b5_branch2b
I0731 08:39:50.341092 30983 net.cpp:418] res4b5_branch2c -> res4b5_branch2c
I0731 08:39:50.348747 30983 net.cpp:150] Setting up res4b5_branch2c
I0731 08:39:50.348765 30983 net.cpp:157] Top shape: 1 1024 14 14 (200704)
I0731 08:39:50.348772 30983 net.cpp:165] Memory required for data: 215756812
I0731 08:39:50.348778 30983 layer_factory.hpp:77] Creating layer bn4b5_branch2c
I0731 08:39:50.348789 30983 net.cpp:100] Creating Layer bn4b5_branch2c
I0731 08:39:50.348795 30983 net.cpp:444] bn4b5_branch2c <- res4b5_branch2c
I0731 08:39:50.348803 30983 net.cpp:405] bn4b5_branch2c -> res4b5_branch2c (in-place)
I0731 08:39:50.349117 30983 net.cpp:150] Setting up bn4b5_branch2c
I0731 08:39:50.349128 30983 net.cpp:157] Top shape: 1 1024 14 14 (200704)
I0731 08:39:50.349133 30983 net.cpp:165] Memory required for data: 216559628
I0731 08:39:50.349140 30983 layer_factory.hpp:77] Creating layer scale4b5_branch2c
I0731 08:39:50.349154 30983 net.cpp:100] Creating Layer scale4b5_branch2c
I0731 08:39:50.349160 30983 net.cpp:444] scale4b5_branch2c <- res4b5_branch2c
I0731 08:39:50.349166 30983 net.cpp:405] scale4b5_branch2c -> res4b5_branch2c (in-place)
I0731 08:39:50.349225 30983 layer_factory.hpp:77] Creating layer scale4b5_branch2c
I0731 08:39:50.349409 30983 net.cpp:150] Setting up scale4b5_branch2c
I0731 08:39:50.349421 30983 net.cpp:157] Top shape: 1 1024 14 14 (200704)
I0731 08:39:50.349424 30983 net.cpp:165] Memory required for data: 217362444
I0731 08:39:50.349459 30983 layer_factory.hpp:77] Creating layer res4b5
I0731 08:39:50.349469 30983 net.cpp:100] Creating Layer res4b5
I0731 08:39:50.349475 30983 net.cpp:444] res4b5 <- res4b4_res4b4_relu_0_split_1
I0731 08:39:50.349481 30983 net.cpp:444] res4b5 <- res4b5_branch2c
I0731 08:39:50.349488 30983 net.cpp:418] res4b5 -> res4b5
I0731 08:39:50.349527 30983 net.cpp:150] Setting up res4b5
I0731 08:39:50.349537 30983 net.cpp:157] Top shape: 1 1024 14 14 (200704)
I0731 08:39:50.349541 30983 net.cpp:165] Memory required for data: 218165260
I0731 08:39:50.349545 30983 layer_factory.hpp:77] Creating layer res4b5_relu
I0731 08:39:50.349552 30983 net.cpp:100] Creating Layer res4b5_relu
I0731 08:39:50.349557 30983 net.cpp:444] res4b5_relu <- res4b5
I0731 08:39:50.349563 30983 net.cpp:405] res4b5_relu -> res4b5 (in-place)
I0731 08:39:50.351186 30983 net.cpp:150] Setting up res4b5_relu
I0731 08:39:50.351202 30983 net.cpp:157] Top shape: 1 1024 14 14 (200704)
I0731 08:39:50.351207 30983 net.cpp:165] Memory required for data: 218968076
I0731 08:39:50.351212 30983 layer_factory.hpp:77] Creating layer res4b5_res4b5_relu_0_split
I0731 08:39:50.351219 30983 net.cpp:100] Creating Layer res4b5_res4b5_relu_0_split
I0731 08:39:50.351224 30983 net.cpp:444] res4b5_res4b5_relu_0_split <- res4b5
I0731 08:39:50.351245 30983 net.cpp:418] res4b5_res4b5_relu_0_split -> res4b5_res4b5_relu_0_split_0
I0731 08:39:50.351255 30983 net.cpp:418] res4b5_res4b5_relu_0_split -> res4b5_res4b5_relu_0_split_1
I0731 08:39:50.351336 30983 net.cpp:150] Setting up res4b5_res4b5_relu_0_split
I0731 08:39:50.351346 30983 net.cpp:157] Top shape: 1 1024 14 14 (200704)
I0731 08:39:50.351351 30983 net.cpp:157] Top shape: 1 1024 14 14 (200704)
I0731 08:39:50.351366 30983 net.cpp:165] Memory required for data: 220573708
I0731 08:39:50.351372 30983 layer_factory.hpp:77] Creating layer res4b6_branch2a
I0731 08:39:50.351382 30983 net.cpp:100] Creating Layer res4b6_branch2a
I0731 08:39:50.351388 30983 net.cpp:444] res4b6_branch2a <- res4b5_res4b5_relu_0_split_0
I0731 08:39:50.351398 30983 net.cpp:418] res4b6_branch2a -> res4b6_branch2a
I0731 08:39:50.358191 30983 net.cpp:150] Setting up res4b6_branch2a
I0731 08:39:50.358209 30983 net.cpp:157] Top shape: 1 256 14 14 (50176)
I0731 08:39:50.358214 30983 net.cpp:165] Memory required for data: 220774412
I0731 08:39:50.358230 30983 layer_factory.hpp:77] Creating layer bn4b6_branch2a
I0731 08:39:50.358242 30983 net.cpp:100] Creating Layer bn4b6_branch2a
I0731 08:39:50.358248 30983 net.cpp:444] bn4b6_branch2a <- res4b6_branch2a
I0731 08:39:50.358264 30983 net.cpp:405] bn4b6_branch2a -> res4b6_branch2a (in-place)
I0731 08:39:50.358572 30983 net.cpp:150] Setting up bn4b6_branch2a
I0731 08:39:50.358582 30983 net.cpp:157] Top shape: 1 256 14 14 (50176)
I0731 08:39:50.358587 30983 net.cpp:165] Memory required for data: 220975116
I0731 08:39:50.358595 30983 layer_factory.hpp:77] Creating layer scale4b6_branch2a
I0731 08:39:50.358616 30983 net.cpp:100] Creating Layer scale4b6_branch2a
I0731 08:39:50.358621 30983 net.cpp:444] scale4b6_branch2a <- res4b6_branch2a
I0731 08:39:50.358628 30983 net.cpp:405] scale4b6_branch2a -> res4b6_branch2a (in-place)
I0731 08:39:50.358690 30983 layer_factory.hpp:77] Creating layer scale4b6_branch2a
I0731 08:39:50.358860 30983 net.cpp:150] Setting up scale4b6_branch2a
I0731 08:39:50.358870 30983 net.cpp:157] Top shape: 1 256 14 14 (50176)
I0731 08:39:50.358875 30983 net.cpp:165] Memory required for data: 221175820
I0731 08:39:50.358882 30983 layer_factory.hpp:77] Creating layer res4b6_branch2a_relu
I0731 08:39:50.358891 30983 net.cpp:100] Creating Layer res4b6_branch2a_relu
I0731 08:39:50.358907 30983 net.cpp:444] res4b6_branch2a_relu <- res4b6_branch2a
I0731 08:39:50.358912 30983 net.cpp:405] res4b6_branch2a_relu -> res4b6_branch2a (in-place)
I0731 08:39:50.360539 30983 net.cpp:150] Setting up res4b6_branch2a_relu
I0731 08:39:50.360568 30983 net.cpp:157] Top shape: 1 256 14 14 (50176)
I0731 08:39:50.360572 30983 net.cpp:165] Memory required for data: 221376524
I0731 08:39:50.360597 30983 layer_factory.hpp:77] Creating layer res4b6_branch2b
I0731 08:39:50.360610 30983 net.cpp:100] Creating Layer res4b6_branch2b
I0731 08:39:50.360617 30983 net.cpp:444] res4b6_branch2b <- res4b6_branch2a
I0731 08:39:50.360627 30983 net.cpp:418] res4b6_branch2b -> res4b6_branch2b
I0731 08:39:50.369643 30983 net.cpp:150] Setting up res4b6_branch2b
I0731 08:39:50.369663 30983 net.cpp:157] Top shape: 1 256 14 14 (50176)
I0731 08:39:50.369668 30983 net.cpp:165] Memory required for data: 221577228
I0731 08:39:50.369675 30983 layer_factory.hpp:77] Creating layer bn4b6_branch2b
I0731 08:39:50.369685 30983 net.cpp:100] Creating Layer bn4b6_branch2b
I0731 08:39:50.369691 30983 net.cpp:444] bn4b6_branch2b <- res4b6_branch2b
I0731 08:39:50.369700 30983 net.cpp:405] bn4b6_branch2b -> res4b6_branch2b (in-place)
I0731 08:39:50.370018 30983 net.cpp:150] Setting up bn4b6_branch2b
I0731 08:39:50.370030 30983 net.cpp:157] Top shape: 1 256 14 14 (50176)
I0731 08:39:50.370034 30983 net.cpp:165] Memory required for data: 221777932
I0731 08:39:50.370043 30983 layer_factory.hpp:77] Creating layer scale4b6_branch2b
I0731 08:39:50.370051 30983 net.cpp:100] Creating Layer scale4b6_branch2b
I0731 08:39:50.370056 30983 net.cpp:444] scale4b6_branch2b <- res4b6_branch2b
I0731 08:39:50.370064 30983 net.cpp:405] scale4b6_branch2b -> res4b6_branch2b (in-place)
I0731 08:39:50.370126 30983 layer_factory.hpp:77] Creating layer scale4b6_branch2b
I0731 08:39:50.370307 30983 net.cpp:150] Setting up scale4b6_branch2b
I0731 08:39:50.370317 30983 net.cpp:157] Top shape: 1 256 14 14 (50176)
I0731 08:39:50.370322 30983 net.cpp:165] Memory required for data: 221978636
I0731 08:39:50.370329 30983 layer_factory.hpp:77] Creating layer res4b6_branch2b_relu
I0731 08:39:50.370337 30983 net.cpp:100] Creating Layer res4b6_branch2b_relu
I0731 08:39:50.370342 30983 net.cpp:444] res4b6_branch2b_relu <- res4b6_branch2b
I0731 08:39:50.370348 30983 net.cpp:405] res4b6_branch2b_relu -> res4b6_branch2b (in-place)
I0731 08:39:50.370694 30983 net.cpp:150] Setting up res4b6_branch2b_relu
I0731 08:39:50.370719 30983 net.cpp:157] Top shape: 1 256 14 14 (50176)
I0731 08:39:50.370724 30983 net.cpp:165] Memory required for data: 222179340
I0731 08:39:50.370740 30983 layer_factory.hpp:77] Creating layer res4b6_branch2c
I0731 08:39:50.370752 30983 net.cpp:100] Creating Layer res4b6_branch2c
I0731 08:39:50.370759 30983 net.cpp:444] res4b6_branch2c <- res4b6_branch2b
I0731 08:39:50.370769 30983 net.cpp:418] res4b6_branch2c -> res4b6_branch2c
I0731 08:39:50.376454 30983 net.cpp:150] Setting up res4b6_branch2c
I0731 08:39:50.376477 30983 net.cpp:157] Top shape: 1 1024 14 14 (200704)
I0731 08:39:50.376482 30983 net.cpp:165] Memory required for data: 222982156
I0731 08:39:50.376489 30983 layer_factory.hpp:77] Creating layer bn4b6_branch2c
I0731 08:39:50.376510 30983 net.cpp:100] Creating Layer bn4b6_branch2c
I0731 08:39:50.376516 30983 net.cpp:444] bn4b6_branch2c <- res4b6_branch2c
I0731 08:39:50.376525 30983 net.cpp:405] bn4b6_branch2c -> res4b6_branch2c (in-place)
I0731 08:39:50.376847 30983 net.cpp:150] Setting up bn4b6_branch2c
I0731 08:39:50.376857 30983 net.cpp:157] Top shape: 1 1024 14 14 (200704)
I0731 08:39:50.376873 30983 net.cpp:165] Memory required for data: 223784972
I0731 08:39:50.376891 30983 layer_factory.hpp:77] Creating layer scale4b6_branch2c
I0731 08:39:50.376904 30983 net.cpp:100] Creating Layer scale4b6_branch2c
I0731 08:39:50.376910 30983 net.cpp:444] scale4b6_branch2c <- res4b6_branch2c
I0731 08:39:50.376916 30983 net.cpp:405] scale4b6_branch2c -> res4b6_branch2c (in-place)
I0731 08:39:50.376973 30983 layer_factory.hpp:77] Creating layer scale4b6_branch2c
I0731 08:39:50.377159 30983 net.cpp:150] Setting up scale4b6_branch2c
I0731 08:39:50.377182 30983 net.cpp:157] Top shape: 1 1024 14 14 (200704)
I0731 08:39:50.377185 30983 net.cpp:165] Memory required for data: 224587788
I0731 08:39:50.377200 30983 layer_factory.hpp:77] Creating layer res4b6
I0731 08:39:50.377212 30983 net.cpp:100] Creating Layer res4b6
I0731 08:39:50.377218 30983 net.cpp:444] res4b6 <- res4b5_res4b5_relu_0_split_1
I0731 08:39:50.377228 30983 net.cpp:444] res4b6 <- res4b6_branch2c
I0731 08:39:50.377235 30983 net.cpp:418] res4b6 -> res4b6
I0731 08:39:50.377279 30983 net.cpp:150] Setting up res4b6
I0731 08:39:50.377290 30983 net.cpp:157] Top shape: 1 1024 14 14 (200704)
I0731 08:39:50.377293 30983 net.cpp:165] Memory required for data: 225390604
I0731 08:39:50.377297 30983 layer_factory.hpp:77] Creating layer res4b6_relu
I0731 08:39:50.377305 30983 net.cpp:100] Creating Layer res4b6_relu
I0731 08:39:50.377308 30983 net.cpp:444] res4b6_relu <- res4b6
I0731 08:39:50.377317 30983 net.cpp:405] res4b6_relu -> res4b6 (in-place)
I0731 08:39:50.379199 30983 net.cpp:150] Setting up res4b6_relu
I0731 08:39:50.379216 30983 net.cpp:157] Top shape: 1 1024 14 14 (200704)
I0731 08:39:50.379221 30983 net.cpp:165] Memory required for data: 226193420
I0731 08:39:50.379226 30983 layer_factory.hpp:77] Creating layer res4b6_res4b6_relu_0_split
I0731 08:39:50.379233 30983 net.cpp:100] Creating Layer res4b6_res4b6_relu_0_split
I0731 08:39:50.379238 30983 net.cpp:444] res4b6_res4b6_relu_0_split <- res4b6
I0731 08:39:50.379256 30983 net.cpp:418] res4b6_res4b6_relu_0_split -> res4b6_res4b6_relu_0_split_0
I0731 08:39:50.379268 30983 net.cpp:418] res4b6_res4b6_relu_0_split -> res4b6_res4b6_relu_0_split_1
I0731 08:39:50.379338 30983 net.cpp:150] Setting up res4b6_res4b6_relu_0_split
I0731 08:39:50.379359 30983 net.cpp:157] Top shape: 1 1024 14 14 (200704)
I0731 08:39:50.379365 30983 net.cpp:157] Top shape: 1 1024 14 14 (200704)
I0731 08:39:50.379369 30983 net.cpp:165] Memory required for data: 227799052
I0731 08:39:50.379374 30983 layer_factory.hpp:77] Creating layer res4b7_branch2a
I0731 08:39:50.379395 30983 net.cpp:100] Creating Layer res4b7_branch2a
I0731 08:39:50.379402 30983 net.cpp:444] res4b7_branch2a <- res4b6_res4b6_relu_0_split_0
…
I0731 08:39:50.831830 30983 layer_factory.hpp:77] Creating layer scale4b20_branch2b
I0731 08:39:50.831984 30983 net.cpp:150] Setting up scale4b20_branch2b
I0731 08:39:50.831993 30983 net.cpp:157] Top shape: 1 256 14 14 (50176)
I0731 08:39:50.831998 30983 net.cpp:165] Memory required for data: 323133452
I0731 08:39:50.832005 30983 layer_factory.hpp:77] Creating layer res4b20_branch2b_relu
I0731 08:39:50.832015 30983 net.cpp:100] Creating Layer res4b20_branch2b_relu
I0731 08:39:50.832020 30983 net.cpp:444] res4b20_branch2b_relu <- res4b20_branch2b
I0731 08:39:50.832027 30983 net.cpp:405] res4b20_branch2b_relu -> res4b20_branch2b (in-place)
I0731 08:39:50.833207 30983 net.cpp:150] Setting up res4b20_branch2b_relu
I0731 08:39:50.833222 30983 net.cpp:157] Top shape: 1 256 14 14 (50176)
I0731 08:39:50.833227 30983 net.cpp:165] Memory required for data: 323334156
I0731 08:39:50.833233 30983 layer_factory.hpp:77] Creating layer res4b20_branch2c
I0731 08:39:50.833256 30983 net.cpp:100] Creating Layer res4b20_branch2c
I0731 08:39:50.833261 30983 net.cpp:444] res4b20_branch2c <- res4b20_branch2b
I0731 08:39:50.833271 30983 net.cpp:418] res4b20_branch2c -> res4b20_branch2c
I0731 08:39:50.842566 30983 net.cpp:150] Setting up res4b20_branch2c
I0731 08:39:50.842586 30983 net.cpp:157] Top shape: 1 1024 14 14 (200704)
I0731 08:39:50.842592 30983 net.cpp:165] Memory required for data: 324136972
I0731 08:39:50.842599 30983 layer_factory.hpp:77] Creating layer bn4b20_branch2c
I0731 08:39:50.842608 30983 net.cpp:100] Creating Layer bn4b20_branch2c
I0731 08:39:50.842614 30983 net.cpp:444] bn4b20_branch2c <- res4b20_branch2c
I0731 08:39:50.842623 30983 net.cpp:405] bn4b20_branch2c -> res4b20_branch2c (in-place)
I0731 08:39:50.842928 30983 net.cpp:150] Setting up bn4b20_branch2c
I0731 08:39:50.842939 30983 net.cpp:157] Top shape: 1 1024 14 14 (200704)
I0731 08:39:50.842943 30983 net.cpp:165] Memory required for data: 324939788
I0731 08:39:50.842952 30983 layer_factory.hpp:77] Creating layer scale4b20_branch2c
I0731 08:39:50.842962 30983 net.cpp:100] Creating Layer scale4b20_branch2c
I0731 08:39:50.842965 30983 net.cpp:444] scale4b20_branch2c <- res4b20_branch2c
I0731 08:39:50.842977 30983 net.cpp:405] scale4b20_branch2c -> res4b20_branch2c (in-place)
I0731 08:39:50.843036 30983 layer_factory.hpp:77] Creating layer scale4b20_branch2c
I0731 08:39:50.843217 30983 net.cpp:150] Setting up scale4b20_branch2c
I0731 08:39:50.843228 30983 net.cpp:157] Top shape: 1 1024 14 14 (200704)
I0731 08:39:50.843232 30983 net.cpp:165] Memory required for data: 325742604
I0731 08:39:50.843240 30983 layer_factory.hpp:77] Creating layer res4b20
I0731 08:39:50.843250 30983 net.cpp:100] Creating Layer res4b20
I0731 08:39:50.843255 30983 net.cpp:444] res4b20 <- res4b19_res4b19_relu_0_split_1
I0731 08:39:50.843261 30983 net.cpp:444] res4b20 <- res4b20_branch2c
I0731 08:39:50.843269 30983 net.cpp:418] res4b20 -> res4b20
I0731 08:39:50.843303 30983 net.cpp:150] Setting up res4b20
I0731 08:39:50.843315 30983 net.cpp:157] Top shape: 1 1024 14 14 (200704)
I0731 08:39:50.843319 30983 net.cpp:165] Memory required for data: 326545420
I0731 08:39:50.843324 30983 layer_factory.hpp:77] Creating layer res4b20_relu
I0731 08:39:50.843336 30983 net.cpp:100] Creating Layer res4b20_relu
I0731 08:39:50.843343 30983 net.cpp:444] res4b20_relu <- res4b20
I0731 08:39:50.843348 30983 net.cpp:405] res4b20_relu -> res4b20 (in-place)
I0731 08:39:50.844128 30983 net.cpp:150] Setting up res4b20_relu
I0731 08:39:50.844156 30983 net.cpp:157] Top shape: 1 1024 14 14 (200704)
I0731 08:39:50.844161 30983 net.cpp:165] Memory required for data: 327348236
I0731 08:39:50.844166 30983 layer_factory.hpp:77] Creating layer res4b20_res4b20_relu_0_split
I0731 08:39:50.844177 30983 net.cpp:100] Creating Layer res4b20_res4b20_relu_0_split
I0731 08:39:50.844182 30983 net.cpp:444] res4b20_res4b20_relu_0_split <- res4b20
I0731 08:39:50.844189 30983 net.cpp:418] res4b20_res4b20_relu_0_split -> res4b20_res4b20_relu_0_split_0
I0731 08:39:50.844199 30983 net.cpp:418] res4b20_res4b20_relu_0_split -> res4b20_res4b20_relu_0_split_1
I0731 08:39:50.844275 30983 net.cpp:150] Setting up res4b20_res4b20_relu_0_split
I0731 08:39:50.844285 30983 net.cpp:157] Top shape: 1 1024 14 14 (200704)
I0731 08:39:50.844291 30983 net.cpp:157] Top shape: 1 1024 14 14 (200704)
I0731 08:39:50.844295 30983 net.cpp:165] Memory required for data: 328953868
I0731 08:39:50.844300 30983 layer_factory.hpp:77] Creating layer res4b21_branch2a
I0731 08:39:50.844312 30983 net.cpp:100] Creating Layer res4b21_branch2a
I0731 08:39:50.844318 30983 net.cpp:444] res4b21_branch2a <- res4b20_res4b20_relu_0_split_0
I0731 08:39:50.844328 30983 net.cpp:418] res4b21_branch2a -> res4b21_branch2a
I0731 08:39:50.851088 30983 net.cpp:150] Setting up res4b21_branch2a
I0731 08:39:50.851106 30983 net.cpp:157] Top shape: 1 256 14 14 (50176)
I0731 08:39:50.851111 30983 net.cpp:165] Memory required for data: 329154572
I0731 08:39:50.851120 30983 layer_factory.hpp:77] Creating layer bn4b21_branch2a
I0731 08:39:50.851130 30983 net.cpp:100] Creating Layer bn4b21_branch2a
I0731 08:39:50.851136 30983 net.cpp:444] bn4b21_branch2a <- res4b21_branch2a
I0731 08:39:50.851145 30983 net.cpp:405] bn4b21_branch2a -> res4b21_branch2a (in-place)
I0731 08:39:50.851446 30983 net.cpp:150] Setting up bn4b21_branch2a
I0731 08:39:50.851459 30983 net.cpp:157] Top shape: 1 256 14 14 (50176)
I0731 08:39:50.851464 30983 net.cpp:165] Memory required for data: 329355276
I0731 08:39:50.851471 30983 layer_factory.hpp:77] Creating layer scale4b21_branch2a
I0731 08:39:50.851480 30983 net.cpp:100] Creating Layer scale4b21_branch2a
I0731 08:39:50.851486 30983 net.cpp:444] scale4b21_branch2a <- res4b21_branch2a
I0731 08:39:50.851495 30983 net.cpp:405] scale4b21_branch2a -> res4b21_branch2a (in-place)
I0731 08:39:50.851560 30983 layer_factory.hpp:77] Creating layer scale4b21_branch2a
I0731 08:39:50.851709 30983 net.cpp:150] Setting up scale4b21_branch2a
I0731 08:39:50.851719 30983 net.cpp:157] Top shape: 1 256 14 14 (50176)
I0731 08:39:50.851723 30983 net.cpp:165] Memory required for data: 329555980
I0731 08:39:50.851730 30983 layer_factory.hpp:77] Creating layer res4b21_branch2a_relu
I0731 08:39:50.851738 30983 net.cpp:100] Creating Layer res4b21_branch2a_relu
I0731 08:39:50.851743 30983 net.cpp:444] res4b21_branch2a_relu <- res4b21_branch2a
I0731 08:39:50.851750 30983 net.cpp:405] res4b21_branch2a_relu -> res4b21_branch2a (in-place)
I0731 08:39:50.852581 30983 net.cpp:150] Setting up res4b21_branch2a_relu
I0731 08:39:50.852599 30983 net.cpp:157] Top shape: 1 256 14 14 (50176)
I0731 08:39:50.852604 30983 net.cpp:165] Memory required for data: 329756684
I0731 08:39:50.852622 30983 layer_factory.hpp:77] Creating layer res4b21_branch2b
I0731 08:39:50.852633 30983 net.cpp:100] Creating Layer res4b21_branch2b
I0731 08:39:50.852639 30983 net.cpp:444] res4b21_branch2b <- res4b21_branch2a
I0731 08:39:50.852649 30983 net.cpp:418] res4b21_branch2b -> res4b21_branch2b
I0731 08:39:50.859835 30983 net.cpp:150] Setting up res4b21_branch2b
I0731 08:39:50.859853 30983 net.cpp:157] Top shape: 1 256 14 14 (50176)
I0731 08:39:50.859858 30983 net.cpp:165] Memory required for data: 329957388
I0731 08:39:50.859866 30983 layer_factory.hpp:77] Creating layer bn4b21_branch2b
I0731 08:39:50.859882 30983 net.cpp:100] Creating Layer bn4b21_branch2b
I0731 08:39:50.859889 30983 net.cpp:444] bn4b21_branch2b <- res4b21_branch2b
I0731 08:39:50.859896 30983 net.cpp:405] bn4b21_branch2b -> res4b21_branch2b (in-place)
I0731 08:39:50.860183 30983 net.cpp:150] Setting up bn4b21_branch2b
I0731 08:39:50.860193 30983 net.cpp:157] Top shape: 1 256 14 14 (50176)
I0731 08:39:50.860198 30983 net.cpp:165] Memory required for data: 330158092
I0731 08:39:50.860205 30983 layer_factory.hpp:77] Creating layer scale4b21_branch2b
I0731 08:39:50.860216 30983 net.cpp:100] Creating Layer scale4b21_branch2b
I0731 08:39:50.860221 30983 net.cpp:444] scale4b21_branch2b <- res4b21_branch2b
I0731 08:39:50.860227 30983 net.cpp:405] scale4b21_branch2b -> res4b21_branch2b (in-place)
I0731 08:39:50.860285 30983 layer_factory.hpp:77] Creating layer scale4b21_branch2b
I0731 08:39:50.860445 30983 net.cpp:150] Setting up scale4b21_branch2b
I0731 08:39:50.860455 30983 net.cpp:157] Top shape: 1 256 14 14 (50176)
I0731 08:39:50.860458 30983 net.cpp:165] Memory required for data: 330358796
I0731 08:39:50.860466 30983 layer_factory.hpp:77] Creating layer res4b21_branch2b_relu
I0731 08:39:50.860472 30983 net.cpp:100] Creating Layer res4b21_branch2b_relu
I0731 08:39:50.860477 30983 net.cpp:444] res4b21_branch2b_relu <- res4b21_branch2b
I0731 08:39:50.860486 30983 net.cpp:405] res4b21_branch2b_relu -> res4b21_branch2b (in-place)
I0731 08:39:50.861101 30983 net.cpp:150] Setting up res4b21_branch2b_relu
I0731 08:39:50.861137 30983 net.cpp:157] Top shape: 1 256 14 14 (50176)
I0731 08:39:50.861142 30983 net.cpp:165] Memory required for data: 330559500
I0731 08:39:50.861160 30983 layer_factory.hpp:77] Creating layer res4b21_branch2c
I0731 08:39:50.861173 30983 net.cpp:100] Creating Layer res4b21_branch2c
I0731 08:39:50.861179 30983 net.cpp:444] res4b21_branch2c <- res4b21_branch2b
I0731 08:39:50.861189 30983 net.cpp:418] res4b21_branch2c -> res4b21_branch2c
I0731 08:39:50.867095 30983 net.cpp:150] Setting up res4b21_branch2c
I0731 08:39:50.867112 30983 net.cpp:157] Top shape: 1 1024 14 14 (200704)
I0731 08:39:50.867118 30983 net.cpp:165] Memory required for data: 331362316
I0731 08:39:50.867125 30983 layer_factory.hpp:77] Creating layer bn4b21_branch2c
I0731 08:39:50.867136 30983 net.cpp:100] Creating Layer bn4b21_branch2c
I0731 08:39:50.867142 30983 net.cpp:444] bn4b21_branch2c <- res4b21_branch2c
I0731 08:39:50.867151 30983 net.cpp:405] bn4b21_branch2c -> res4b21_branch2c (in-place)
I0731 08:39:50.867468 30983 net.cpp:150] Setting up bn4b21_branch2c
I0731 08:39:50.867480 30983 net.cpp:157] Top shape: 1 1024 14 14 (200704)
I0731 08:39:50.867483 30983 net.cpp:165] Memory required for data: 332165132
I0731 08:39:50.867492 30983 layer_factory.hpp:77] Creating layer scale4b21_branch2c
I0731 08:39:50.867502 30983 net.cpp:100] Creating Layer scale4b21_branch2c
I0731 08:39:50.867508 30983 net.cpp:444] scale4b21_branch2c <- res4b21_branch2c
I0731 08:39:50.867514 30983 net.cpp:405] scale4b21_branch2c -> res4b21_branch2c (in-place)
I0731 08:39:50.867581 30983 layer_factory.hpp:77] Creating layer scale4b21_branch2c
I0731 08:39:50.867780 30983 net.cpp:150] Setting up scale4b21_branch2c
I0731 08:39:50.867791 30983 net.cpp:157] Top shape: 1 1024 14 14 (200704)
I0731 08:39:50.867795 30983 net.cpp:165] Memory required for data: 332967948
I0731 08:39:50.867805 30983 layer_factory.hpp:77] Creating layer res4b21
I0731 08:39:50.867815 30983 net.cpp:100] Creating Layer res4b21
I0731 08:39:50.867820 30983 net.cpp:444] res4b21 <- res4b20_res4b20_relu_0_split_1
I0731 08:39:50.867825 30983 net.cpp:444] res4b21 <- res4b21_branch2c
I0731 08:39:50.867832 30983 net.cpp:418] res4b21 -> res4b21
I0731 08:39:50.867869 30983 net.cpp:150] Setting up res4b21
I0731 08:39:50.867878 30983 net.cpp:157] Top shape: 1 1024 14 14 (200704)
I0731 08:39:50.867882 30983 net.cpp:165] Memory required for data: 333770764
I0731 08:39:50.867887 30983 layer_factory.hpp:77] Creating layer res4b21_relu
I0731 08:39:50.867894 30983 net.cpp:100] Creating Layer res4b21_relu
I0731 08:39:50.867898 30983 net.cpp:444] res4b21_relu <- res4b21
I0731 08:39:50.867911 30983 net.cpp:405] res4b21_relu -> res4b21 (in-place)
I0731 08:39:50.869724 30983 net.cpp:150] Setting up res4b21_relu
I0731 08:39:50.869755 30983 net.cpp:157] Top shape: 1 1024 14 14 (200704)
I0731 08:39:50.869760 30983 net.cpp:165] Memory required for data: 334573580
I0731 08:39:50.869765 30983 layer_factory.hpp:77] Creating layer res4b21_res4b21_relu_0_split
I0731 08:39:50.869772 30983 net.cpp:100] Creating Layer res4b21_res4b21_relu_0_split
I0731 08:39:50.869778 30983 net.cpp:444] res4b21_res4b21_relu_0_split <- res4b21
I0731 08:39:50.869787 30983 net.cpp:418] res4b21_res4b21_relu_0_split -> res4b21_res4b21_relu_0_split_0
I0731 08:39:50.869797 30983 net.cpp:418] res4b21_res4b21_relu_0_split -> res4b21_res4b21_relu_0_split_1
I0731 08:39:50.869861 30983 net.cpp:150] Setting up res4b21_res4b21_relu_0_split
I0731 08:39:50.869871 30983 net.cpp:157] Top shape: 1 1024 14 14 (200704)
I0731 08:39:50.869877 30983 net.cpp:157] Top shape: 1 1024 14 14 (200704)
I0731 08:39:50.869881 30983 net.cpp:165] Memory required for data: 336179212
I0731 08:39:50.869885 30983 layer_factory.hpp:77] Creating layer res4b22_branch2a
I0731 08:39:50.869921 30983 net.cpp:100] Creating Layer res4b22_branch2a
I0731 08:39:50.869927 30983 net.cpp:444] res4b22_branch2a <- res4b21_res4b21_relu_0_split_0
I0731 08:39:50.869935 30983 net.cpp:418] res4b22_branch2a -> res4b22_branch2a
I0731 08:39:50.876925 30983 net.cpp:150] Setting up res4b22_branch2a
I0731 08:39:50.876945 30983 net.cpp:157] Top shape: 1 256 14 14 (50176)
I0731 08:39:50.876950 30983 net.cpp:165] Memory required for data: 336379916
I0731 08:39:50.876960 30983 layer_factory.hpp:77] Creating layer bn4b22_branch2a
I0731 08:39:50.876972 30983 net.cpp:100] Creating Layer bn4b22_branch2a
I0731 08:39:50.876978 30983 net.cpp:444] bn4b22_branch2a <- res4b22_branch2a
I0731 08:39:50.876987 30983 net.cpp:405] bn4b22_branch2a -> res4b22_branch2a (in-place)
I0731 08:39:50.877269 30983 net.cpp:150] Setting up bn4b22_branch2a
I0731 08:39:50.877292 30983 net.cpp:157] Top shape: 1 256 14 14 (50176)
I0731 08:39:50.877296 30983 net.cpp:165] Memory required for data: 336580620
I0731 08:39:50.877305 30983 layer_factory.hpp:77] Creating layer scale4b22_branch2a
I0731 08:39:50.877316 30983 net.cpp:100] Creating Layer scale4b22_branch2a
I0731 08:39:50.877321 30983 net.cpp:444] scale4b22_branch2a <- res4b22_branch2a
I0731 08:39:50.877328 30983 net.cpp:405] scale4b22_branch2a -> res4b22_branch2a (in-place)
I0731 08:39:50.877387 30983 layer_factory.hpp:77] Creating layer scale4b22_branch2a
I0731 08:39:50.877543 30983 net.cpp:150] Setting up scale4b22_branch2a
I0731 08:39:50.877553 30983 net.cpp:157] Top shape: 1 256 14 14 (50176)
I0731 08:39:50.877558 30983 net.cpp:165] Memory required for data: 336781324
I0731 08:39:50.877565 30983 layer_factory.hpp:77] Creating layer res4b22_branch2a_relu
I0731 08:39:50.877575 30983 net.cpp:100] Creating Layer res4b22_branch2a_relu
I0731 08:39:50.877580 30983 net.cpp:444] res4b22_branch2a_relu <- res4b22_branch2a
I0731 08:39:50.877586 30983 net.cpp:405] res4b22_branch2a_relu -> res4b22_branch2a (in-place)
I0731 08:39:50.879725 30983 net.cpp:150] Setting up res4b22_branch2a_relu
I0731 08:39:50.879741 30983 net.cpp:157] Top shape: 1 256 14 14 (50176)
I0731 08:39:50.879746 30983 net.cpp:165] Memory required for data: 336982028
I0731 08:39:50.879753 30983 layer_factory.hpp:77] Creating layer res4b22_branch2b
I0731 08:39:50.879765 30983 net.cpp:100] Creating Layer res4b22_branch2b
I0731 08:39:50.879772 30983 net.cpp:444] res4b22_branch2b <- res4b22_branch2a
I0731 08:39:50.879781 30983 net.cpp:418] res4b22_branch2b -> res4b22_branch2b
I0731 08:39:50.885020 30983 net.cpp:150] Setting up res4b22_branch2b
I0731 08:39:50.885037 30983 net.cpp:157] Top shape: 1 256 14 14 (50176)
I0731 08:39:50.885042 30983 net.cpp:165] Memory required for data: 337182732
I0731 08:39:50.885051 30983 layer_factory.hpp:77] Creating layer bn4b22_branch2b
I0731 08:39:50.885061 30983 net.cpp:100] Creating Layer bn4b22_branch2b
I0731 08:39:50.885067 30983 net.cpp:444] bn4b22_branch2b <- res4b22_branch2b
I0731 08:39:50.885082 30983 net.cpp:405] bn4b22_branch2b -> res4b22_branch2b (in-place)
I0731 08:39:50.885375 30983 net.cpp:150] Setting up bn4b22_branch2b
I0731 08:39:50.885386 30983 net.cpp:157] Top shape: 1 256 14 14 (50176)
I0731 08:39:50.885390 30983 net.cpp:165] Memory required for data: 337383436
I0731 08:39:50.885399 30983 layer_factory.hpp:77] Creating layer scale4b22_branch2b
I0731 08:39:50.885407 30983 net.cpp:100] Creating Layer scale4b22_branch2b
I0731 08:39:50.885413 30983 net.cpp:444] scale4b22_branch2b <- res4b22_branch2b
I0731 08:39:50.885419 30983 net.cpp:405] scale4b22_branch2b -> res4b22_branch2b (in-place)
I0731 08:39:50.885476 30983 layer_factory.hpp:77] Creating layer scale4b22_branch2b
I0731 08:39:50.885632 30983 net.cpp:150] Setting up scale4b22_branch2b
I0731 08:39:50.885643 30983 net.cpp:157] Top shape: 1 256 14 14 (50176)
I0731 08:39:50.885659 30983 net.cpp:165] Memory required for data: 337584140
I0731 08:39:50.885666 30983 layer_factory.hpp:77] Creating layer res4b22_branch2b_relu
I0731 08:39:50.885673 30983 net.cpp:100] Creating Layer res4b22_branch2b_relu
I0731 08:39:50.885679 30983 net.cpp:444] res4b22_branch2b_relu <- res4b22_branch2b
I0731 08:39:50.885684 30983 net.cpp:405] res4b22_branch2b_relu -> res4b22_branch2b (in-place)
I0731 08:39:50.886124 30983 net.cpp:150] Setting up res4b22_branch2b_relu
I0731 08:39:50.886138 30983 net.cpp:157] Top shape: 1 256 14 14 (50176)
I0731 08:39:50.886143 30983 net.cpp:165] Memory required for data: 337784844
I0731 08:39:50.886150 30983 layer_factory.hpp:77] Creating layer res4b22_branch2c
I0731 08:39:50.886162 30983 net.cpp:100] Creating Layer res4b22_branch2c
I0731 08:39:50.886168 30983 net.cpp:444] res4b22_branch2c <- res4b22_branch2b
I0731 08:39:50.886176 30983 net.cpp:418] res4b22_branch2c -> res4b22_branch2c
I0731 08:39:50.895159 30983 net.cpp:150] Setting up res4b22_branch2c
I0731 08:39:50.895177 30983 net.cpp:157] Top shape: 1 1024 14 14 (200704)
I0731 08:39:50.895195 30983 net.cpp:165] Memory required for data: 338587660
I0731 08:39:50.895202 30983 layer_factory.hpp:77] Creating layer bn4b22_branch2c
I0731 08:39:50.895225 30983 net.cpp:100] Creating Layer bn4b22_branch2c
I0731 08:39:50.895241 30983 net.cpp:444] bn4b22_branch2c <- res4b22_branch2c
I0731 08:39:50.895251 30983 net.cpp:405] bn4b22_branch2c -> res4b22_branch2c (in-place)
I0731 08:39:50.895581 30983 net.cpp:150] Setting up bn4b22_branch2c
I0731 08:39:50.895592 30983 net.cpp:157] Top shape: 1 1024 14 14 (200704)
I0731 08:39:50.895597 30983 net.cpp:165] Memory required for data: 339390476
I0731 08:39:50.895606 30983 layer_factory.hpp:77] Creating layer scale4b22_branch2c
I0731 08:39:50.895615 30983 net.cpp:100] Creating Layer scale4b22_branch2c
I0731 08:39:50.895622 30983 net.cpp:444] scale4b22_branch2c <- res4b22_branch2c
I0731 08:39:50.895627 30983 net.cpp:405] scale4b22_branch2c -> res4b22_branch2c (in-place)
I0731 08:39:50.895694 30983 layer_factory.hpp:77] Creating layer scale4b22_branch2c
I0731 08:39:50.895866 30983 net.cpp:150] Setting up scale4b22_branch2c
I0731 08:39:50.895876 30983 net.cpp:157] Top shape: 1 1024 14 14 (200704)
I0731 08:39:50.895880 30983 net.cpp:165] Memory required for data: 340193292
I0731 08:39:50.895889 30983 layer_factory.hpp:77] Creating layer res4b22
I0731 08:39:50.895898 30983 net.cpp:100] Creating Layer res4b22
I0731 08:39:50.895905 30983 net.cpp:444] res4b22 <- res4b21_res4b21_relu_0_split_1
I0731 08:39:50.895910 30983 net.cpp:444] res4b22 <- res4b22_branch2c
I0731 08:39:50.895918 30983 net.cpp:418] res4b22 -> res4b22
I0731 08:39:50.895953 30983 net.cpp:150] Setting up res4b22
I0731 08:39:50.895962 30983 net.cpp:157] Top shape: 1 1024 14 14 (200704)
I0731 08:39:50.895967 30983 net.cpp:165] Memory required for data: 340996108
I0731 08:39:50.895970 30983 layer_factory.hpp:77] Creating layer res4b22_relu
I0731 08:39:50.895979 30983 net.cpp:100] Creating Layer res4b22_relu
I0731 08:39:50.895984 30983 net.cpp:444] res4b22_relu <- res4b22
I0731 08:39:50.896003 30983 net.cpp:405] res4b22_relu -> res4b22 (in-place)
I0731 08:39:50.896773 30983 net.cpp:150] Setting up res4b22_relu
I0731 08:39:50.896788 30983 net.cpp:157] Top shape: 1 1024 14 14 (200704)
I0731 08:39:50.896793 30983 net.cpp:165] Memory required for data: 341798924
I0731 08:39:50.896798 30983 layer_factory.hpp:77] Creating layer res4b22_res4b22_relu_0_split
I0731 08:39:50.896806 30983 net.cpp:100] Creating Layer res4b22_res4b22_relu_0_split
I0731 08:39:50.896811 30983 net.cpp:444] res4b22_res4b22_relu_0_split <- res4b22
I0731 08:39:50.896821 30983 net.cpp:418] res4b22_res4b22_relu_0_split -> res4b22_res4b22_relu_0_split_0
I0731 08:39:50.896831 30983 net.cpp:418] res4b22_res4b22_relu_0_split -> res4b22_res4b22_relu_0_split_1
I0731 08:39:50.896852 30983 net.cpp:418] res4b22_res4b22_relu_0_split -> res4b22_res4b22_relu_0_split_2
I0731 08:39:50.896930 30983 net.cpp:150] Setting up res4b22_res4b22_relu_0_split
I0731 08:39:50.896940 30983 net.cpp:157] Top shape: 1 1024 14 14 (200704)
I0731 08:39:50.896946 30983 net.cpp:157] Top shape: 1 1024 14 14 (200704)
I0731 08:39:50.896950 30983 net.cpp:157] Top shape: 1 1024 14 14 (200704)
I0731 08:39:50.896955 30983 net.cpp:165] Memory required for data: 344207372
I0731 08:39:50.896960 30983 layer_factory.hpp:77] Creating layer res5a_branch1
I0731 08:39:50.896972 30983 net.cpp:100] Creating Layer res5a_branch1
I0731 08:39:50.896977 30983 net.cpp:444] res5a_branch1 <- res4b22_res4b22_relu_0_split_0
I0731 08:39:50.896987 30983 net.cpp:418] res5a_branch1 -> res5a_branch1
I0731 08:39:50.906953 30983 net.cpp:150] Setting up res5a_branch1
I0731 08:39:50.906971 30983 net.cpp:157] Top shape: 1 2048 14 14 (401408)
I0731 08:39:50.906976 30983 net.cpp:165] Memory required for data: 345813004
I0731 08:39:50.906996 30983 layer_factory.hpp:77] Creating layer bn5a_branch1
I0731 08:39:50.907007 30983 net.cpp:100] Creating Layer bn5a_branch1
I0731 08:39:50.907014 30983 net.cpp:444] bn5a_branch1 <- res5a_branch1
I0731 08:39:50.907023 30983 net.cpp:405] bn5a_branch1 -> res5a_branch1 (in-place)
I0731 08:39:50.907382 30983 net.cpp:150] Setting up bn5a_branch1
I0731 08:39:50.907393 30983 net.cpp:157] Top shape: 1 2048 14 14 (401408)
I0731 08:39:50.907397 30983 net.cpp:165] Memory required for data: 347418636
I0731 08:39:50.907407 30983 layer_factory.hpp:77] Creating layer scale5a_branch1
I0731 08:39:50.907416 30983 net.cpp:100] Creating Layer scale5a_branch1
I0731 08:39:50.907423 30983 net.cpp:444] scale5a_branch1 <- res5a_branch1
I0731 08:39:50.907438 30983 net.cpp:405] scale5a_branch1 -> res5a_branch1 (in-place)
I0731 08:39:50.907513 30983 layer_factory.hpp:77] Creating layer scale5a_branch1
I0731 08:39:50.907714 30983 net.cpp:150] Setting up scale5a_branch1
I0731 08:39:50.907726 30983 net.cpp:157] Top shape: 1 2048 14 14 (401408)
I0731 08:39:50.907729 30983 net.cpp:165] Memory required for data: 349024268
I0731 08:39:50.907737 30983 layer_factory.hpp:77] Creating layer res5a_branch2a
I0731 08:39:50.907749 30983 net.cpp:100] Creating Layer res5a_branch2a
I0731 08:39:50.907755 30983 net.cpp:444] res5a_branch2a <- res4b22_res4b22_relu_0_split_1
I0731 08:39:50.907763 30983 net.cpp:418] res5a_branch2a -> res5a_branch2a
I0731 08:39:50.914302 30983 net.cpp:150] Setting up res5a_branch2a
I0731 08:39:50.914319 30983 net.cpp:157] Top shape: 1 512 14 14 (100352)
I0731 08:39:50.914324 30983 net.cpp:165] Memory required for data: 349425676
I0731 08:39:50.914335 30983 layer_factory.hpp:77] Creating layer bn5a_branch2a
I0731 08:39:50.914345 30983 net.cpp:100] Creating Layer bn5a_branch2a
I0731 08:39:50.914350 30983 net.cpp:444] bn5a_branch2a <- res5a_branch2a
I0731 08:39:50.914357 30983 net.cpp:405] bn5a_branch2a -> res5a_branch2a (in-place)
I0731 08:39:50.914670 30983 net.cpp:150] Setting up bn5a_branch2a
I0731 08:39:50.914681 30983 net.cpp:157] Top shape: 1 512 14 14 (100352)
I0731 08:39:50.914697 30983 net.cpp:165] Memory required for data: 349827084
I0731 08:39:50.914706 30983 layer_factory.hpp:77] Creating layer scale5a_branch2a
I0731 08:39:50.914714 30983 net.cpp:100] Creating Layer scale5a_branch2a
I0731 08:39:50.914721 30983 net.cpp:444] scale5a_branch2a <- res5a_branch2a
I0731 08:39:50.914732 30983 net.cpp:405] scale5a_branch2a -> res5a_branch2a (in-place)
I0731 08:39:50.914803 30983 layer_factory.hpp:77] Creating layer scale5a_branch2a
I0731 08:39:50.914984 30983 net.cpp:150] Setting up scale5a_branch2a
I0731 08:39:50.914995 30983 net.cpp:157] Top shape: 1 512 14 14 (100352)
I0731 08:39:50.914999 30983 net.cpp:165] Memory required for data: 350228492
I0731 08:39:50.915019 30983 layer_factory.hpp:77] Creating layer res5a_branch2a_relu
I0731 08:39:50.915036 30983 net.cpp:100] Creating Layer res5a_branch2a_relu
I0731 08:39:50.915042 30983 net.cpp:444] res5a_branch2a_relu <- res5a_branch2a
I0731 08:39:50.915051 30983 net.cpp:405] res5a_branch2a_relu -> res5a_branch2a (in-place)
I0731 08:39:50.916760 30983 net.cpp:150] Setting up res5a_branch2a_relu
I0731 08:39:50.916776 30983 net.cpp:157] Top shape: 1 512 14 14 (100352)
I0731 08:39:50.916781 30983 net.cpp:165] Memory required for data: 350629900
I0731 08:39:50.916786 30983 layer_factory.hpp:77] Creating layer res5a_branch2b
I0731 08:39:50.916801 30983 net.cpp:100] Creating Layer res5a_branch2b
I0731 08:39:50.916807 30983 net.cpp:444] res5a_branch2b <- res5a_branch2a
I0731 08:39:50.916815 30983 net.cpp:418] res5a_branch2b -> res5a_branch2b
I0731 08:39:50.922888 30983 net.cpp:150] Setting up res5a_branch2b
I0731 08:39:50.922906 30983 net.cpp:157] Top shape: 1 512 14 14 (100352)
I0731 08:39:50.922911 30983 net.cpp:165] Memory required for data: 351031308
I0731 08:39:50.922919 30983 layer_factory.hpp:77] Creating layer bn5a_branch2b
I0731 08:39:50.922930 30983 net.cpp:100] Creating Layer bn5a_branch2b
I0731 08:39:50.922936 30983 net.cpp:444] bn5a_branch2b <- res5a_branch2b
I0731 08:39:50.922942 30983 net.cpp:405] bn5a_branch2b -> res5a_branch2b (in-place)
I0731 08:39:50.923249 30983 net.cpp:150] Setting up bn5a_branch2b
I0731 08:39:50.923259 30983 net.cpp:157] Top shape: 1 512 14 14 (100352)
I0731 08:39:50.923264 30983 net.cpp:165] Memory required for data: 351432716
I0731 08:39:50.923274 30983 layer_factory.hpp:77] Creating layer scale5a_branch2b
I0731 08:39:50.923285 30983 net.cpp:100] Creating Layer scale5a_branch2b
I0731 08:39:50.923290 30983 net.cpp:444] scale5a_branch2b <- res5a_branch2b
I0731 08:39:50.923295 30983 net.cpp:405] scale5a_branch2b -> res5a_branch2b (in-place)
I0731 08:39:50.923360 30983 layer_factory.hpp:77] Creating layer scale5a_branch2b
I0731 08:39:50.923565 30983 net.cpp:150] Setting up scale5a_branch2b
I0731 08:39:50.923578 30983 net.cpp:157] Top shape: 1 512 14 14 (100352)
I0731 08:39:50.923583 30983 net.cpp:165] Memory required for data: 351834124
I0731 08:39:50.923589 30983 layer_factory.hpp:77] Creating layer res5a_branch2b_relu
I0731 08:39:50.923599 30983 net.cpp:100] Creating Layer res5a_branch2b_relu
I0731 08:39:50.923604 30983 net.cpp:444] res5a_branch2b_relu <- res5a_branch2b
I0731 08:39:50.923610 30983 net.cpp:405] res5a_branch2b_relu -> res5a_branch2b (in-place)
I0731 08:39:50.923913 30983 net.cpp:150] Setting up res5a_branch2b_relu
I0731 08:39:50.923926 30983 net.cpp:157] Top shape: 1 512 14 14 (100352)
I0731 08:39:50.923931 30983 net.cpp:165] Memory required for data: 352235532
I0731 08:39:50.923938 30983 layer_factory.hpp:77] Creating layer res5a_branch2c
I0731 08:39:50.923949 30983 net.cpp:100] Creating Layer res5a_branch2c
I0731 08:39:50.923954 30983 net.cpp:444] res5a_branch2c <- res5a_branch2b
I0731 08:39:50.923964 30983 net.cpp:418] res5a_branch2c -> res5a_branch2c
I0731 08:39:50.935256 30983 net.cpp:150] Setting up res5a_branch2c
I0731 08:39:50.935276 30983 net.cpp:157] Top shape: 1 2048 14 14 (401408)
I0731 08:39:50.935281 30983 net.cpp:165] Memory required for data: 353841164
I0731 08:39:50.935289 30983 layer_factory.hpp:77] Creating layer bn5a_branch2c
I0731 08:39:50.935298 30983 net.cpp:100] Creating Layer bn5a_branch2c
I0731 08:39:50.935304 30983 net.cpp:444] bn5a_branch2c <- res5a_branch2c
I0731 08:39:50.935314 30983 net.cpp:405] bn5a_branch2c -> res5a_branch2c (in-place)
I0731 08:39:50.935686 30983 net.cpp:150] Setting up bn5a_branch2c
I0731 08:39:50.935700 30983 net.cpp:157] Top shape: 1 2048 14 14 (401408)
I0731 08:39:50.935710 30983 net.cpp:165] Memory required for data: 355446796
I0731 08:39:50.935720 30983 layer_factory.hpp:77] Creating layer scale5a_branch2c
I0731 08:39:50.935729 30983 net.cpp:100] Creating Layer scale5a_branch2c
I0731 08:39:50.935735 30983 net.cpp:444] scale5a_branch2c <- res5a_branch2c
I0731 08:39:50.935745 30983 net.cpp:405] scale5a_branch2c -> res5a_branch2c (in-place)
I0731 08:39:50.935818 30983 layer_factory.hpp:77] Creating layer scale5a_branch2c
I0731 08:39:50.936020 30983 net.cpp:150] Setting up scale5a_branch2c
I0731 08:39:50.936033 30983 net.cpp:157] Top shape: 1 2048 14 14 (401408)
I0731 08:39:50.936036 30983 net.cpp:165] Memory required for data: 357052428
I0731 08:39:50.936046 30983 layer_factory.hpp:77] Creating layer res5a
I0731 08:39:50.936054 30983 net.cpp:100] Creating Layer res5a
I0731 08:39:50.936060 30983 net.cpp:444] res5a <- res5a_branch1
I0731 08:39:50.936066 30983 net.cpp:444] res5a <- res5a_branch2c
I0731 08:39:50.936072 30983 net.cpp:418] res5a -> res5a
I0731 08:39:50.936115 30983 net.cpp:150] Setting up res5a
I0731 08:39:50.936127 30983 net.cpp:157] Top shape: 1 2048 14 14 (401408)
I0731 08:39:50.936132 30983 net.cpp:165] Memory required for data: 358658060
I0731 08:39:50.936137 30983 layer_factory.hpp:77] Creating layer res5a_relu
I0731 08:39:50.936144 30983 net.cpp:100] Creating Layer res5a_relu
I0731 08:39:50.936149 30983 net.cpp:444] res5a_relu <- res5a
I0731 08:39:50.936156 30983 net.cpp:405] res5a_relu -> res5a (in-place)
I0731 08:39:50.936928 30983 net.cpp:150] Setting up res5a_relu
I0731 08:39:50.936945 30983 net.cpp:157] Top shape: 1 2048 14 14 (401408)
I0731 08:39:50.936950 30983 net.cpp:165] Memory required for data: 360263692
I0731 08:39:50.936956 30983 layer_factory.hpp:77] Creating layer res5a_res5a_relu_0_split
I0731 08:39:50.936964 30983 net.cpp:100] Creating Layer res5a_res5a_relu_0_split
I0731 08:39:50.936974 30983 net.cpp:444] res5a_res5a_relu_0_split <- res5a
I0731 08:39:50.936980 30983 net.cpp:418] res5a_res5a_relu_0_split -> res5a_res5a_relu_0_split_0
I0731 08:39:50.936990 30983 net.cpp:418] res5a_res5a_relu_0_split -> res5a_res5a_relu_0_split_1
I0731 08:39:50.937062 30983 net.cpp:150] Setting up res5a_res5a_relu_0_split
I0731 08:39:50.937072 30983 net.cpp:157] Top shape: 1 2048 14 14 (401408)
I0731 08:39:50.937077 30983 net.cpp:157] Top shape: 1 2048 14 14 (401408)
I0731 08:39:50.937081 30983 net.cpp:165] Memory required for data: 363474956
I0731 08:39:50.937086 30983 layer_factory.hpp:77] Creating layer res5b_branch2a
I0731 08:39:50.937100 30983 net.cpp:100] Creating Layer res5b_branch2a
I0731 08:39:50.937106 30983 net.cpp:444] res5b_branch2a <- res5a_res5a_relu_0_split_0
I0731 08:39:50.937115 30983 net.cpp:418] res5b_branch2a -> res5b_branch2a
I0731 08:39:50.945664 30983 net.cpp:150] Setting up res5b_branch2a
I0731 08:39:50.945685 30983 net.cpp:157] Top shape: 1 512 14 14 (100352)
I0731 08:39:50.945703 30983 net.cpp:165] Memory required for data: 363876364
I0731 08:39:50.945711 30983 layer_factory.hpp:77] Creating layer bn5b_branch2a
I0731 08:39:50.945720 30983 net.cpp:100] Creating Layer bn5b_branch2a
I0731 08:39:50.945726 30983 net.cpp:444] bn5b_branch2a <- res5b_branch2a
I0731 08:39:50.945736 30983 net.cpp:405] bn5b_branch2a -> res5b_branch2a (in-place)
I0731 08:39:50.946089 30983 net.cpp:150] Setting up bn5b_branch2a
I0731 08:39:50.946100 30983 net.cpp:157] Top shape: 1 512 14 14 (100352)
I0731 08:39:50.946105 30983 net.cpp:165] Memory required for data: 364277772
I0731 08:39:50.946113 30983 layer_factory.hpp:77] Creating layer scale5b_branch2a
I0731 08:39:50.946122 30983 net.cpp:100] Creating Layer scale5b_branch2a
I0731 08:39:50.946127 30983 net.cpp:444] scale5b_branch2a <- res5b_branch2a
I0731 08:39:50.946135 30983 net.cpp:405] scale5b_branch2a -> res5b_branch2a (in-place)
I0731 08:39:50.946202 30983 layer_factory.hpp:77] Creating layer scale5b_branch2a
I0731 08:39:50.946394 30983 net.cpp:150] Setting up scale5b_branch2a
I0731 08:39:50.946405 30983 net.cpp:157] Top shape: 1 512 14 14 (100352)
I0731 08:39:50.946415 30983 net.cpp:165] Memory required for data: 364679180
I0731 08:39:50.946424 30983 layer_factory.hpp:77] Creating layer res5b_branch2a_relu
I0731 08:39:50.946434 30983 net.cpp:100] Creating Layer res5b_branch2a_relu
I0731 08:39:50.946439 30983 net.cpp:444] res5b_branch2a_relu <- res5b_branch2a
I0731 08:39:50.946444 30983 net.cpp:405] res5b_branch2a_relu -> res5b_branch2a (in-place)
I0731 08:39:50.947229 30983 net.cpp:150] Setting up res5b_branch2a_relu
I0731 08:39:50.947245 30983 net.cpp:157] Top shape: 1 512 14 14 (100352)
I0731 08:39:50.947249 30983 net.cpp:165] Memory required for data: 365080588
I0731 08:39:50.947254 30983 layer_factory.hpp:77] Creating layer res5b_branch2b
I0731 08:39:50.947266 30983 net.cpp:100] Creating Layer res5b_branch2b
I0731 08:39:50.947273 30983 net.cpp:444] res5b_branch2b <- res5b_branch2a
I0731 08:39:50.947283 30983 net.cpp:418] res5b_branch2b -> res5b_branch2b
I0731 08:39:50.953835 30983 net.cpp:150] Setting up res5b_branch2b
I0731 08:39:50.953852 30983 net.cpp:157] Top shape: 1 512 14 14 (100352)
I0731 08:39:50.953857 30983 net.cpp:165] Memory required for data: 365481996
I0731 08:39:50.953864 30983 layer_factory.hpp:77] Creating layer bn5b_branch2b
I0731 08:39:50.953873 30983 net.cpp:100] Creating Layer bn5b_branch2b
I0731 08:39:50.953879 30983 net.cpp:444] bn5b_branch2b <- res5b_branch2b
I0731 08:39:50.953886 30983 net.cpp:405] bn5b_branch2b -> res5b_branch2b (in-place)
I0731 08:39:50.954902 30983 net.cpp:150] Setting up bn5b_branch2b
I0731 08:39:50.954918 30983 net.cpp:157] Top shape: 1 512 14 14 (100352)
I0731 08:39:50.954923 30983 net.cpp:165] Memory required for data: 365883404
I0731 08:39:50.954934 30983 layer_factory.hpp:77] Creating layer scale5b_branch2b
I0731 08:39:50.954943 30983 net.cpp:100] Creating Layer scale5b_branch2b
I0731 08:39:50.954948 30983 net.cpp:444] scale5b_branch2b <- res5b_branch2b
I0731 08:39:50.954957 30983 net.cpp:405] scale5b_branch2b -> res5b_branch2b (in-place)
I0731 08:39:50.955021 30983 layer_factory.hpp:77] Creating layer scale5b_branch2b
I0731 08:39:50.955169 30983 net.cpp:150] Setting up scale5b_branch2b
I0731 08:39:50.955180 30983 net.cpp:157] Top shape: 1 512 14 14 (100352)
I0731 08:39:50.955184 30983 net.cpp:165] Memory required for data: 366284812
I0731 08:39:50.955191 30983 layer_factory.hpp:77] Creating layer res5b_branch2b_relu
I0731 08:39:50.955199 30983 net.cpp:100] Creating Layer res5b_branch2b_relu
I0731 08:39:50.955204 30983 net.cpp:444] res5b_branch2b_relu <- res5b_branch2b
I0731 08:39:50.955209 30983 net.cpp:405] res5b_branch2b_relu -> res5b_branch2b (in-place)
I0731 08:39:50.956001 30983 net.cpp:150] Setting up res5b_branch2b_relu
I0731 08:39:50.956017 30983 net.cpp:157] Top shape: 1 512 14 14 (100352)
I0731 08:39:50.956022 30983 net.cpp:165] Memory required for data: 366686220
I0731 08:39:50.956027 30983 layer_factory.hpp:77] Creating layer res5b_branch2c
I0731 08:39:50.956039 30983 net.cpp:100] Creating Layer res5b_branch2c
I0731 08:39:50.956044 30983 net.cpp:444] res5b_branch2c <- res5b_branch2b
I0731 08:39:50.956053 30983 net.cpp:418] res5b_branch2c -> res5b_branch2c
I0731 08:39:50.965672 30983 net.cpp:150] Setting up res5b_branch2c
I0731 08:39:50.965692 30983 net.cpp:157] Top shape: 1 2048 14 14 (401408)
I0731 08:39:50.965698 30983 net.cpp:165] Memory required for data: 368291852
I0731 08:39:50.965705 30983 layer_factory.hpp:77] Creating layer bn5b_branch2c
I0731 08:39:50.965716 30983 net.cpp:100] Creating Layer bn5b_branch2c
I0731 08:39:50.965723 30983 net.cpp:444] bn5b_branch2c <- res5b_branch2c
I0731 08:39:50.965730 30983 net.cpp:405] bn5b_branch2c -> res5b_branch2c (in-place)
I0731 08:39:50.966017 30983 net.cpp:150] Setting up bn5b_branch2c
I0731 08:39:50.966027 30983 net.cpp:157] Top shape: 1 2048 14 14 (401408)
I0731 08:39:50.966032 30983 net.cpp:165] Memory required for data: 369897484
I0731 08:39:50.966040 30983 layer_factory.hpp:77] Creating layer scale5b_branch2c
I0731 08:39:50.966048 30983 net.cpp:100] Creating Layer scale5b_branch2c
I0731 08:39:50.966053 30983 net.cpp:444] scale5b_branch2c <- res5b_branch2c
I0731 08:39:50.966065 30983 net.cpp:405] scale5b_branch2c -> res5b_branch2c (in-place)
I0731 08:39:50.966133 30983 layer_factory.hpp:77] Creating layer scale5b_branch2c
I0731 08:39:50.966279 30983 net.cpp:150] Setting up scale5b_branch2c
I0731 08:39:50.966289 30983 net.cpp:157] Top shape: 1 2048 14 14 (401408)
I0731 08:39:50.966293 30983 net.cpp:165] Memory required for data: 371503116
I0731 08:39:50.966300 30983 layer_factory.hpp:77] Creating layer res5b
I0731 08:39:50.966310 30983 net.cpp:100] Creating Layer res5b
I0731 08:39:50.966327 30983 net.cpp:444] res5b <- res5a_res5a_relu_0_split_1
I0731 08:39:50.966333 30983 net.cpp:444] res5b <- res5b_branch2c
I0731 08:39:50.966339 30983 net.cpp:418] res5b -> res5b
I0731 08:39:50.966369 30983 net.cpp:150] Setting up res5b
I0731 08:39:50.966377 30983 net.cpp:157] Top shape: 1 2048 14 14 (401408)
I0731 08:39:50.966382 30983 net.cpp:165] Memory required for data: 373108748
I0731 08:39:50.966387 30983 layer_factory.hpp:77] Creating layer res5b_relu
I0731 08:39:50.966393 30983 net.cpp:100] Creating Layer res5b_relu
I0731 08:39:50.966398 30983 net.cpp:444] res5b_relu <- res5b
I0731 08:39:50.966403 30983 net.cpp:405] res5b_relu -> res5b (in-place)
I0731 08:39:50.969266 30983 net.cpp:150] Setting up res5b_relu
I0731 08:39:50.969295 30983 net.cpp:157] Top shape: 1 2048 14 14 (401408)
I0731 08:39:50.969300 30983 net.cpp:165] Memory required for data: 374714380
I0731 08:39:50.969307 30983 layer_factory.hpp:77] Creating layer res5b_res5b_relu_0_split
I0731 08:39:50.969318 30983 net.cpp:100] Creating Layer res5b_res5b_relu_0_split
I0731 08:39:50.969324 30983 net.cpp:444] res5b_res5b_relu_0_split <- res5b
I0731 08:39:50.969332 30983 net.cpp:418] res5b_res5b_relu_0_split -> res5b_res5b_relu_0_split_0
I0731 08:39:50.969344 30983 net.cpp:418] res5b_res5b_relu_0_split -> res5b_res5b_relu_0_split_1
I0731 08:39:50.969396 30983 net.cpp:150] Setting up res5b_res5b_relu_0_split
I0731 08:39:50.969405 30983 net.cpp:157] Top shape: 1 2048 14 14 (401408)
I0731 08:39:50.969411 30983 net.cpp:157] Top shape: 1 2048 14 14 (401408)
I0731 08:39:50.969415 30983 net.cpp:165] Memory required for data: 377925644
I0731 08:39:50.969420 30983 layer_factory.hpp:77] Creating layer res5c_branch2a
I0731 08:39:50.969432 30983 net.cpp:100] Creating Layer res5c_branch2a
I0731 08:39:50.969439 30983 net.cpp:444] res5c_branch2a <- res5b_res5b_relu_0_split_0
I0731 08:39:50.969447 30983 net.cpp:418] res5c_branch2a -> res5c_branch2a
I0731 08:39:50.977552 30983 net.cpp:150] Setting up res5c_branch2a
I0731 08:39:50.977571 30983 net.cpp:157] Top shape: 1 512 14 14 (100352)
I0731 08:39:50.977577 30983 net.cpp:165] Memory required for data: 378327052
I0731 08:39:50.977587 30983 layer_factory.hpp:77] Creating layer bn5c_branch2a
I0731 08:39:50.977597 30983 net.cpp:100] Creating Layer bn5c_branch2a
I0731 08:39:50.977603 30983 net.cpp:444] bn5c_branch2a <- res5c_branch2a
I0731 08:39:50.977612 30983 net.cpp:405] bn5c_branch2a -> res5c_branch2a (in-place)
I0731 08:39:50.977886 30983 net.cpp:150] Setting up bn5c_branch2a
I0731 08:39:50.977897 30983 net.cpp:157] Top shape: 1 512 14 14 (100352)
I0731 08:39:50.977901 30983 net.cpp:165] Memory required for data: 378728460
I0731 08:39:50.977910 30983 layer_factory.hpp:77] Creating layer scale5c_branch2a
I0731 08:39:50.977921 30983 net.cpp:100] Creating Layer scale5c_branch2a
I0731 08:39:50.977926 30983 net.cpp:444] scale5c_branch2a <- res5c_branch2a
I0731 08:39:50.977936 30983 net.cpp:405] scale5c_branch2a -> res5c_branch2a (in-place)
I0731 08:39:50.977995 30983 layer_factory.hpp:77] Creating layer scale5c_branch2a
I0731 08:39:50.978145 30983 net.cpp:150] Setting up scale5c_branch2a
I0731 08:39:50.978157 30983 net.cpp:157] Top shape: 1 512 14 14 (100352)
I0731 08:39:50.978160 30983 net.cpp:165] Memory required for data: 379129868
I0731 08:39:50.978168 30983 layer_factory.hpp:77] Creating layer res5c_branch2a_relu
I0731 08:39:50.978175 30983 net.cpp:100] Creating Layer res5c_branch2a_relu
I0731 08:39:50.978180 30983 net.cpp:444] res5c_branch2a_relu <- res5c_branch2a
I0731 08:39:50.978188 30983 net.cpp:405] res5c_branch2a_relu -> res5c_branch2a (in-place)
I0731 08:39:50.981035 30983 net.cpp:150] Setting up res5c_branch2a_relu
I0731 08:39:50.981050 30983 net.cpp:157] Top shape: 1 512 14 14 (100352)
I0731 08:39:50.981055 30983 net.cpp:165] Memory required for data: 379531276
I0731 08:39:50.981060 30983 layer_factory.hpp:77] Creating layer res5c_branch2b
I0731 08:39:50.981073 30983 net.cpp:100] Creating Layer res5c_branch2b
I0731 08:39:50.981079 30983 net.cpp:444] res5c_branch2b <- res5c_branch2a
I0731 08:39:50.981089 30983 net.cpp:418] res5c_branch2b -> res5c_branch2b
I0731 08:39:50.987362 30983 net.cpp:150] Setting up res5c_branch2b
I0731 08:39:50.987381 30983 net.cpp:157] Top shape: 1 512 14 14 (100352)
I0731 08:39:50.987386 30983 net.cpp:165] Memory required for data: 379932684
I0731 08:39:50.987393 30983 layer_factory.hpp:77] Creating layer bn5c_branch2b
I0731 08:39:50.987404 30983 net.cpp:100] Creating Layer bn5c_branch2b
I0731 08:39:50.987411 30983 net.cpp:444] bn5c_branch2b <- res5c_branch2b
I0731 08:39:50.987417 30983 net.cpp:405] bn5c_branch2b -> res5c_branch2b (in-place)
I0731 08:39:50.987701 30983 net.cpp:150] Setting up bn5c_branch2b
I0731 08:39:50.987715 30983 net.cpp:157] Top shape: 1 512 14 14 (100352)
I0731 08:39:50.987718 30983 net.cpp:165] Memory required for data: 380334092
I0731 08:39:50.987730 30983 layer_factory.hpp:77] Creating layer scale5c_branch2b
I0731 08:39:50.987740 30983 net.cpp:100] Creating Layer scale5c_branch2b
I0731 08:39:50.987757 30983 net.cpp:444] scale5c_branch2b <- res5c_branch2b
I0731 08:39:50.987764 30983 net.cpp:405] scale5c_branch2b -> res5c_branch2b (in-place)
I0731 08:39:50.987828 30983 layer_factory.hpp:77] Creating layer scale5c_branch2b
I0731 08:39:50.987979 30983 net.cpp:150] Setting up scale5c_branch2b
I0731 08:39:50.987989 30983 net.cpp:157] Top shape: 1 512 14 14 (100352)
I0731 08:39:50.987994 30983 net.cpp:165] Memory required for data: 380735500
I0731 08:39:50.988001 30983 layer_factory.hpp:77] Creating layer res5c_branch2b_relu
I0731 08:39:50.988010 30983 net.cpp:100] Creating Layer res5c_branch2b_relu
I0731 08:39:50.988015 30983 net.cpp:444] res5c_branch2b_relu <- res5c_branch2b
I0731 08:39:50.988032 30983 net.cpp:405] res5c_branch2b_relu -> res5c_branch2b (in-place)
I0731 08:39:50.988936 30983 net.cpp:150] Setting up res5c_branch2b_relu
I0731 08:39:50.988952 30983 net.cpp:157] Top shape: 1 512 14 14 (100352)
I0731 08:39:50.988958 30983 net.cpp:165] Memory required for data: 381136908
I0731 08:39:50.988963 30983 layer_factory.hpp:77] Creating layer res5c_branch2c
I0731 08:39:50.988976 30983 net.cpp:100] Creating Layer res5c_branch2c
I0731 08:39:50.988981 30983 net.cpp:444] res5c_branch2c <- res5c_branch2b
I0731 08:39:50.988991 30983 net.cpp:418] res5c_branch2c -> res5c_branch2c
I0731 08:39:50.997239 30983 net.cpp:150] Setting up res5c_branch2c
I0731 08:39:50.997258 30983 net.cpp:157] Top shape: 1 2048 14 14 (401408)
I0731 08:39:50.997263 30983 net.cpp:165] Memory required for data: 382742540
I0731 08:39:50.997272 30983 layer_factory.hpp:77] Creating layer bn5c_branch2c
I0731 08:39:50.997284 30983 net.cpp:100] Creating Layer bn5c_branch2c
I0731 08:39:50.997290 30983 net.cpp:444] bn5c_branch2c <- res5c_branch2c
I0731 08:39:50.997299 30983 net.cpp:405] bn5c_branch2c -> res5c_branch2c (in-place)
I0731 08:39:50.997596 30983 net.cpp:150] Setting up bn5c_branch2c
I0731 08:39:50.997607 30983 net.cpp:157] Top shape: 1 2048 14 14 (401408)
I0731 08:39:50.997611 30983 net.cpp:165] Memory required for data: 384348172
I0731 08:39:50.997620 30983 layer_factory.hpp:77] Creating layer scale5c_branch2c
I0731 08:39:50.997643 30983 net.cpp:100] Creating Layer scale5c_branch2c
I0731 08:39:50.997648 30983 net.cpp:444] scale5c_branch2c <- res5c_branch2c
I0731 08:39:50.997654 30983 net.cpp:405] scale5c_branch2c -> res5c_branch2c (in-place)
I0731 08:39:50.997725 30983 layer_factory.hpp:77] Creating layer scale5c_branch2c
I0731 08:39:50.997879 30983 net.cpp:150] Setting up scale5c_branch2c
I0731 08:39:50.997889 30983 net.cpp:157] Top shape: 1 2048 14 14 (401408)
I0731 08:39:50.997898 30983 net.cpp:165] Memory required for data: 385953804
I0731 08:39:50.997906 30983 layer_factory.hpp:77] Creating layer res5c
I0731 08:39:50.997917 30983 net.cpp:100] Creating Layer res5c
I0731 08:39:50.997923 30983 net.cpp:444] res5c <- res5b_res5b_relu_0_split_1
I0731 08:39:50.997928 30983 net.cpp:444] res5c <- res5c_branch2c
I0731 08:39:50.997934 30983 net.cpp:418] res5c -> res5c
I0731 08:39:50.997965 30983 net.cpp:150] Setting up res5c
I0731 08:39:50.997973 30983 net.cpp:157] Top shape: 1 2048 14 14 (401408)
I0731 08:39:50.997977 30983 net.cpp:165] Memory required for data: 387559436
I0731 08:39:50.997982 30983 layer_factory.hpp:77] Creating layer res5c_relu
I0731 08:39:50.997988 30983 net.cpp:100] Creating Layer res5c_relu
I0731 08:39:50.997992 30983 net.cpp:444] res5c_relu <- res5c
I0731 08:39:50.998000 30983 net.cpp:405] res5c_relu -> res5c (in-place)
I0731 08:39:50.998742 30983 net.cpp:150] Setting up res5c_relu
I0731 08:39:50.998755 30983 net.cpp:157] Top shape: 1 2048 14 14 (401408)
I0731 08:39:50.998760 30983 net.cpp:165] Memory required for data: 389165068
I0731 08:39:50.998765 30983 layer_factory.hpp:77] Creating layer rpn_conv/3x3
I0731 08:39:50.998778 30983 net.cpp:100] Creating Layer rpn_conv/3x3
I0731 08:39:50.998785 30983 net.cpp:444] rpn_conv/3x3 <- res4b22_res4b22_relu_0_split_2
I0731 08:39:50.998796 30983 net.cpp:418] rpn_conv/3x3 -> rpn/output
I0731 08:39:51.063664 30983 net.cpp:150] Setting up rpn_conv/3x3
I0731 08:39:51.063694 30983 net.cpp:157] Top shape: 1 512 14 14 (100352)
I0731 08:39:51.063700 30983 net.cpp:165] Memory required for data: 389566476
I0731 08:39:51.063710 30983 layer_factory.hpp:77] Creating layer rpn_relu/3x3
I0731 08:39:51.063720 30983 net.cpp:100] Creating Layer rpn_relu/3x3
I0731 08:39:51.063726 30983 net.cpp:444] rpn_relu/3x3 <- rpn/output
I0731 08:39:51.063735 30983 net.cpp:405] rpn_relu/3x3 -> rpn/output (in-place)
I0731 08:39:51.064667 30983 net.cpp:150] Setting up rpn_relu/3x3
I0731 08:39:51.064682 30983 net.cpp:157] Top shape: 1 512 14 14 (100352)
I0731 08:39:51.064687 30983 net.cpp:165] Memory required for data: 389967884
I0731 08:39:51.064692 30983 layer_factory.hpp:77] Creating layer rpn/output_rpn_relu/3x3_0_split
I0731 08:39:51.064702 30983 net.cpp:100] Creating Layer rpn/output_rpn_relu/3x3_0_split
I0731 08:39:51.064707 30983 net.cpp:444] rpn/output_rpn_relu/3x3_0_split <- rpn/output
I0731 08:39:51.064716 30983 net.cpp:418] rpn/output_rpn_relu/3x3_0_split -> rpn/output_rpn_relu/3x3_0_split_0
I0731 08:39:51.064728 30983 net.cpp:418] rpn/output_rpn_relu/3x3_0_split -> rpn/output_rpn_relu/3x3_0_split_1
I0731 08:39:51.064791 30983 net.cpp:150] Setting up rpn/output_rpn_relu/3x3_0_split
I0731 08:39:51.064801 30983 net.cpp:157] Top shape: 1 512 14 14 (100352)
I0731 08:39:51.064807 30983 net.cpp:157] Top shape: 1 512 14 14 (100352)
I0731 08:39:51.064811 30983 net.cpp:165] Memory required for data: 390770700
I0731 08:39:51.064816 30983 layer_factory.hpp:77] Creating layer rpn_cls_score
I0731 08:39:51.064831 30983 net.cpp:100] Creating Layer rpn_cls_score
I0731 08:39:51.064837 30983 net.cpp:444] rpn_cls_score <- rpn/output_rpn_relu/3x3_0_split_0
I0731 08:39:51.064847 30983 net.cpp:418] rpn_cls_score -> rpn_cls_score
I0731 08:39:51.071610 30983 net.cpp:150] Setting up rpn_cls_score
I0731 08:39:51.071629 30983 net.cpp:157] Top shape: 1 18 14 14 (3528)
I0731 08:39:51.071633 30983 net.cpp:165] Memory required for data: 390784812
I0731 08:39:51.071642 30983 layer_factory.hpp:77] Creating layer rpn_bbox_pred
I0731 08:39:51.071656 30983 net.cpp:100] Creating Layer rpn_bbox_pred
I0731 08:39:51.071662 30983 net.cpp:444] rpn_bbox_pred <- rpn/output_rpn_relu/3x3_0_split_1
I0731 08:39:51.071672 30983 net.cpp:418] rpn_bbox_pred -> rpn_bbox_pred
I0731 08:39:51.079797 30983 net.cpp:150] Setting up rpn_bbox_pred
I0731 08:39:51.079818 30983 net.cpp:157] Top shape: 1 36 14 14 (7056)
I0731 08:39:51.079823 30983 net.cpp:165] Memory required for data: 390813036
I0731 08:39:51.079833 30983 layer_factory.hpp:77] Creating layer rpn_cls_score_reshape
I0731 08:39:51.079846 30983 net.cpp:100] Creating Layer rpn_cls_score_reshape
I0731 08:39:51.079861 30983 net.cpp:444] rpn_cls_score_reshape <- rpn_cls_score
I0731 08:39:51.079870 30983 net.cpp:418] rpn_cls_score_reshape -> rpn_cls_score_reshape
I0731 08:39:51.079949 30983 net.cpp:150] Setting up rpn_cls_score_reshape
I0731 08:39:51.079962 30983 net.cpp:157] Top shape: 1 2 126 14 (3528)
I0731 08:39:51.079967 30983 net.cpp:165] Memory required for data: 390827148
I0731 08:39:51.079972 30983 layer_factory.hpp:77] Creating layer rpn_cls_prob
I0731 08:39:51.079989 30983 net.cpp:100] Creating Layer rpn_cls_prob
I0731 08:39:51.079995 30983 net.cpp:444] rpn_cls_prob <- rpn_cls_score_reshape
I0731 08:39:51.080001 30983 net.cpp:418] rpn_cls_prob -> rpn_cls_prob
I0731 08:39:51.081370 30983 net.cpp:150] Setting up rpn_cls_prob
I0731 08:39:51.081388 30983 net.cpp:157] Top shape: 1 2 126 14 (3528)
I0731 08:39:51.081393 30983 net.cpp:165] Memory required for data: 390841260
I0731 08:39:51.081398 30983 layer_factory.hpp:77] Creating layer rpn_cls_prob_reshape
I0731 08:39:51.081409 30983 net.cpp:100] Creating Layer rpn_cls_prob_reshape
I0731 08:39:51.081415 30983 net.cpp:444] rpn_cls_prob_reshape <- rpn_cls_prob
I0731 08:39:51.081426 30983 net.cpp:418] rpn_cls_prob_reshape -> rpn_cls_prob_reshape
I0731 08:39:51.081459 30983 net.cpp:150] Setting up rpn_cls_prob_reshape
I0731 08:39:51.081468 30983 net.cpp:157] Top shape: 1 18 14 14 (3528)
I0731 08:39:51.081472 30983 net.cpp:165] Memory required for data: 390855372
I0731 08:39:51.081477 30983 layer_factory.hpp:77] Creating layer proposal
ImportError: No module named rpn.proposal_layer
Traceback (most recent call last):
  File "compute.py", line 130, in <module>
    net = caffe.Net(prototxt, caffemodel, caffe.TEST)
SystemError: NULL result without error in PyObject_Call
