…
W0821 12:31:33.777420 14629 _caffe.cpp:123] Use this instead (with the named "weights" parameter):
W0821 12:31:33.777437 14629 _caffe.cpp:125] Net('./py-R-FCN/model/test_agonistic_face.prototxt', 1, weights='./py-R-FCN/model/resnet101_rfcn_ohem_iter_40000.caffemodel')
I0821 12:31:33.784441 14629 net.cpp:58] Initializing net from parameters: 
name: "ResNet-101"
state {
  phase: TEST
  level: 0
}
layer {
  name: "input"
  type: "Input"
  top: "data"
  top: "im_info"
  input_param {
    shape {
      dim: 1
      dim: 3
      dim: 224
      dim: 224
    }
    shape {
      dim: 1
      dim: 3
    }
  }
}
layer {
  name: "conv1"
  type: "Convolution"
  bottom: "data"
  top: "conv1"
  param {
    lr_mult: 0
  }
  convolution_param {
    num_output: 64
    bias_term: false
    pad: 3
    kernel_size: 7
    stride: 2
  }
}
layer {
  name: "bn_conv1"
  type: "BatchNorm"
  bottom: "conv1"
  top: "conv1"
  param {
    lr_mult: 0
    decay_mult: 0
  }
  param {
    lr_mult: 0
    decay_mult: 0
  }
  param {
    lr_mult: 0
    decay_mult: 0
  }
  batch_norm_param {
    use_global_stats: true
  }
}
layer {
  name: "scale_conv1"
  type: "Scale"
  bottom: "conv1"
  top: "conv1"
  param {
    lr_mult: 0
    decay_mult: 0
  }
  param {
    lr_mult: 0
    decay_mult: 0
  }
  scale_param {
    bias_term: true
  }
}
layer {
  name: "conv1_relu"
  type: "ReLU"
  bottom: "conv1"
  top: "conv1"
}
layer {
  name: "pool1"
  type: "Pooling"
  bottom: "conv1"
  top: "pool1"
  pooling_param {
    pool: MAX
    kernel_size: 3
    stride: 2
  }
}
layer {
  name: "res2a_branch1"
  type: "Convolution"
  bottom: "pool1"
  top: "res2a_branch1"
  param {
    lr_mult: 0
  }
  convolution_param {
    num_output: 256
    bias_term: false
    pad: 0
    kernel_size: 1
    stride: 1
  }
}
layer {
  name: "bn2a_branch1"
  type: "BatchNorm"
  bottom: "res2a_branch1"
  top: "res2a_branch1"
  param {
    lr_mult: 0
    decay_mult: 0
  }
  param {
    lr_mult: 0
    decay_mult: 0
  }
  param {
    lr_mult: 0
    decay_mult: 0
  }
  batch_norm_param {
    use_global_stats: true
  }
}
layer {
  name: "scale2a_branch1"
  type: "Scale"
  bottom: "res2a_branch1"
  top: "res2a_branch1"
  param {
    lr_mult: 0
    decay_mult: 0
  }
  param {
    lr_mult: 0
    decay_mult: 0
  }
  scale_param {
    bias_term: true
  }
}
layer {
  name: "res2a_branch2a"
  type: "Convolution"
  bottom: "pool1"
  top: "res2a_branch2a"
  param {
    lr_mult: 0
  }
  convolution_param {
    num_output: 64
    bias_term: false
    pad: 0
    kernel_size: 1
    stride: 1
  }
}
layer {
  name: "bn2a_branch2a"
  type: "BatchNorm"
  bottom: "res2a_branch2a"
  top: "res2a_branch2a"
  param {
    lr_mult: 0
    decay_mult: 0
  }
  param {
    lr_mult: 0
    decay_mult: 0
  }
  param {
    lr_mult: 0
    decay_mult: 0
  }
  batch_norm_param {
    use_global_stats: true
  }
}
layer {
  name: "scale2a_branch2a"
  type: "Scale"
  bottom: "res2a_branch2a"
  top: "res2a_branch2a"
  param {
    lr_mult: 0
    decay_mult: 0
  }
  param {
    lr_mult: 0
    decay_mult: 0
  }
  scale_param {
    bias_term: true
  }
}
layer {
  name: "res2a_branch2a_relu"
  type: "ReLU"
  bottom: "res2a_branch2a"
  top: "res2a_branch2a"
}
layer {
  name: "res2a_branch2b"
  type: "Convolution"
  bottom: "res2a_branch2a"
  top: "res2a_branch2b"
  param {
    lr_mult: 0
  }
  convolution_param {
    num_output: 64
    bias_term: false
    pad: 1
    kernel_size: 3
    stride: 1
  }
}
layer {
  name: "bn2a_branch2b"
  type: "BatchNorm"
  bottom: "res2a_branch2b"
  top: "res2a_branch2b"
  param {
    lr_mult: 0
    decay_mult: 0
  }
  param {
    lr_mult: 0
    decay_mult: 0
  }
  param {
    lr_mult: 0
    decay_mult: 0
  }
  batch_norm_param {
    use_global_stats: true
  }
}
layer {
  name: "scale2a_branch2b"
  type: "Scale"
  bottom: "res2a_branch2b"
  top: "res2a_branch2b"
  param {
    lr_mult: 0
    decay_mult: 0
  }
  param {
    lr_mult: 0
    decay_mult: 0
  }
  scale_param {
    bias_term: true
  }
}
layer {
  name: "res2a_branch2b_relu"
  type: "ReLU"
  bottom: "res2a_branch2b"
  top: "res2a_branch2b"
}
layer {
  name: "res2a_branch2c"
  type: "Convolution"
  bottom: "res2a_branch2b"
  top: "res2a_branch2c"
  param {
    lr_mult: 0
  }
  convolution_param {
    num_output: 256
    bias_term: false
    pad: 0
    kernel_size: 1
    stride: 1
  }
}
layer {
  name: "bn2a_branch2c"
  type: "BatchNorm"
  bottom: "res2a_branch2c"
  top: "res2a_branch2c"
  param {
    lr_mult: 0
    decay_mult: 0
  }
  param {
    lr_mult: 0
    decay_mult: 0
  }
  param {
    lr_mult: 0
    decay_mult: 0
  }
  batch_norm_param {
    use_global_stats: true
  }
}
layer {
  name: "scale2a_branch2c"
  type: "Scale"
  bottom: "res2a_branch2c"
  top: "res2a_branch2c"
  param {
    lr_mult: 0
    decay_mult: 0
  }
  param {
    lr_mult: 0
    decay_mult: 0
  }
  scale_param {
    bias_term: true
  }
}
layer {
  name: "res2a"
  type: "Eltwise"
  bottom: "res2a_branch1"
  bottom: "res2a_branch2c"
  top: "res2a"
}
layer {
  name: "res2a_relu"
  type: "ReLU"
  bottom: "res2a"
  top: "res2a"
}
layer {
  name: "res2b_branch2a"
  type: "Convolution"
  bottom: "res2a"
  top: "res2b_branch2a"
  param {
    lr_mult: 0
  }
  convolution_param {
    num_output: 64
    bias_term: false
    pad: 0
    kernel_size: 1
    stride: 1
  }
}
layer {
  name: "bn2b_branch2a"
  type: "BatchNorm"
  bottom: "res2b_branch2a"
  top: "res2b_branch2a"
  param {
    lr_mult: 0
    decay_mult: 0
  }
  param {
    lr_mult: 0
    decay_mult: 0
  }
  param {
    lr_mult: 0
    decay_mult: 0
  }
  batch_norm_param {
    use_global_stats: true
  }
}
layer {
  name: "scale2b_branch2a"
  type: "Scale"
  bottom: "res2b_branch2a"
  top: "res2b_branch2a"
  param {
    lr_mult: 0
    decay_mult: 0
  }
  param {
    lr_mult: 0
    decay_mult: 0
  }
  scale_param {
    bias_term: true
  }
}
layer {
  name: "res2b_branch2a_relu"
  type: "ReLU"
  bottom: "res2b_branch2a"
  top: "res2b_branch2a"
}
layer {
  name: "res2b_branch2b"
  type: "Convolution"
  bottom: "res2b_branch2a"
  top: "res2b_branch2b"
  param {
    lr_mult: 0
  }
  convolution_param {
    num_output: 64
    bias_term: false
    pad: 1
    kernel_size: 3
    stride: 1
  }
}
layer {
  name: "bn2b_branch2b"
  type: "BatchNorm"
  bottom: "res2b_branch2b"
  top: "res2b_branch2b"
  param {
    lr_mult: 0
    decay_mult: 0
  }
  param {
    lr_mult: 0
    decay_mult: 0
  }
  param {
    lr_mult: 0
    decay_mult: 0
  }
  batch_norm_param {
    use_global_stats: true
  }
}
layer {
  name: "scale2b_branch2b"
  type: "Scale"
  bottom: "res2b_branch2b"
  top: "res2b_branch2b"
  param {
    lr_mult: 0
    decay_mult: 0
  }
  param {
    lr_mult: 0
    decay_mult: 0
  }
  scale_param {
    bias_term: true
  }
}
layer {
  name: "res2b_branch2b_relu"
  type: "ReLU"
  bottom: "res2b_branch2b"
  top: "res2b_branch2b"
}
layer {
  name: "res2b_branch2c"
  type: "Convolution"
  bottom: "res2b_branch2b"
  top: "res2b_branch2c"
  param {
    lr_mult: 0
  }
  convolution_param {
    num_output: 256
    bias_term: false
    pad: 0
    kernel_size: 1
    stride: 1
  }
}
layer {
  name: "bn2b_branch2c"
  type: "BatchNorm"
  bottom: "res2b_branch2c"
  top: "res2b_branch2c"
  param {
    lr_mult: 0
    decay_mult: 0
  }
  param {
    lr_mult: 0
    decay_mult: 0
  }
  param {
    lr_mult: 0
    decay_mult: 0
  }
  batch_norm_param {
    use_global_stats: true
  }
}
layer {
  name: "scale2b_branch2c"
  type: "Scale"
  bottom: "res2b_branch2c"
  top: "res2b_branch2c"
  param {
    lr_mult: 0
    decay_mult: 0
  }
  param {
    lr_mult: 0
    decay_mult: 0
  }
  scale_param {
    bias_term: true
  }
}
layer {
  name: "res2b"
  type: "Eltwise"
  bottom: "res2a"
  bottom: "res2b_branch2c"
  top: "res2b"
}
layer {
  name: "res2b_relu"
  type: "ReLU"
  bottom: "res2b"
  top: "res2b"
}
layer {
  name: "res2c_branch2a"
  type: "Convolution"
  bottom: "res2b"
  top: "res2c_branch2a"
  param {
    lr_mult: 0
  }
  convolution_param {
    num_output: 64
    bias_term: false
    pad: 0
    kernel_size: 1
    stride: 1
  }
}
layer {
  name: "bn2c_branch2a"
  type: "BatchNorm"
  bottom: "res2c_branch2a"
  top: "res2c_branch2a"
  param {
    lr_mult: 0
    decay_mult: 0
  }
  param {
    lr_mult: 0
    decay_mult: 0
  }
  param {
    lr_mult: 0
    decay_mult: 0
  }
  batch_norm_param {
    use_global_stats: true
  }
}
layer {
  name: "scale2c_branch2a"
  type: "Scale"
  bottom: "res2c_branch2a"
  top: "res2c_branch2a"
  param {
    lr_mult: 0
    decay_mult: 0
  }
  param {
    lr_mult: 0
    decay_mult: 0
  }
  scale_param {
    bias_term: true
  }
}
layer {
  name: "res2c_branch2a_relu"
  type: "ReLU"
  bottom: "res2c_branch2a"
  top: "res2c_branch2a"
}
layer {
  name: "res2c_branch2b"
  type: "Convolution"
  bottom: "res2c_branch2a"
  top: "res2c_branch2b"
  param {
    lr_mult: 0
  }
  convolution_param {
    num_output: 64
    bias_term: false
    pad: 1
    kernel_size: 3
    stride: 1
  }
}
layer {
  name: "bn2c_branch2b"
  type: "BatchNorm"
  bottom: "res2c_branch2b"
  top: "res2c_branch2b"
  param {
    lr_mult: 0
    decay_mult: 0
  }
  param {
    lr_mult: 0
    decay_mult: 0
  }
  param {
    lr_mult: 0
    decay_mult: 0
  }
  batch_norm_param {
    use_global_stats: true
  }
}
layer {
  name: "scale2c_branch2b"
  type: "Scale"
  bottom: "res2c_branch2b"
  top: "res2c_branch2b"
  param {
    lr_mult: 0
    decay_mult: 0
  }
  param {
    lr_mult: 0
    decay_mult: 0
  }
  scale_param {
    bias_term: true
  }
}
layer {
  name: "res2c_branch2b_relu"
  type: "ReLU"
  bottom: "res2c_branch2b"
  top: "res2c_branch2b"
}
layer {
  name: "res2c_branch2c"
  type: "Convolution"
  bottom: "res2c_branch2b"
  top: "res2c_branch2c"
  param {
    lr_mult: 0
  }
  convolution_param {
    num_output: 256
    bias_term: false
    pad: 0
    kernel_size: 1
    stride: 1
  }
}
layer {
  name: "bn2c_branch2c"
  type: "BatchNorm"
  bottom: "res2c_branch2c"
  top: "res2c_branch2c"
  param {
    lr_mult: 0
    decay_mult: 0
  }
  param {
    lr_mult: 0
    decay_mult: 0
  }
  param {
    lr_mult: 0
    decay_mult: 0
  }
  batch_norm_param {
    use_global_stats: true
  }
}
layer {
  name: "scale2c_branch2c"
  type: "Scale"
  bottom: "res2c_branch2c"
  top: "res2c_branch2c"
  param {
    lr_mult: 0
    decay_mult: 0
  }
  param {
    lr_mult: 0
    decay_mult: 0
  }
  scale_param {
    bias_term: true
  }
}
layer {
  name: "res2c"
  type: "Eltwise"
  bottom: "res2b"
  bottom: "res2c_branch2c"
  top: "res2c"
}
layer {
  name: "res2c_relu"
  type: "ReLU"
  bottom: "res2c"
  top: "res2c"
}
layer {
  name: "res3a_branch1"
  type: "Convolution"
  bottom: "res2c"
  top: "res3a_branch1"
  param {
    lr_mult: 1
  }
  convolution_param {
    num_output: 512
    bias_term: false
    pad: 0
    kernel_size: 1
    stride: 2
  }
}
layer {
  name: "bn3a_branch1"
  type: "BatchNorm"
  bottom: "res3a_branch1"
  top: "res3a_branch1"
  param {
    lr_mult: 0
    decay_mult: 0
  }
  param {
    lr_mult: 0
    decay_mult: 0
  }
  param {
    lr_mult: 0
    decay_mult: 0
  }
  batch_norm_param {
    use_global_stats: true
  }
}
layer {
  name: "scale3a_branch1"
  type: "Scale"
  bottom: "res3a_branch1"
  top: "res3a_branch1"
  param {
    lr_mult: 0
    decay_mult: 0
  }
  param {
    lr_mult: 0
    decay_mult: 0
  }
  scale_param {
    bias_term: true
  }
}
layer {
  name: "res3a_branch2a"
  type: "Convolution"
  bottom: "res2c"
  top: "res3a_branch2a"
  param {
    lr_mult: 1
  }
  convolution_param {
    num_output: 128
    bias_term: false
    pad: 0
    kernel_size: 1
    stride: 2
  }
}
layer {
  name: "bn3a_branch2a"
  type: "BatchNorm"
  bottom: "res3a_branch2a"
  top: "res3a_branch2a"
  param {
    lr_mult: 0
    decay_mult: 0
  }
  param {
    lr_mult: 0
    decay_mult: 0
  }
  param {
    lr_mult: 0
    decay_mult: 0
  }
  batch_norm_param {
    use_global_stats: true
  }
}
layer {
  name: "scale3a_branch2a"
  type: "Scale"
  bottom: "res3a_branch2a"
  top: "res3a_branch2a"
  param {
    lr_mult: 0
    decay_mult: 0
  }
  param {
    lr_mult: 0
    decay_mult: 0
  }
  scale_param {
    bias_term: true
  }
}
layer {
  name: "res3a_branch2a_relu"
  type: "ReLU"
  bottom: "res3a_branch2a"
  top: "res3a_branch2a"
}
layer {
  name: "res3a_branch2b"
  type: "Convolution"
  bottom: "res3a_branch2a"
  top: "res3a_branch2b"
  param {
    lr_mult: 1
  }
  convolution_param {
    num_output: 128
    bias_term: false
    pad: 1
    kernel_size: 3
    stride: 1
  }
}
layer {
  name: "bn3a_branch2b"
  type: "BatchNorm"
  bottom: "res3a_branch2b"
  top: "res3a_branch2b"
  param {
    lr_mult: 0
    decay_mult: 0
  }
  param {
    lr_mult: 0
    decay_mult: 0
  }
  param {
    lr_mult: 0
    decay_mult: 0
  }
  batch_norm_param {
    use_global_stats: true
  }
}
layer {
  name: "scale3a_branch2b"
  type: "Scale"
  bottom: "res3a_branch2b"
  top: "res3a_branch2b"
  param {
    lr_mult: 0
    decay_mult: 0
  }
  param {
    lr_mult: 0
    decay_mult: 0
  }
  scale_param {
    bias_term: true
  }
}
layer {
  name: "res3a_branch2b_relu"
  type: "ReLU"
  bottom: "res3a_branch2b"
  top: "res3a_branch2b"
}
layer {
  name: "res3a_branch2c"
  type: "Convolution"
  bottom: "res3a_branch2b"
  top: "res3a_branch2c"
  param {
    lr_mult: 1
  }
  convolution_param {
    num_output: 512
    bias_term: false
    pad: 0
    kernel_size: 1
    stride: 1
  }
}
layer {
  name: "bn3a_branch2c"
  type: "BatchNorm"
  bottom: "res3a_branch2c"
  top: "res3a_branch2c"
  param {
    lr_mult: 0
    decay_mult: 0
  }
  param {
    lr_mult: 0
    decay_mult: 0
  }
  param {
    lr_mult: 0
    decay_mult: 0
  }
  batch_norm_param {
    use_global_stats: true
  }
}
layer {
  name: "scale3a_branch2c"
  type: "Scale"
  bottom: "res3a_branch2c"
  top: "res3a_branch2c"
  param {
    lr_mult: 0
    decay_mult: 0
  }
  param {
    lr_mult: 0
    decay_mult: 0
  }
  scale_param {
    bias_term: true
  }
}
layer {
  name: "res3a"
  type: "Eltwise"
  bottom: "res3a_branch1"
  bottom: "res3a_branch2c"
  top: "res3a"
}
layer {
  name: "res3a_relu"
  type: "ReLU"
  bottom: "res3a"
  top: "res3a"
}
layer {
  name: "res3b1_branch2a"
  type: "Convolution"
  bottom: "res3a"
  top: "res3b1_branch2a"
  param {
    lr_mult: 1
  }
  convolution_param {
    num_output: 128
    bias_term: false
    pad: 0
    kernel_size: 1
    stride: 1
  }
}
layer {
  name: "bn3b1_branch2a"
  type: "BatchNorm"
  bottom: "res3b1_branch2a"
  top: "res3b1_branch2a"
  param {
    lr_mult: 0
    decay_mult: 0
  }
  param {
    lr_mult: 0
    decay_mult: 0
  }
  param {
    lr_mult: 0
    decay_mult: 0
  }
  batch_norm_param {
    use_global_stats: true
  }
}
layer {
  name: "scale3b1_branch2a"
  type: "Scale"
  bottom: "res3b1_branch2a"
  top: "res3b1_branch2a"
  param {
    lr_mult: 0
    decay_mult: 0
  }
  param {
    lr_mult: 0
    decay_mult: 0
  }
  scale_param {
    bias_term: true
  }
}
layer {
  name: "res3b1_branch2a_relu"
  type: "ReLU"
  bottom: "res3b1_branch2a"
  top: "res3b1_branch2a"
}
layer {
  name: "res3b1_branch2b"
  type: "Convolution"
  bottom: "res3b1_branch2a"
  top: "res3b1_branch2b"
  param {
    lr_mult: 1
  }
  convolution_param {
    num_output: 128
    bias_term: false
    pad: 1
    kernel_size: 3
    stride: 1
  }
}
layer {
  name: "bn3b1_branch2b"
  type: "BatchNorm"
  bottom: "res3b1_branch2b"
  top: "res3b1_branch2b"
  param {
    lr_mult: 0
    decay_mult: 0
  }
  param {
    lr_mult: 0
    decay_mult: 0
  }
  param {
    lr_mult: 0
    decay_mult: 0
  }
  batch_norm_param {
    use_global_stats: true
  }
}
layer {
  name: "scale3b1_branch2b"
  type: "Scale"
  bottom: "res3b1_branch2b"
  top: "res3b1_branch2b"
  param {
    lr_mult: 0
    decay_mult: 0
  }
  param {
    lr_mult: 0
    decay_mult: 0
  }
  scale_param {
    bias_term: true
  }
}
layer {
  name: "res3b1_branch2b_relu"
  type: "ReLU"
  bottom: "res3b1_branch2b"
  top: "res3b1_branch2b"
}
layer {
  name: "res3b1_branch2c"
  type: "Convolution"
  bottom: "res3b1_branch2b"
  top: "res3b1_branch2c"
  param {
    lr_mult: 1
  }
  convolution_param {
    num_output: 512
    bias_term: false
    pad: 0
    kernel_size: 1
    stride: 1
  }
}
layer {
  name: "bn3b1_branch2c"
  type: "BatchNorm"
  bottom: "res3b1_branch2c"
  top: "res3b1_branch2c"
  param {
    lr_mult: 0
    decay_mult: 0
  }
  param {
    lr_mult: 0
    decay_mult: 0
  }
  param {
    lr_mult: 0
    decay_mult: 0
  }
  batch_norm_param {
    use_global_stats: true
  }
}
layer {
  name: "scale3b1_branch2c"
  type: "Scale"
  bottom: "res3b1_branch2c"
  top: "res3b1_branch2c"
  param {
    lr_mult: 0
    decay_mult: 0
  }
  param {
    lr_mult: 0
    decay_mult: 0
  }
  scale_param {
    bias_term: true
  }
}
layer {
  name: "res3b1"
  type: "Eltwise"
  bottom: "res3a"
  bottom: "res3b1_branch2c"
  top: "res3b1"
}
layer {
  name: "res3b1_relu"
  type: "ReLU"
  bottom: "res3b1"
  top: "res3b1"
}
layer {
  name: "res3b2_branch2a"
  type: "Convolution"
  bottom: "res3b1"
  top: "res3b2_branch2a"
  param {
    lr_mult: 1
  }
  convolution_param {
    num_output: 128
    bias_term: false
    pad: 0
    kernel_size: 1
    stride: 1
  }
}
layer {
  name: "bn3b2_branch2a"
  type: "BatchNorm"
  bottom: "res3b2_branch2a"
  top: "res3b2_branch2a"
  param {
    lr_mult: 0
    decay_mult: 0
  }
  param {
    lr_mult: 0
    decay_mult: 0
  }
  param {
    lr_mult: 0
    decay_mult: 0
  }
  batch_norm_param {
    use_global_stats: true
  }
}
layer {
  name: "scale3b2_branch2a"
  type: "Scale"
  bottom: "res3b2_branch2a"
  top: "res3b2_branch2a"
  param {
    lr_mult: 0
    decay_mult: 0
  }
  param {
    lr_mult: 0
    decay_mult: 0
  }
  scale_param {
    bias_term: true
  }
}
layer {
  name: "res3b2_branch2a_relu"
  type: "ReLU"
  bottom: "res3b2_branch2a"
  top: "res3b2_branch2a"
}
layer {
  name: "res3b2_branch2b"
  type: "Convolution"
  bottom: "res3b2_branch2a"
  top: "res3b2_branch2b"
  param {
    lr_mult: 1
  }
  convolution_param {
    num_output: 128
    bias_term: false
    pad: 1
    kernel_size: 3
    stride: 1
  }
}
layer {
  name: "bn3b2_branch2b"
  type: "BatchNorm"
  bottom: "res3b2_branch2b"
  top: "res3b2_branch2b"
  param {
    lr_mult: 0
    decay_mult: 0
  }
  param {
    lr_mult: 0
    decay_mult: 0
  }
  param {
    lr_mult: 0
    decay_mult: 0
  }
  batch_norm_param {
    use_global_stats: true
  }
}
layer {
  name: "scale3b2_branch2b"
  type: "Scale"
  bottom: "res3b2_branch2b"
  top: "res3b2_branch2b"
  param {
    lr_mult: 0
    decay_mult: 0
  }
  param {
    lr_mult: 0
    decay_mult: 0
  }
  scale_param {
    bias_term: true
  }
}
layer {
  name: "res3b2_branch2b_relu"
  type: "ReLU"
  bottom: "res3b2_branch2b"
  top: "res3b2_branch2b"
}
layer {
  name: "res3b2_branch2c"
  type: "Convolution"
  bottom: "res3b2_branch2b"
  top: "res3b2_branch2c"
  param {
    lr_mult: 1
  }
  convolution_param {
    num_output: 512
    bias_term: false
    pad: 0
    kernel_size: 1
    stride: 1
  }
}
layer {
  name: "bn3b2_branch2c"
  type: "BatchNorm"
  bottom: "res3b2_branch2c"
  top: "res3b2_branch2c"
  param {
    lr_mult: 0
    decay_mult: 0
  }
  param {
    lr_mult: 0
    decay_mult: 0
  }
  param {
    lr_mult: 0
    decay_mult: 0
  }
  batch_norm_param {
    use_global_stats: true
  }
}
layer {
  name: "scale3b2_branch2c"
  type: "Scale"
  bottom: "res3b2_branch2c"
  top: "res3b2_branch2c"
  param {
    lr_mult: 0
    decay_mult: 0
  }
  param {
    lr_mult: 0
    decay_mult: 0
  }
  scale_param {
    bias_term: true
  }
}
layer {
  name: "res3b2"
  type: "Eltwise"
  bottom: "res3b1"
  bottom: "res3b2_branch2c"
  top: "res3b2"
}
layer {
  name: "res3b2_relu"
  type: "ReLU"
  bottom: "res3b2"
  top: "res3b2"
}
layer {
  name: "res3b3_branch2a"
  type: "Convolution"
  bottom: "res3b2"
  top: "res3b3_branch2a"
  param {
    lr_mult: 1
  }
  convolution_param {
    num_output: 128
    bias_term: false
    pad: 0
    kernel_size: 1
    stride: 1
  }
}
layer {
  name: "bn3b3_branch2a"
  type: "BatchNorm"
  bottom: "res3b3_branch2a"
  top: "res3b3_branch2a"
  param {
    lr_mult: 0
    decay_mult: 0
  }
  param {
    lr_mult: 0
    decay_mult: 0
  }
  param {
    lr_mult: 0
    decay_mult: 0
  }
  batch_norm_param {
    use_global_stats: true
  }
}
layer {
  name: "scale3b3_branch2a"
  type: "Scale"
  bottom: "res3b3_branch2a"
  top: "res3b3_branch2a"
  param {
    lr_mult: 0
    decay_mult: 0
  }
  param {
    lr_mult: 0
    decay_mult: 0
  }
  scale_param {
    bias_term: true
  }
}
layer {
  name: "res3b3_branch2a_relu"
  type: "ReLU"
  bottom: "res3b3_branch2a"
  top: "res3b3_branch2a"
}
layer {
  name: "res3b3_branch2b"
  type: "Convolution"
  bottom: "res3b3_branch2a"
  top: "res3b3_branch2b"
  param {
    lr_mult: 1
  }
  convolution_param {
    num_output: 128
    bias_term: false
    pad: 1
    kernel_size: 3
    stride: 1
  }
}
layer {
  name: "bn3b3_branch2b"
  type: "BatchNorm"
  bottom: "res3b3_branch2b"
  top: "res3b3_branch2b"
  param {
    lr_mult: 0
    decay_mult: 0
  }
  param {
    lr_mult: 0
    decay_mult: 0
  }
  param {
    lr_mult: 0
    decay_mult: 0
  }
  batch_norm_param {
    use_global_stats: true
  }
}
layer {
  name: "scale3b3_branch2b"
  type: "Scale"
  bottom: "res3b3_branch2b"
  top: "res3b3_branch2b"
  param {
    lr_mult: 0
    decay_mult: 0
  }
  param {
    lr_mult: 0
    decay_mult: 0
  }
  scale_param {
    bias_term: true
  }
}
layer {
  name: "res3b3_branch2b_relu"
  type: "ReLU"
  bottom: "res3b3_branch2b"
  top: "res3b3_branch2b"
}
layer {
  name: "res3b3_branch2c"
  type: "Convolution"
  bottom: "res3b3_branch2b"
  top: "res3b3_branch2c"
  param {
    lr_mult: 1
  }
  convolution_param {
    num_output: 512
    bias_term: false
    pad: 0
    kernel_size: 1
    stride: 1
  }
}
layer {
  name: "bn3b3_branch2c"
  type: "BatchNorm"
  bottom: "res3b3_branch2c"
  top: "res3b3_branch2c"
  param {
    lr_mult: 0
    decay_mult: 0
  }
  param {
    lr_mult: 0
    decay_mult: 0
  }
  param {
    lr_mult: 0
    decay_mult: 0
  }
  batch_norm_param {
    use_global_stats: true
  }
}
layer {
  name: "scale3b3_branch2c"
  type: "Scale"
  bottom: "res3b3_branch2c"
  top: "res3b3_branch2c"
  param {
    lr_mult: 0
    decay_mult: 0
  }
  param {
    lr_mult: 0
    decay_mult: 0
  }
  scale_param {
    bias_term: true
  }
}
layer {
  name: "res3b3"
  type: "Eltwise"
  bottom: "res3b2"
  bottom: "res3b3_branch2c"
  top: "res3b3"
}
layer {
  name: "res3b3_relu"
  type: "ReLU"
  bottom: "res3b3"
  top: "res3b3"
}
layer {
  name: "res4a_branch1"
  type: "Convolution"
  bottom: "res3b3"
  top: "res4a_branch1"
  param {
    lr_mult: 1
  }
  convolution_param {
    num_output: 1024
    bias_term: false
    pad: 0
    kernel_size: 1
    stride: 2
  }
}
layer {
  name: "bn4a_branch1"
  type: "BatchNorm"
  bottom: "res4a_branch1"
  top: "res4a_branch1"
  param {
    lr_mult: 0
    decay_mult: 0
  }
  param {
    lr_mult: 0
    decay_mult: 0
  }
  param {
    lr_mult: 0
    decay_mult: 0
  }
  batch_norm_param {
    use_global_stats: true
  }
}
layer {
  name: "scale4a_branch1"
  type: "Scale"
  bottom: "res4a_branch1"
  top: "res4a_branch1"
  param {
    lr_mult: 0
    decay_mult: 0
  }
  param {
    lr_mult: 0
    decay_mult: 0
  }
  scale_param {
    bias_term: true
  }
}
layer {
  name: "res4a_branch2a"
  type: "Convolution"
  bottom: "res3b3"
  top: "res4a_branch2a"
  param {
    lr_mult: 1
  }
  convolution_param {
    num_output: 256
    bias_term: false
    pad: 0
    kernel_size: 1
    stride: 2
  }
}
layer {
  name: "bn4a_branch2a"
  type: "BatchNorm"
  bottom: "res4a_branch2a"
  top: "res4a_branch2a"
  param {
    lr_mult: 0
    decay_mult: 0
  }
  param {
    lr_mult: 0
    decay_mult: 0
  }
  param {
    lr_mult: 0
    decay_mult: 0
  }
  batch_norm_param {
    use_global_stats: true
  }
}
layer {
  name: "scale4a_branch2a"
  type: "Scale"
  bottom: "res4a_branch2a"
  top: "res4a_branch2a"
  param {
    lr_mult: 0
    decay_mult: 0
  }
  param {
    lr_mult: 0
    decay_mult: 0
  }
  scale_param {
    bias_term: true
  }
}
layer {
  name: "res4a_branch2a_relu"
  type: "ReLU"
  bottom: "res4a_branch2a"
  top: "res4a_branch2a"
}
layer {
  name: "res4a_branch2b"
  type: "Convolution"
  bottom: "res4a_branch2a"
  top: "res4a_branch2b"
  param {
    lr_mult: 1
  }
  convolution_param {
    num_output: 256
    bias_term: false
    pad: 1
    kernel_size: 3
    stride: 1
  }
}
layer {
  name: "bn4a_branch2b"
  type: "BatchNorm"
  bottom: "res4a_branch2b"
  top: "res4a_branch2b"
  param {
    lr_mult: 0
    decay_mult: 0
  }
  param {
    lr_mult: 0
    decay_mult: 0
  }
  param {
    lr_mult: 0
    decay_mult: 0
  }
  batch_norm_param {
    use_global_stats: true
  }
}
layer {
  name: "scale4a_branch2b"
  type: "Scale"
  bottom: "res4a_branch2b"
  top: "res4a_branch2b"
  param {
    lr_mult: 0
    decay_mult: 0
  }
  param {
    lr_mult: 0
    decay_mult: 0
  }
  scale_param {
    bias_term: true
  }
}
layer {
  name: "res4a_branch2b_relu"
  type: "ReLU"
  bottom: "res4a_branch2b"
  top: "res4a_branch2b"
}
layer {
  name: "res4a_branch2c"
  type: "Convolution"
  bottom: "res4a_branch2b"
  top: "res4a_branch2c"
  param {
    lr_mult: 1
  }
  convolution_param {
    num_output: 1024
    bias_term: false
    pad: 0
    kernel_size: 1
    stride: 1
  }
}
layer {
  name: "bn4a_branch2c"
  type: "BatchNorm"
  bottom: "res4a_branch2c"
  top: "res4a_branch2c"
  param {
    lr_mult: 0
    decay_mult: 0
  }
  param {
    lr_mult: 0
    decay_mult: 0
  }
  param {
    lr_mult: 0
    decay_mult: 0
  }
  batch_norm_param {
    use_global_stats: true
  }
}
layer {
  name: "scale4a_branch2c"
  type: "Scale"
  bottom: "res4a_branch2c"
  top: "res4a_branch2c"
  param {
    lr_mult: 0
    decay_mult: 0
  }
  param {
    lr_mult: 0
    decay_mult: 0
  }
  scale_param {
    bias_term: true
  }
}
layer {
  name: "res4a"
  type: "Eltwise"
  bottom: "res4a_branch1"
  bottom: "res4a_branch2c"
  top: "res4a"
}
layer {
  name: "res4a_relu"
  type: "ReLU"
  bottom: "res4a"
  top: "res4a"
}
layer {
  name: "res4b1_branch2a"
  type: "Convolution"
  bottom: "res4a"
  top: "res4b1_branch2a"
  param {
    lr_mult: 1
  }
  convolution_param {
    num_output: 256
    bias_term: false
    pad: 0
    kernel_size: 1
    stride: 1
  }
}
layer {
  name: "bn4b1_branch2a"
  type: "BatchNorm"
  bottom: "res4b1_branch2a"
  top: "res4b1_branch2a"
  param {
    lr_mult: 0
    decay_mult: 0
  }
  param {
    lr_mult: 0
    decay_mult: 0
  }
  param {
    lr_mult: 0
    decay_mult: 0
  }
  batch_norm_param {
    use_global_stats: true
  }
}
layer {
  name: "scale4b1_branch2a"
  type: "Scale"
  bottom: "res4b1_branch2a"
  top: "res4b1_branch2a"
  param {
    lr_mult: 0
    decay_mult: 0
  }
  param {
    lr_mult: 0
    decay_mult: 0
  }
  scale_param {
    bias_term: true
  }
}
layer {
  name: "res4b1_branch2a_relu"
  type: "ReLU"
  bottom: "res4b1_branch2a"
  top: "res4b1_branch2a"
}
layer {
  name: "res4b1_branch2b"
  type: "Convolution"
  bottom: "res4b1_branch2a"
  top: "res4b1_branch2b"
  param {
    lr_mult: 1
  }
  convolution_param {
    num_output: 256
    bias_term: false
    pad: 1
    kernel_size: 3
    stride: 1
  }
}
layer {
  name: "bn4b1_branch2b"
  type: "BatchNorm"
  bottom: "res4b1_branch2b"
  top: "res4b1_branch2b"
  param {
    lr_mult: 0
    decay_mult: 0
  }
  param {
    lr_mult: 0
    decay_mult: 0
  }
  param {
    lr_mult: 0
    decay_mult: 0
  }
  batch_norm_param {
    use_global_stats: true
  }
}
layer {
  name: "scale4b1_branch2b"
  type: "Scale"
  bottom: "res4b1_branch2b"
  top: "res4b1_branch2b"
  param {
    lr_mult: 0
    decay_mult: 0
  }
  param {
    lr_mult: 0
    decay_mult: 0
  }
  scale_param {
    bias_term: true
  }
}
layer {
  name: "res4b1_branch2b_relu"
  type: "ReLU"
  bottom: "res4b1_branch2b"
  top: "res4b1_branch2b"
}
layer {
  name: "res4b1_branch2c"
  type: "Convolution"
  bottom: "res4b1_branch2b"
  top: "res4b1_branch2c"
  param {
    lr_mult: 1
  }
  convolution_param {
    num_output: 1024
    bias_term: false
    pad: 0
    kernel_size: 1
    stride: 1
  }
}
layer {
  name: "bn4b1_branch2c"
  type: "BatchNorm"
  bottom: "res4b1_branch2c"
  top: "res4b1_branch2c"
  param {
    lr_mult: 0
    decay_mult: 0
  }
  param {
    lr_mult: 0
    decay_mult: 0
  }
  param {
    lr_mult: 0
    decay_mult: 0
  }
  batch_norm_param {
    use_global_stats: true
  }
}
layer {
  name: "scale4b1_branch2c"
  type: "Scale"
  bottom: "res4b1_branch2c"
  top: "res4b1_branch2c"
  param {
    lr_mult: 0
    decay_mult: 0
  }
  param {
    lr_mult: 0
    decay_mult: 0
  }
  scale_param {
    bias_term: true
  }
}
layer {
  name: "res4b1"
  type: "Eltwise"
  bottom: "res4a"
  bottom: "res4b1_branch2c"
  top: "res4b1"
}
layer {
  name: "res4b1_relu"
  type: "ReLU"
  bottom: "res4b1"
  top: "res4b1"
}
layer {
  name: "res4b2_branch2a"
  type: "Convolution"
  bottom: "res4b1"
  top: "res4b2_branch2a"
  param {
    lr_mult: 1
  }
  convolution_param {
    num_output: 256
    bias_term: false
    pad: 0
    kernel_size: 1
    stride: 1
  }
}
layer {
  name: "bn4b2_branch2a"
  type: "BatchNorm"
  bottom: "res4b2_branch2a"
  top: "res4b2_branch2a"
  param {
    lr_mult: 0
    decay_mult: 0
  }
  param {
    lr_mult: 0
    decay_mult: 0
  }
  param {
    lr_mult: 0
    decay_mult: 0
  }
  batch_norm_param {
    use_global_stats: true
  }
}
layer {
  name: "scale4b2_branch2a"
  type: "Scale"
  bottom: "res4b2_branch2a"
  top: "res4b2_branch2a"
  param {
    lr_mult: 0
    decay_mult: 0
  }
  param {
    lr_mult: 0
    decay_mult: 0
  }
  scale_param {
    bias_term: true
  }
}
layer {
  name: "res4b2_branch2a_relu"
  type: "ReLU"
  bottom: "res4b2_branch2a"
  top: "res4b2_branch2a"
}
layer {
  name: "res4b2_branch2b"
  type: "Convolution"
  bottom: "res4b2_branch2a"
  top: "res4b2_branch2b"
  param {
    lr_mult: 1
  }
  convolution_param {
    num_output: 256
    bias_term: false
    pad: 1
    kernel_size: 3
    stride: 1
  }
}
layer {
  name: "bn4b2_branch2b"
  type: "BatchNorm"
  bottom: "res4b2_branch2b"
  top: "res4b2_branch2b"
  param {
    lr_mult: 0
    decay_mult: 0
  }
  param {
    lr_mult: 0
    decay_mult: 0
  }
  param {
    lr_mult: 0
    decay_mult: 0
  }
  batch_norm_param {
    use_global_stats: true
  }
}
layer {
  name: "scale4b2_branch2b"
  type: "Scale"
  bottom: "res4b2_branch2b"
  top: "res4b2_branch2b"
  param {
    lr_mult: 0
    decay_mult: 0
  }
  par
I0821 12:31:33.786103 14629 layer_factory.hpp:77] Creating layer input
I0821 12:31:33.786121 14629 net.cpp:100] Creating Layer input
I0821 12:31:33.786128 14629 net.cpp:418] input -> data
I0821 12:31:33.786147 14629 net.cpp:418] input -> im_info
I0821 12:31:35.293463 14629 net.cpp:150] Setting up input
I0821 12:31:35.293570 14629 net.cpp:157] Top shape: 1 3 224 224 (150528)
I0821 12:31:35.293579 14629 net.cpp:157] Top shape: 1 3 (3)
I0821 12:31:35.293583 14629 net.cpp:165] Memory required for data: 602124
I0821 12:31:35.293594 14629 layer_factory.hpp:77] Creating layer conv1
I0821 12:31:35.293615 14629 net.cpp:100] Creating Layer conv1
I0821 12:31:35.293623 14629 net.cpp:444] conv1 <- data
I0821 12:31:35.293637 14629 net.cpp:418] conv1 -> conv1
I0821 12:31:35.617908 14629 net.cpp:150] Setting up conv1
I0821 12:31:35.617975 14629 net.cpp:157] Top shape: 1 64 112 112 (802816)
I0821 12:31:35.617981 14629 net.cpp:165] Memory required for data: 3813388
I0821 12:31:35.618000 14629 layer_factory.hpp:77] Creating layer bn_conv1
I0821 12:31:35.618018 14629 net.cpp:100] Creating Layer bn_conv1
I0821 12:31:35.618026 14629 net.cpp:444] bn_conv1 <- conv1
I0821 12:31:35.618033 14629 net.cpp:405] bn_conv1 -> conv1 (in-place)
I0821 12:31:35.618266 14629 net.cpp:150] Setting up bn_conv1
I0821 12:31:35.618276 14629 net.cpp:157] Top shape: 1 64 112 112 (802816)
I0821 12:31:35.618281 14629 net.cpp:165] Memory required for data: 7024652
I0821 12:31:35.618294 14629 layer_factory.hpp:77] Creating layer scale_conv1
I0821 12:31:35.618315 14629 net.cpp:100] Creating Layer scale_conv1
I0821 12:31:35.618320 14629 net.cpp:444] scale_conv1 <- conv1
I0821 12:31:35.618337 14629 net.cpp:405] scale_conv1 -> conv1 (in-place)
I0821 12:31:35.618384 14629 layer_factory.hpp:77] Creating layer scale_conv1
I0821 12:31:35.618530 14629 net.cpp:150] Setting up scale_conv1
I0821 12:31:35.618540 14629 net.cpp:157] Top shape: 1 64 112 112 (802816)
I0821 12:31:35.618543 14629 net.cpp:165] Memory required for data: 10235916
I0821 12:31:35.618552 14629 layer_factory.hpp:77] Creating layer conv1_relu
I0821 12:31:35.618562 14629 net.cpp:100] Creating Layer conv1_relu
I0821 12:31:35.618566 14629 net.cpp:444] conv1_relu <- conv1
I0821 12:31:35.618571 14629 net.cpp:405] conv1_relu -> conv1 (in-place)
I0821 12:31:35.618806 14629 net.cpp:150] Setting up conv1_relu
I0821 12:31:35.618819 14629 net.cpp:157] Top shape: 1 64 112 112 (802816)
I0821 12:31:35.618824 14629 net.cpp:165] Memory required for data: 13447180
I0821 12:31:35.618829 14629 layer_factory.hpp:77] Creating layer pool1
I0821 12:31:35.618837 14629 net.cpp:100] Creating Layer pool1
I0821 12:31:35.618842 14629 net.cpp:444] pool1 <- conv1
I0821 12:31:35.618849 14629 net.cpp:418] pool1 -> pool1
I0821 12:31:35.618897 14629 net.cpp:150] Setting up pool1
I0821 12:31:35.618906 14629 net.cpp:157] Top shape: 1 64 56 56 (200704)
I0821 12:31:35.618911 14629 net.cpp:165] Memory required for data: 14249996
I0821 12:31:35.618914 14629 layer_factory.hpp:77] Creating layer pool1_pool1_0_split
I0821 12:31:35.618924 14629 net.cpp:100] Creating Layer pool1_pool1_0_split
I0821 12:31:35.618929 14629 net.cpp:444] pool1_pool1_0_split <- pool1
I0821 12:31:35.618935 14629 net.cpp:418] pool1_pool1_0_split -> pool1_pool1_0_split_0
I0821 12:31:35.618944 14629 net.cpp:418] pool1_pool1_0_split -> pool1_pool1_0_split_1
I0821 12:31:35.618981 14629 net.cpp:150] Setting up pool1_pool1_0_split
I0821 12:31:35.618988 14629 net.cpp:157] Top shape: 1 64 56 56 (200704)
I0821 12:31:35.619004 14629 net.cpp:157] Top shape: 1 64 56 56 (200704)
I0821 12:31:35.619009 14629 net.cpp:165] Memory required for data: 15855628
I0821 12:31:35.619012 14629 layer_factory.hpp:77] Creating layer res2a_branch1
I0821 12:31:35.619024 14629 net.cpp:100] Creating Layer res2a_branch1
I0821 12:31:35.619027 14629 net.cpp:444] res2a_branch1 <- pool1_pool1_0_split_0
I0821 12:31:35.619035 14629 net.cpp:418] res2a_branch1 -> res2a_branch1
I0821 12:31:35.620579 14629 net.cpp:150] Setting up res2a_branch1
I0821 12:31:35.620599 14629 net.cpp:157] Top shape: 1 256 56 56 (802816)
I0821 12:31:35.620605 14629 net.cpp:165] Memory required for data: 19066892
I0821 12:31:35.620615 14629 layer_factory.hpp:77] Creating layer bn2a_branch1
I0821 12:31:35.620626 14629 net.cpp:100] Creating Layer bn2a_branch1
I0821 12:31:35.620632 14629 net.cpp:444] bn2a_branch1 <- res2a_branch1
I0821 12:31:35.620640 14629 net.cpp:405] bn2a_branch1 -> res2a_branch1 (in-place)
I0821 12:31:35.621649 14629 net.cpp:150] Setting up bn2a_branch1
I0821 12:31:35.621665 14629 net.cpp:157] Top shape: 1 256 56 56 (802816)
I0821 12:31:35.621670 14629 net.cpp:165] Memory required for data: 22278156
I0821 12:31:35.621682 14629 layer_factory.hpp:77] Creating layer scale2a_branch1
I0821 12:31:35.621691 14629 net.cpp:100] Creating Layer scale2a_branch1
I0821 12:31:35.621695 14629 net.cpp:444] scale2a_branch1 <- res2a_branch1
I0821 12:31:35.621704 14629 net.cpp:405] scale2a_branch1 -> res2a_branch1 (in-place)
I0821 12:31:35.621764 14629 layer_factory.hpp:77] Creating layer scale2a_branch1
I0821 12:31:35.621896 14629 net.cpp:150] Setting up scale2a_branch1
I0821 12:31:35.621904 14629 net.cpp:157] Top shape: 1 256 56 56 (802816)
I0821 12:31:35.621908 14629 net.cpp:165] Memory required for data: 25489420
I0821 12:31:35.621915 14629 layer_factory.hpp:77] Creating layer res2a_branch2a
I0821 12:31:35.621928 14629 net.cpp:100] Creating Layer res2a_branch2a
I0821 12:31:35.621933 14629 net.cpp:444] res2a_branch2a <- pool1_pool1_0_split_1
I0821 12:31:35.621942 14629 net.cpp:418] res2a_branch2a -> res2a_branch2a
I0821 12:31:35.623273 14629 net.cpp:150] Setting up res2a_branch2a
I0821 12:31:35.623292 14629 net.cpp:157] Top shape: 1 64 56 56 (200704)
I0821 12:31:35.623303 14629 net.cpp:165] Memory required for data: 26292236
I0821 12:31:35.623311 14629 layer_factory.hpp:77] Creating layer bn2a_branch2a
I0821 12:31:35.623320 14629 net.cpp:100] Creating Layer bn2a_branch2a
I0821 12:31:35.623325 14629 net.cpp:444] bn2a_branch2a <- res2a_branch2a
I0821 12:31:35.623334 14629 net.cpp:405] bn2a_branch2a -> res2a_branch2a (in-place)
I0821 12:31:35.623544 14629 net.cpp:150] Setting up bn2a_branch2a
I0821 12:31:35.623554 14629 net.cpp:157] Top shape: 1 64 56 56 (200704)
I0821 12:31:35.623558 14629 net.cpp:165] Memory required for data: 27095052
I0821 12:31:35.623567 14629 layer_factory.hpp:77] Creating layer scale2a_branch2a
I0821 12:31:35.623574 14629 net.cpp:100] Creating Layer scale2a_branch2a
I0821 12:31:35.623579 14629 net.cpp:444] scale2a_branch2a <- res2a_branch2a
I0821 12:31:35.623598 14629 net.cpp:405] scale2a_branch2a -> res2a_branch2a (in-place)
I0821 12:31:35.623641 14629 layer_factory.hpp:77] Creating layer scale2a_branch2a
I0821 12:31:35.623764 14629 net.cpp:150] Setting up scale2a_branch2a
I0821 12:31:35.623782 14629 net.cpp:157] Top shape: 1 64 56 56 (200704)
I0821 12:31:35.623787 14629 net.cpp:165] Memory required for data: 27897868
I0821 12:31:35.623798 14629 layer_factory.hpp:77] Creating layer res2a_branch2a_relu
I0821 12:31:35.623807 14629 net.cpp:100] Creating Layer res2a_branch2a_relu
I0821 12:31:35.623812 14629 net.cpp:444] res2a_branch2a_relu <- res2a_branch2a
I0821 12:31:35.623817 14629 net.cpp:405] res2a_branch2a_relu -> res2a_branch2a (in-place)
I0821 12:31:35.624061 14629 net.cpp:150] Setting up res2a_branch2a_relu
I0821 12:31:35.624073 14629 net.cpp:157] Top shape: 1 64 56 56 (200704)
I0821 12:31:35.624078 14629 net.cpp:165] Memory required for data: 28700684
I0821 12:31:35.624083 14629 layer_factory.hpp:77] Creating layer res2a_branch2b
I0821 12:31:35.624094 14629 net.cpp:100] Creating Layer res2a_branch2b
I0821 12:31:35.624099 14629 net.cpp:444] res2a_branch2b <- res2a_branch2a
I0821 12:31:35.624119 14629 net.cpp:418] res2a_branch2b -> res2a_branch2b
I0821 12:31:35.626490 14629 net.cpp:150] Setting up res2a_branch2b
I0821 12:31:35.626509 14629 net.cpp:157] Top shape: 1 64 56 56 (200704)
I0821 12:31:35.626514 14629 net.cpp:165] Memory required for data: 29503500
I0821 12:31:35.626523 14629 layer_factory.hpp:77] Creating layer bn2a_branch2b
I0821 12:31:35.626531 14629 net.cpp:100] Creating Layer bn2a_branch2b
I0821 12:31:35.626536 14629 net.cpp:444] bn2a_branch2b <- res2a_branch2b
I0821 12:31:35.626545 14629 net.cpp:405] bn2a_branch2b -> res2a_branch2b (in-place)
I0821 12:31:35.626760 14629 net.cpp:150] Setting up bn2a_branch2b
I0821 12:31:35.626770 14629 net.cpp:157] Top shape: 1 64 56 56 (200704)
I0821 12:31:35.626775 14629 net.cpp:165] Memory required for data: 30306316
I0821 12:31:35.626782 14629 layer_factory.hpp:77] Creating layer scale2a_branch2b
I0821 12:31:35.626793 14629 net.cpp:100] Creating Layer scale2a_branch2b
I0821 12:31:35.626798 14629 net.cpp:444] scale2a_branch2b <- res2a_branch2b
I0821 12:31:35.626806 14629 net.cpp:405] scale2a_branch2b -> res2a_branch2b (in-place)
I0821 12:31:35.626852 14629 layer_factory.hpp:77] Creating layer scale2a_branch2b
I0821 12:31:35.627004 14629 net.cpp:150] Setting up scale2a_branch2b
I0821 12:31:35.627027 14629 net.cpp:157] Top shape: 1 64 56 56 (200704)
I0821 12:31:35.627030 14629 net.cpp:165] Memory required for data: 31109132
I0821 12:31:35.627038 14629 layer_factory.hpp:77] Creating layer res2a_branch2b_relu
I0821 12:31:35.627046 14629 net.cpp:100] Creating Layer res2a_branch2b_relu
I0821 12:31:35.627050 14629 net.cpp:444] res2a_branch2b_relu <- res2a_branch2b
I0821 12:31:35.627056 14629 net.cpp:405] res2a_branch2b_relu -> res2a_branch2b (in-place)
I0821 12:31:35.627509 14629 net.cpp:150] Setting up res2a_branch2b_relu
I0821 12:31:35.627524 14629 net.cpp:157] Top shape: 1 64 56 56 (200704)
I0821 12:31:35.627528 14629 net.cpp:165] Memory required for data: 31911948
I0821 12:31:35.627535 14629 layer_factory.hpp:77] Creating layer res2a_branch2c
I0821 12:31:35.627547 14629 net.cpp:100] Creating Layer res2a_branch2c
I0821 12:31:35.627562 14629 net.cpp:444] res2a_branch2c <- res2a_branch2b
I0821 12:31:35.627569 14629 net.cpp:418] res2a_branch2c -> res2a_branch2c
I0821 12:31:35.628983 14629 net.cpp:150] Setting up res2a_branch2c
I0821 12:31:35.629000 14629 net.cpp:157] Top shape: 1 256 56 56 (802816)
I0821 12:31:35.629004 14629 net.cpp:165] Memory required for data: 35123212
I0821 12:31:35.629011 14629 layer_factory.hpp:77] Creating layer bn2a_branch2c
I0821 12:31:35.629022 14629 net.cpp:100] Creating Layer bn2a_branch2c
I0821 12:31:35.629027 14629 net.cpp:444] bn2a_branch2c <- res2a_branch2c
I0821 12:31:35.629035 14629 net.cpp:405] bn2a_branch2c -> res2a_branch2c (in-place)
I0821 12:31:35.629257 14629 net.cpp:150] Setting up bn2a_branch2c
I0821 12:31:35.629266 14629 net.cpp:157] Top shape: 1 256 56 56 (802816)
I0821 12:31:35.629271 14629 net.cpp:165] Memory required for data: 38334476
I0821 12:31:35.629278 14629 layer_factory.hpp:77] Creating layer scale2a_branch2c
I0821 12:31:35.629297 14629 net.cpp:100] Creating Layer scale2a_branch2c
I0821 12:31:35.629308 14629 net.cpp:444] scale2a_branch2c <- res2a_branch2c
I0821 12:31:35.629318 14629 net.cpp:405] scale2a_branch2c -> res2a_branch2c (in-place)
I0821 12:31:35.629367 14629 layer_factory.hpp:77] Creating layer scale2a_branch2c
I0821 12:31:35.629490 14629 net.cpp:150] Setting up scale2a_branch2c
I0821 12:31:35.629499 14629 net.cpp:157] Top shape: 1 256 56 56 (802816)
I0821 12:31:35.629503 14629 net.cpp:165] Memory required for data: 41545740
I0821 12:31:35.629510 14629 layer_factory.hpp:77] Creating layer res2a
I0821 12:31:35.629519 14629 net.cpp:100] Creating Layer res2a
I0821 12:31:35.629524 14629 net.cpp:444] res2a <- res2a_branch1
I0821 12:31:35.629529 14629 net.cpp:444] res2a <- res2a_branch2c
I0821 12:31:35.629535 14629 net.cpp:418] res2a -> res2a
I0821 12:31:35.629565 14629 net.cpp:150] Setting up res2a
I0821 12:31:35.629576 14629 net.cpp:157] Top shape: 1 256 56 56 (802816)
I0821 12:31:35.629580 14629 net.cpp:165] Memory required for data: 44757004
I0821 12:31:35.629586 14629 layer_factory.hpp:77] Creating layer res2a_relu
I0821 12:31:35.629595 14629 net.cpp:100] Creating Layer res2a_relu
I0821 12:31:35.629600 14629 net.cpp:444] res2a_relu <- res2a
I0821 12:31:35.629604 14629 net.cpp:405] res2a_relu -> res2a (in-place)
I0821 12:31:35.629832 14629 net.cpp:150] Setting up res2a_relu
I0821 12:31:35.629843 14629 net.cpp:157] Top shape: 1 256 56 56 (802816)
I0821 12:31:35.629848 14629 net.cpp:165] Memory required for data: 47968268
I0821 12:31:35.629853 14629 layer_factory.hpp:77] Creating layer res2a_res2a_relu_0_split
I0821 12:31:35.629861 14629 net.cpp:100] Creating Layer res2a_res2a_relu_0_split
I0821 12:31:35.629866 14629 net.cpp:444] res2a_res2a_relu_0_split <- res2a
I0821 12:31:35.629873 14629 net.cpp:418] res2a_res2a_relu_0_split -> res2a_res2a_relu_0_split_0
I0821 12:31:35.629881 14629 net.cpp:418] res2a_res2a_relu_0_split -> res2a_res2a_relu_0_split_1
I0821 12:31:35.629930 14629 net.cpp:150] Setting up res2a_res2a_relu_0_split
I0821 12:31:35.629937 14629 net.cpp:157] Top shape: 1 256 56 56 (802816)
I0821 12:31:35.629942 14629 net.cpp:157] Top shape: 1 256 56 56 (802816)
I0821 12:31:35.629946 14629 net.cpp:165] Memory required for data: 54390796
I0821 12:31:35.629951 14629 layer_factory.hpp:77] Creating layer res2b_branch2a
I0821 12:31:35.629961 14629 net.cpp:100] Creating Layer res2b_branch2a
I0821 12:31:35.629966 14629 net.cpp:444] res2b_branch2a <- res2a_res2a_relu_0_split_0
I0821 12:31:35.629977 14629 net.cpp:418] res2b_branch2a -> res2b_branch2a
I0821 12:31:35.631546 14629 net.cpp:150] Setting up res2b_branch2a
I0821 12:31:35.631563 14629 net.cpp:157] Top shape: 1 64 56 56 (200704)
I0821 12:31:35.631568 14629 net.cpp:165] Memory required for data: 55193612
I0821 12:31:35.631575 14629 layer_factory.hpp:77] Creating layer bn2b_branch2a
I0821 12:31:35.631585 14629 net.cpp:100] Creating Layer bn2b_branch2a
I0821 12:31:35.631589 14629 net.cpp:444] bn2b_branch2a <- res2b_branch2a
I0821 12:31:35.631598 14629 net.cpp:405] bn2b_branch2a -> res2b_branch2a (in-place)
I0821 12:31:35.631819 14629 net.cpp:150] Setting up bn2b_branch2a
I0821 12:31:35.631829 14629 net.cpp:157] Top shape: 1 64 56 56 (200704)
I0821 12:31:35.631834 14629 net.cpp:165] Memory required for data: 55996428
I0821 12:31:35.631846 14629 layer_factory.hpp:77] Creating layer scale2b_branch2a
I0821 12:31:35.631855 14629 net.cpp:100] Creating Layer scale2b_branch2a
I0821 12:31:35.631860 14629 net.cpp:444] scale2b_branch2a <- res2b_branch2a
I0821 12:31:35.631865 14629 net.cpp:405] scale2b_branch2a -> res2b_branch2a (in-place)
I0821 12:31:35.631912 14629 layer_factory.hpp:77] Creating layer scale2b_branch2a
I0821 12:31:35.632041 14629 net.cpp:150] Setting up scale2b_branch2a
I0821 12:31:35.632050 14629 net.cpp:157] Top shape: 1 64 56 56 (200704)
I0821 12:31:35.632055 14629 net.cpp:165] Memory required for data: 56799244
I0821 12:31:35.632061 14629 layer_factory.hpp:77] Creating layer res2b_branch2a_relu
I0821 12:31:35.632068 14629 net.cpp:100] Creating Layer res2b_branch2a_relu
I0821 12:31:35.632072 14629 net.cpp:444] res2b_branch2a_relu <- res2b_branch2a
I0821 12:31:35.632081 14629 net.cpp:405] res2b_branch2a_relu -> res2b_branch2a (in-place)
I0821 12:31:35.632323 14629 net.cpp:150] Setting up res2b_branch2a_relu
I0821 12:31:35.632335 14629 net.cpp:157] Top shape: 1 64 56 56 (200704)
I0821 12:31:35.632339 14629 net.cpp:165] Memory required for data: 57602060
I0821 12:31:35.632344 14629 layer_factory.hpp:77] Creating layer res2b_branch2b
I0821 12:31:35.632354 14629 net.cpp:100] Creating Layer res2b_branch2b
I0821 12:31:35.632359 14629 net.cpp:444] res2b_branch2b <- res2b_branch2a
I0821 12:31:35.632365 14629 net.cpp:418] res2b_branch2b -> res2b_branch2b
I0821 12:31:35.634084 14629 net.cpp:150] Setting up res2b_branch2b
I0821 12:31:35.634102 14629 net.cpp:157] Top shape: 1 64 56 56 (200704)
I0821 12:31:35.634107 14629 net.cpp:165] Memory required for data: 58404876
I0821 12:31:35.634116 14629 layer_factory.hpp:77] Creating layer bn2b_branch2b
I0821 12:31:35.634127 14629 net.cpp:100] Creating Layer bn2b_branch2b
I0821 12:31:35.634132 14629 net.cpp:444] bn2b_branch2b <- res2b_branch2b
I0821 12:31:35.634141 14629 net.cpp:405] bn2b_branch2b -> res2b_branch2b (in-place)
I0821 12:31:35.634380 14629 net.cpp:150] Setting up bn2b_branch2b
I0821 12:31:35.634390 14629 net.cpp:157] Top shape: 1 64 56 56 (200704)
I0821 12:31:35.634395 14629 net.cpp:165] Memory required for data: 59207692
I0821 12:31:35.634403 14629 layer_factory.hpp:77] Creating layer scale2b_branch2b
I0821 12:31:35.634411 14629 net.cpp:100] Creating Layer scale2b_branch2b
I0821 12:31:35.634416 14629 net.cpp:444] scale2b_branch2b <- res2b_branch2b
I0821 12:31:35.634424 14629 net.cpp:405] scale2b_branch2b -> res2b_branch2b (in-place)
I0821 12:31:35.634470 14629 layer_factory.hpp:77] Creating layer scale2b_branch2b
I0821 12:31:35.634600 14629 net.cpp:150] Setting up scale2b_branch2b
I0821 12:31:35.634609 14629 net.cpp:157] Top shape: 1 64 56 56 (200704)
I0821 12:31:35.634614 14629 net.cpp:165] Memory required for data: 60010508
I0821 12:31:35.634620 14629 layer_factory.hpp:77] Creating layer res2b_branch2b_relu
I0821 12:31:35.634629 14629 net.cpp:100] Creating Layer res2b_branch2b_relu
I0821 12:31:35.634634 14629 net.cpp:444] res2b_branch2b_relu <- res2b_branch2b
I0821 12:31:35.634640 14629 net.cpp:405] res2b_branch2b_relu -> res2b_branch2b (in-place)
I0821 12:31:35.635097 14629 net.cpp:150] Setting up res2b_branch2b_relu
I0821 12:31:35.635112 14629 net.cpp:157] Top shape: 1 64 56 56 (200704)
I0821 12:31:35.635115 14629 net.cpp:165] Memory required for data: 60813324
I0821 12:31:35.635121 14629 layer_factory.hpp:77] Creating layer res2b_branch2c
I0821 12:31:35.635136 14629 net.cpp:100] Creating Layer res2b_branch2c
I0821 12:31:35.635143 14629 net.cpp:444] res2b_branch2c <- res2b_branch2b
I0821 12:31:35.635149 14629 net.cpp:418] res2b_branch2c -> res2b_branch2c
I0821 12:31:35.636754 14629 net.cpp:150] Setting up res2b_branch2c
I0821 12:31:35.636772 14629 net.cpp:157] Top shape: 1 256 56 56 (802816)
I0821 12:31:35.636777 14629 net.cpp:165] Memory required for data: 64024588
I0821 12:31:35.636790 14629 layer_factory.hpp:77] Creating layer bn2b_branch2c
I0821 12:31:35.636798 14629 net.cpp:100] Creating Layer bn2b_branch2c
I0821 12:31:35.636803 14629 net.cpp:444] bn2b_branch2c <- res2b_branch2c
I0821 12:31:35.636812 14629 net.cpp:405] bn2b_branch2c -> res2b_branch2c (in-place)
I0821 12:31:35.637015 14629 net.cpp:150] Setting up bn2b_branch2c
I0821 12:31:35.637024 14629 net.cpp:157] Top shape: 1 256 56 56 (802816)
I0821 12:31:35.637028 14629 net.cpp:165] Memory required for data: 67235852
I0821 12:31:35.637037 14629 layer_factory.hpp:77] Creating layer scale2b_branch2c
I0821 12:31:35.637044 14629 net.cpp:100] Creating Layer scale2b_branch2c
I0821 12:31:35.637049 14629 net.cpp:444] scale2b_branch2c <- res2b_branch2c
I0821 12:31:35.637058 14629 net.cpp:405] scale2b_branch2c -> res2b_branch2c (in-place)
I0821 12:31:35.637097 14629 layer_factory.hpp:77] Creating layer scale2b_branch2c
I0821 12:31:35.637224 14629 net.cpp:150] Setting up scale2b_branch2c
I0821 12:31:35.637236 14629 net.cpp:157] Top shape: 1 256 56 56 (802816)
I0821 12:31:35.637241 14629 net.cpp:165] Memory required for data: 70447116
I0821 12:31:35.637248 14629 layer_factory.hpp:77] Creating layer res2b
I0821 12:31:35.637254 14629 net.cpp:100] Creating Layer res2b
I0821 12:31:35.637259 14629 net.cpp:444] res2b <- res2a_res2a_relu_0_split_1
I0821 12:31:35.637264 14629 net.cpp:444] res2b <- res2b_branch2c
I0821 12:31:35.637281 14629 net.cpp:418] res2b -> res2b
I0821 12:31:35.637343 14629 net.cpp:150] Setting up res2b
I0821 12:31:35.637356 14629 net.cpp:157] Top shape: 1 256 56 56 (802816)
I0821 12:31:35.637361 14629 net.cpp:165] Memory required for data: 73658380
I0821 12:31:35.637367 14629 layer_factory.hpp:77] Creating layer res2b_relu
I0821 12:31:35.637372 14629 net.cpp:100] Creating Layer res2b_relu
I0821 12:31:35.637377 14629 net.cpp:444] res2b_relu <- res2b
I0821 12:31:35.637394 14629 net.cpp:405] res2b_relu -> res2b (in-place)
I0821 12:31:35.637636 14629 net.cpp:150] Setting up res2b_relu
I0821 12:31:35.637650 14629 net.cpp:157] Top shape: 1 256 56 56 (802816)
I0821 12:31:35.637653 14629 net.cpp:165] Memory required for data: 76869644
I0821 12:31:35.637657 14629 layer_factory.hpp:77] Creating layer res2b_res2b_relu_0_split
I0821 12:31:35.637667 14629 net.cpp:100] Creating Layer res2b_res2b_relu_0_split
I0821 12:31:35.637672 14629 net.cpp:444] res2b_res2b_relu_0_split <- res2b
I0821 12:31:35.637682 14629 net.cpp:418] res2b_res2b_relu_0_split -> res2b_res2b_relu_0_split_0
I0821 12:31:35.637691 14629 net.cpp:418] res2b_res2b_relu_0_split -> res2b_res2b_relu_0_split_1
I0821 12:31:35.637737 14629 net.cpp:150] Setting up res2b_res2b_relu_0_split
I0821 12:31:35.637745 14629 net.cpp:157] Top shape: 1 256 56 56 (802816)
I0821 12:31:35.637750 14629 net.cpp:157] Top shape: 1 256 56 56 (802816)
I0821 12:31:35.637754 14629 net.cpp:165] Memory required for data: 83292172
I0821 12:31:35.637758 14629 layer_factory.hpp:77] Creating layer res2c_branch2a
I0821 12:31:35.637768 14629 net.cpp:100] Creating Layer res2c_branch2a
I0821 12:31:35.637771 14629 net.cpp:444] res2c_branch2a <- res2b_res2b_relu_0_split_0
I0821 12:31:35.637784 14629 net.cpp:418] res2c_branch2a -> res2c_branch2a
I0821 12:31:35.639180 14629 net.cpp:150] Setting up res2c_branch2a
I0821 12:31:35.639197 14629 net.cpp:157] Top shape: 1 64 56 56 (200704)
I0821 12:31:35.639201 14629 net.cpp:165] Memory required for data: 84094988
I0821 12:31:35.639209 14629 layer_factory.hpp:77] Creating layer bn2c_branch2a
I0821 12:31:35.639221 14629 net.cpp:100] Creating Layer bn2c_branch2a
I0821 12:31:35.639226 14629 net.cpp:444] bn2c_branch2a <- res2c_branch2a
I0821 12:31:35.639233 14629 net.cpp:405] bn2c_branch2a -> res2c_branch2a (in-place)
I0821 12:31:35.639475 14629 net.cpp:150] Setting up bn2c_branch2a
I0821 12:31:35.639484 14629 net.cpp:157] Top shape: 1 64 56 56 (200704)
I0821 12:31:35.639500 14629 net.cpp:165] Memory required for data: 84897804
I0821 12:31:35.639508 14629 layer_factory.hpp:77] Creating layer scale2c_branch2a
I0821 12:31:35.639515 14629 net.cpp:100] Creating Layer scale2c_branch2a
I0821 12:31:35.639526 14629 net.cpp:444] scale2c_branch2a <- res2c_branch2a
I0821 12:31:35.639533 14629 net.cpp:405] scale2c_branch2a -> res2c_branch2a (in-place)
I0821 12:31:35.639593 14629 layer_factory.hpp:77] Creating layer scale2c_branch2a
I0821 12:31:35.639729 14629 net.cpp:150] Setting up scale2c_branch2a
I0821 12:31:35.639750 14629 net.cpp:157] Top shape: 1 64 56 56 (200704)
I0821 12:31:35.639753 14629 net.cpp:165] Memory required for data: 85700620
I0821 12:31:35.639760 14629 layer_factory.hpp:77] Creating layer res2c_branch2a_relu
I0821 12:31:35.639767 14629 net.cpp:100] Creating Layer res2c_branch2a_relu
I0821 12:31:35.639771 14629 net.cpp:444] res2c_branch2a_relu <- res2c_branch2a
I0821 12:31:35.639780 14629 net.cpp:405] res2c_branch2a_relu -> res2c_branch2a (in-place)
I0821 12:31:35.640012 14629 net.cpp:150] Setting up res2c_branch2a_relu
I0821 12:31:35.640023 14629 net.cpp:157] Top shape: 1 64 56 56 (200704)
I0821 12:31:35.640028 14629 net.cpp:165] Memory required for data: 86503436
I0821 12:31:35.640033 14629 layer_factory.hpp:77] Creating layer res2c_branch2b
I0821 12:31:35.640043 14629 net.cpp:100] Creating Layer res2c_branch2b
I0821 12:31:35.640048 14629 net.cpp:444] res2c_branch2b <- res2c_branch2a
I0821 12:31:35.640058 14629 net.cpp:418] res2c_branch2b -> res2c_branch2b
I0821 12:31:35.641763 14629 net.cpp:150] Setting up res2c_branch2b
I0821 12:31:35.641784 14629 net.cpp:157] Top shape: 1 64 56 56 (200704)
I0821 12:31:35.641789 14629 net.cpp:165] Memory required for data: 87306252
I0821 12:31:35.641798 14629 layer_factory.hpp:77] Creating layer bn2c_branch2b
I0821 12:31:35.641808 14629 net.cpp:100] Creating Layer bn2c_branch2b
I0821 12:31:35.641813 14629 net.cpp:444] bn2c_branch2b <- res2c_branch2b
I0821 12:31:35.641820 14629 net.cpp:405] bn2c_branch2b -> res2c_branch2b (in-place)
I0821 12:31:35.642040 14629 net.cpp:150] Setting up bn2c_branch2b
I0821 12:31:35.642050 14629 net.cpp:157] Top shape: 1 64 56 56 (200704)
I0821 12:31:35.642053 14629 net.cpp:165] Memory required for data: 88109068
I0821 12:31:35.642061 14629 layer_factory.hpp:77] Creating layer scale2c_branch2b
I0821 12:31:35.642069 14629 net.cpp:100] Creating Layer scale2c_branch2b
I0821 12:31:35.642074 14629 net.cpp:444] scale2c_branch2b <- res2c_branch2b
I0821 12:31:35.642082 14629 net.cpp:405] scale2c_branch2b -> res2c_branch2b (in-place)
I0821 12:31:35.642127 14629 layer_factory.hpp:77] Creating layer scale2c_branch2b
I0821 12:31:35.642262 14629 net.cpp:150] Setting up scale2c_branch2b
I0821 12:31:35.642271 14629 net.cpp:157] Top shape: 1 64 56 56 (200704)
I0821 12:31:35.642276 14629 net.cpp:165] Memory required for data: 88911884
I0821 12:31:35.642282 14629 layer_factory.hpp:77] Creating layer res2c_branch2b_relu
I0821 12:31:35.642292 14629 net.cpp:100] Creating Layer res2c_branch2b_relu
I0821 12:31:35.642297 14629 net.cpp:444] res2c_branch2b_relu <- res2c_branch2b
I0821 12:31:35.642302 14629 net.cpp:405] res2c_branch2b_relu -> res2c_branch2b (in-place)
I0821 12:31:35.642784 14629 net.cpp:150] Setting up res2c_branch2b_relu
I0821 12:31:35.642801 14629 net.cpp:157] Top shape: 1 64 56 56 (200704)
I0821 12:31:35.642805 14629 net.cpp:165] Memory required for data: 89714700
I0821 12:31:35.642812 14629 layer_factory.hpp:77] Creating layer res2c_branch2c
I0821 12:31:35.642823 14629 net.cpp:100] Creating Layer res2c_branch2c
I0821 12:31:35.642828 14629 net.cpp:444] res2c_branch2c <- res2c_branch2b
I0821 12:31:35.642838 14629 net.cpp:418] res2c_branch2c -> res2c_branch2c
I0821 12:31:35.644255 14629 net.cpp:150] Setting up res2c_branch2c
I0821 12:31:35.644273 14629 net.cpp:157] Top shape: 1 256 56 56 (802816)
I0821 12:31:35.644278 14629 net.cpp:165] Memory required for data: 92925964
I0821 12:31:35.644284 14629 layer_factory.hpp:77] Creating layer bn2c_branch2c
I0821 12:31:35.644299 14629 net.cpp:100] Creating Layer bn2c_branch2c
I0821 12:31:35.644305 14629 net.cpp:444] bn2c_branch2c <- res2c_branch2c
I0821 12:31:35.644311 14629 net.cpp:405] bn2c_branch2c -> res2c_branch2c (in-place)
I0821 12:31:35.644531 14629 net.cpp:150] Setting up bn2c_branch2c
I0821 12:31:35.644556 14629 net.cpp:157] Top shape: 1 256 56 56 (802816)
I0821 12:31:35.644560 14629 net.cpp:165] Memory required for data: 96137228
I0821 12:31:35.644569 14629 layer_factory.hpp:77] Creating layer scale2c_branch2c
I0821 12:31:35.644577 14629 net.cpp:100] Creating Layer scale2c_branch2c
I0821 12:31:35.644582 14629 net.cpp:444] scale2c_branch2c <- res2c_branch2c
I0821 12:31:35.644589 14629 net.cpp:405] scale2c_branch2c -> res2c_branch2c (in-place)
I0821 12:31:35.644639 14629 layer_factory.hpp:77] Creating layer scale2c_branch2c
I0821 12:31:35.644765 14629 net.cpp:150] Setting up scale2c_branch2c
I0821 12:31:35.644774 14629 net.cpp:157] Top shape: 1 256 56 56 (802816)
I0821 12:31:35.644778 14629 net.cpp:165] Memory required for data: 99348492
I0821 12:31:35.644793 14629 layer_factory.hpp:77] Creating layer res2c
I0821 12:31:35.644800 14629 net.cpp:100] Creating Layer res2c
I0821 12:31:35.644804 14629 net.cpp:444] res2c <- res2b_res2b_relu_0_split_1
I0821 12:31:35.644810 14629 net.cpp:444] res2c <- res2c_branch2c
I0821 12:31:35.644816 14629 net.cpp:418] res2c -> res2c
I0821 12:31:35.644843 14629 net.cpp:150] Setting up res2c
I0821 12:31:35.644851 14629 net.cpp:157] Top shape: 1 256 56 56 (802816)
I0821 12:31:35.644855 14629 net.cpp:165] Memory required for data: 102559756
I0821 12:31:35.644861 14629 layer_factory.hpp:77] Creating layer res2c_relu
I0821 12:31:35.644866 14629 net.cpp:100] Creating Layer res2c_relu
I0821 12:31:35.644871 14629 net.cpp:444] res2c_relu <- res2c
I0821 12:31:35.644878 14629 net.cpp:405] res2c_relu -> res2c (in-place)
I0821 12:31:35.645107 14629 net.cpp:150] Setting up res2c_relu
I0821 12:31:35.645119 14629 net.cpp:157] Top shape: 1 256 56 56 (802816)
I0821 12:31:35.645123 14629 net.cpp:165] Memory required for data: 105771020
I0821 12:31:35.645128 14629 layer_factory.hpp:77] Creating layer res2c_res2c_relu_0_split
I0821 12:31:35.645135 14629 net.cpp:100] Creating Layer res2c_res2c_relu_0_split
I0821 12:31:35.645139 14629 net.cpp:444] res2c_res2c_relu_0_split <- res2c
I0821 12:31:35.645148 14629 net.cpp:418] res2c_res2c_relu_0_split -> res2c_res2c_relu_0_split_0
I0821 12:31:35.645157 14629 net.cpp:418] res2c_res2c_relu_0_split -> res2c_res2c_relu_0_split_1
I0821 12:31:35.645206 14629 net.cpp:150] Setting up res2c_res2c_relu_0_split
I0821 12:31:35.645213 14629 net.cpp:157] Top shape: 1 256 56 56 (802816)
I0821 12:31:35.645218 14629 net.cpp:157] Top shape: 1 256 56 56 (802816)
I0821 12:31:35.645222 14629 net.cpp:165] Memory required for data: 112193548
I0821 12:31:35.645226 14629 layer_factory.hpp:77] Creating layer res3a_branch1
I0821 12:31:35.645237 14629 net.cpp:100] Creating Layer res3a_branch1
I0821 12:31:35.645242 14629 net.cpp:444] res3a_branch1 <- res2c_res2c_relu_0_split_0
I0821 12:31:35.645251 14629 net.cpp:418] res3a_branch1 -> res3a_branch1
I0821 12:31:35.647487 14629 net.cpp:150] Setting up res3a_branch1
I0821 12:31:35.647505 14629 net.cpp:157] Top shape: 1 512 28 28 (401408)
I0821 12:31:35.647511 14629 net.cpp:165] Memory required for data: 113799180
I0821 12:31:35.647519 14629 layer_factory.hpp:77] Creating layer bn3a_branch1
I0821 12:31:35.647529 14629 net.cpp:100] Creating Layer bn3a_branch1
I0821 12:31:35.647534 14629 net.cpp:444] bn3a_branch1 <- res3a_branch1
I0821 12:31:35.647543 14629 net.cpp:405] bn3a_branch1 -> res3a_branch1 (in-place)
I0821 12:31:35.648479 14629 net.cpp:150] Setting up bn3a_branch1
I0821 12:31:35.648495 14629 net.cpp:157] Top shape: 1 512 28 28 (401408)
I0821 12:31:35.648499 14629 net.cpp:165] Memory required for data: 115404812
I0821 12:31:35.648509 14629 layer_factory.hpp:77] Creating layer scale3a_branch1
I0821 12:31:35.648517 14629 net.cpp:100] Creating Layer scale3a_branch1
I0821 12:31:35.648521 14629 net.cpp:444] scale3a_branch1 <- res3a_branch1
I0821 12:31:35.648527 14629 net.cpp:405] scale3a_branch1 -> res3a_branch1 (in-place)
I0821 12:31:35.648577 14629 layer_factory.hpp:77] Creating layer scale3a_branch1
I0821 12:31:35.648707 14629 net.cpp:150] Setting up scale3a_branch1
I0821 12:31:35.648720 14629 net.cpp:157] Top shape: 1 512 28 28 (401408)
I0821 12:31:35.648730 14629 net.cpp:165] Memory required for data: 117010444
I0821 12:31:35.648737 14629 layer_factory.hpp:77] Creating layer res3a_branch2a
I0821 12:31:35.648746 14629 net.cpp:100] Creating Layer res3a_branch2a
I0821 12:31:35.648751 14629 net.cpp:444] res3a_branch2a <- res2c_res2c_relu_0_split_1
I0821 12:31:35.648761 14629 net.cpp:418] res3a_branch2a -> res3a_branch2a
I0821 12:31:35.650185 14629 net.cpp:150] Setting up res3a_branch2a
I0821 12:31:35.650202 14629 net.cpp:157] Top shape: 1 128 28 28 (100352)
I0821 12:31:35.650207 14629 net.cpp:165] Memory required for data: 117411852
I0821 12:31:35.650213 14629 layer_factory.hpp:77] Creating layer bn3a_branch2a
I0821 12:31:35.650226 14629 net.cpp:100] Creating Layer bn3a_branch2a
I0821 12:31:35.650231 14629 net.cpp:444] bn3a_branch2a <- res3a_branch2a
I0821 12:31:35.650238 14629 net.cpp:405] bn3a_branch2a -> res3a_branch2a (in-place)
I0821 12:31:35.650454 14629 net.cpp:150] Setting up bn3a_branch2a
I0821 12:31:35.650462 14629 net.cpp:157] Top shape: 1 128 28 28 (100352)
I0821 12:31:35.650466 14629 net.cpp:165] Memory required for data: 117813260
I0821 12:31:35.650475 14629 layer_factory.hpp:77] Creating layer scale3a_branch2a
I0821 12:31:35.650482 14629 net.cpp:100] Creating Layer scale3a_branch2a
I0821 12:31:35.650487 14629 net.cpp:444] scale3a_branch2a <- res3a_branch2a
I0821 12:31:35.650493 14629 net.cpp:405] scale3a_branch2a -> res3a_branch2a (in-place)
I0821 12:31:35.650540 14629 layer_factory.hpp:77] Creating layer scale3a_branch2a
I0821 12:31:35.650661 14629 net.cpp:150] Setting up scale3a_branch2a
I0821 12:31:35.650671 14629 net.cpp:157] Top shape: 1 128 28 28 (100352)
I0821 12:31:35.650674 14629 net.cpp:165] Memory required for data: 118214668
I0821 12:31:35.650681 14629 layer_factory.hpp:77] Creating layer res3a_branch2a_relu
I0821 12:31:35.650687 14629 net.cpp:100] Creating Layer res3a_branch2a_relu
I0821 12:31:35.650692 14629 net.cpp:444] res3a_branch2a_relu <- res3a_branch2a
I0821 12:31:35.650699 14629 net.cpp:405] res3a_branch2a_relu -> res3a_branch2a (in-place)
I0821 12:31:35.650930 14629 net.cpp:150] Setting up res3a_branch2a_relu
I0821 12:31:35.650943 14629 net.cpp:157] Top shape: 1 128 28 28 (100352)
I0821 12:31:35.650948 14629 net.cpp:165] Memory required for data: 118616076
I0821 12:31:35.650951 14629 layer_factory.hpp:77] Creating layer res3a_branch2b
I0821 12:31:35.650962 14629 net.cpp:100] Creating Layer res3a_branch2b
I0821 12:31:35.650967 14629 net.cpp:444] res3a_branch2b <- res3a_branch2a
I0821 12:31:35.650974 14629 net.cpp:418] res3a_branch2b -> res3a_branch2b
I0821 12:31:35.653381 14629 net.cpp:150] Setting up res3a_branch2b
I0821 12:31:35.653399 14629 net.cpp:157] Top shape: 1 128 28 28 (100352)
I0821 12:31:35.653404 14629 net.cpp:165] Memory required for data: 119017484
I0821 12:31:35.653414 14629 layer_factory.hpp:77] Creating layer bn3a_branch2b
I0821 12:31:35.653424 14629 net.cpp:100] Creating Layer bn3a_branch2b
I0821 12:31:35.653429 14629 net.cpp:444] bn3a_branch2b <- res3a_branch2b
I0821 12:31:35.653437 14629 net.cpp:405] bn3a_branch2b -> res3a_branch2b (in-place)
I0821 12:31:35.653676 14629 net.cpp:150] Setting up bn3a_branch2b
I0821 12:31:35.653686 14629 net.cpp:157] Top shape: 1 128 28 28 (100352)
I0821 12:31:35.653689 14629 net.cpp:165] Memory required for data: 119418892
I0821 12:31:35.653697 14629 layer_factory.hpp:77] Creating layer scale3a_branch2b
I0821 12:31:35.653705 14629 net.cpp:100] Creating Layer scale3a_branch2b
I0821 12:31:35.653710 14629 net.cpp:444] scale3a_branch2b <- res3a_branch2b
I0821 12:31:35.653717 14629 net.cpp:405] scale3a_branch2b -> res3a_branch2b (in-place)
I0821 12:31:35.653762 14629 layer_factory.hpp:77] Creating layer scale3a_branch2b
I0821 12:31:35.653887 14629 net.cpp:150] Setting up scale3a_branch2b
I0821 12:31:35.653897 14629 net.cpp:157] Top shape: 1 128 28 28 (100352)
I0821 12:31:35.653900 14629 net.cpp:165] Memory required for data: 119820300
I0821 12:31:35.653908 14629 layer_factory.hpp:77] Creating layer res3a_branch2b_relu
I0821 12:31:35.653916 14629 net.cpp:100] Creating Layer res3a_branch2b_relu
I0821 12:31:35.653928 14629 net.cpp:444] res3a_branch2b_relu <- res3a_branch2b
I0821 12:31:35.653934 14629 net.cpp:405] res3a_branch2b_relu -> res3a_branch2b (in-place)
I0821 12:31:35.654489 14629 net.cpp:150] Setting up res3a_branch2b_relu
I0821 12:31:35.654506 14629 net.cpp:157] Top shape: 1 128 28 28 (100352)
I0821 12:31:35.654510 14629 net.cpp:165] Memory required for data: 120221708
I0821 12:31:35.654515 14629 layer_factory.hpp:77] Creating layer res3a_branch2c
I0821 12:31:35.654530 14629 net.cpp:100] Creating Layer res3a_branch2c
I0821 12:31:35.654534 14629 net.cpp:444] res3a_branch2c <- res3a_branch2b
I0821 12:31:35.654541 14629 net.cpp:418] res3a_branch2c -> res3a_branch2c
I0821 12:31:35.655774 14629 net.cpp:150] Setting up res3a_branch2c
I0821 12:31:35.655793 14629 net.cpp:157] Top shape: 1 512 28 28 (401408)
I0821 12:31:35.655798 14629 net.cpp:165] Memory required for data: 121827340
I0821 12:31:35.655807 14629 layer_factory.hpp:77] Creating layer bn3a_branch2c
I0821 12:31:35.655822 14629 net.cpp:100] Creating Layer bn3a_branch2c
I0821 12:31:35.655827 14629 net.cpp:444] bn3a_branch2c <- res3a_branch2c
I0821 12:31:35.655834 14629 net.cpp:405] bn3a_branch2c -> res3a_branch2c (in-place)
I0821 12:31:35.656049 14629 net.cpp:150] Setting up bn3a_branch2c
I0821 12:31:35.656057 14629 net.cpp:157] Top shape: 1 512 28 28 (401408)
I0821 12:31:35.656061 14629 net.cpp:165] Memory required for data: 123432972
I0821 12:31:35.656070 14629 layer_factory.hpp:77] Creating layer scale3a_branch2c
I0821 12:31:35.656080 14629 net.cpp:100] Creating Layer scale3a_branch2c
I0821 12:31:35.656085 14629 net.cpp:444] scale3a_branch2c <- res3a_branch2c
I0821 12:31:35.656090 14629 net.cpp:405] scale3a_branch2c -> res3a_branch2c (in-place)
I0821 12:31:35.656138 14629 layer_factory.hpp:77] Creating layer scale3a_branch2c
I0821 12:31:35.656270 14629 net.cpp:150] Setting up scale3a_branch2c
I0821 12:31:35.656278 14629 net.cpp:157] Top shape: 1 512 28 28 (401408)
I0821 12:31:35.656292 14629 net.cpp:165] Memory required for data: 125038604
I0821 12:31:35.656299 14629 layer_factory.hpp:77] Creating layer res3a
I0821 12:31:35.656306 14629 net.cpp:100] Creating Layer res3a
I0821 12:31:35.656311 14629 net.cpp:444] res3a <- res3a_branch1
I0821 12:31:35.656316 14629 net.cpp:444] res3a <- res3a_branch2c
I0821 12:31:35.656324 14629 net.cpp:418] res3a -> res3a
I0821 12:31:35.656353 14629 net.cpp:150] Setting up res3a
I0821 12:31:35.656360 14629 net.cpp:157] Top shape: 1 512 28 28 (401408)
I0821 12:31:35.656364 14629 net.cpp:165] Memory required for data: 126644236
I0821 12:31:35.656370 14629 layer_factory.hpp:77] Creating layer res3a_relu
I0821 12:31:35.656378 14629 net.cpp:100] Creating Layer res3a_relu
I0821 12:31:35.656383 14629 net.cpp:444] res3a_relu <- res3a
I0821 12:31:35.656389 14629 net.cpp:405] res3a_relu -> res3a (in-place)
I0821 12:31:35.657080 14629 net.cpp:150] Setting up res3a_relu
I0821 12:31:35.657096 14629 net.cpp:157] Top shape: 1 512 28 28 (401408)
I0821 12:31:35.657101 14629 net.cpp:165] Memory required for data: 128249868
I0821 12:31:35.657106 14629 layer_factory.hpp:77] Creating layer res3a_res3a_relu_0_split
I0821 12:31:35.657115 14629 net.cpp:100] Creating Layer res3a_res3a_relu_0_split
I0821 12:31:35.657120 14629 net.cpp:444] res3a_res3a_relu_0_split <- res3a
I0821 12:31:35.657127 14629 net.cpp:418] res3a_res3a_relu_0_split -> res3a_res3a_relu_0_split_0
I0821 12:31:35.657140 14629 net.cpp:418] res3a_res3a_relu_0_split -> res3a_res3a_relu_0_split_1
I0821 12:31:35.657193 14629 net.cpp:150] Setting up res3a_res3a_relu_0_split
I0821 12:31:35.657202 14629 net.cpp:157] Top shape: 1 512 28 28 (401408)
I0821 12:31:35.657207 14629 net.cpp:157] Top shape: 1 512 28 28 (401408)
I0821 12:31:35.657212 14629 net.cpp:165] Memory required for data: 131461132
I0821 12:31:35.657215 14629 layer_factory.hpp:77] Creating layer res3b1_branch2a
I0821 12:31:35.657227 14629 net.cpp:100] Creating Layer res3b1_branch2a
I0821 12:31:35.657232 14629 net.cpp:444] res3b1_branch2a <- res3a_res3a_relu_0_split_0
I0821 12:31:35.657254 14629 net.cpp:418] res3b1_branch2a -> res3b1_branch2a
I0821 12:31:35.659409 14629 net.cpp:150] Setting up res3b1_branch2a
I0821 12:31:35.659426 14629 net.cpp:157] Top shape: 1 128 28 28 (100352)
I0821 12:31:35.659431 14629 net.cpp:165] Memory required for data: 131862540
I0821 12:31:35.659438 14629 layer_factory.hpp:77] Creating layer bn3b1_branch2a
I0821 12:31:35.659451 14629 net.cpp:100] Creating Layer bn3b1_branch2a
I0821 12:31:35.659456 14629 net.cpp:444] bn3b1_branch2a <- res3b1_branch2a
I0821 12:31:35.659462 14629 net.cpp:405] bn3b1_branch2a -> res3b1_branch2a (in-place)
I0821 12:31:35.659720 14629 net.cpp:150] Setting up bn3b1_branch2a
I0821 12:31:35.659730 14629 net.cpp:157] Top shape: 1 128 28 28 (100352)
I0821 12:31:35.659734 14629 net.cpp:165] Memory required for data: 132263948
I0821 12:31:35.659744 14629 layer_factory.hpp:77] Creating layer scale3b1_branch2a
I0821 12:31:35.659751 14629 net.cpp:100] Creating Layer scale3b1_branch2a
I0821 12:31:35.659755 14629 net.cpp:444] scale3b1_branch2a <- res3b1_branch2a
I0821 12:31:35.659765 14629 net.cpp:405] scale3b1_branch2a -> res3b1_branch2a (in-place)
I0821 12:31:35.659812 14629 layer_factory.hpp:77] Creating layer scale3b1_branch2a
I0821 12:31:35.659955 14629 net.cpp:150] Setting up scale3b1_branch2a
I0821 12:31:35.659965 14629 net.cpp:157] Top shape: 1 128 28 28 (100352)
I0821 12:31:35.659970 14629 net.cpp:165] Memory required for data: 132665356
I0821 12:31:35.659976 14629 layer_factory.hpp:77] Creating layer res3b1_branch2a_relu
I0821 12:31:35.659983 14629 net.cpp:100] Creating Layer res3b1_branch2a_relu
I0821 12:31:35.659988 14629 net.cpp:444] res3b1_branch2a_relu <- res3b1_branch2a
I0821 12:31:35.659996 14629 net.cpp:405] res3b1_branch2a_relu -> res3b1_branch2a (in-place)
I0821 12:31:35.660236 14629 net.cpp:150] Setting up res3b1_branch2a_relu
I0821 12:31:35.660249 14629 net.cpp:157] Top shape: 1 128 28 28 (100352)
I0821 12:31:35.660254 14629 net.cpp:165] Memory required for data: 133066764
I0821 12:31:35.660257 14629 layer_factory.hpp:77] Creating layer res3b1_branch2b
I0821 12:31:35.660269 14629 net.cpp:100] Creating Layer res3b1_branch2b
I0821 12:31:35.660274 14629 net.cpp:444] res3b1_branch2b <- res3b1_branch2a
I0821 12:31:35.660280 14629 net.cpp:418] res3b1_branch2b -> res3b1_branch2b
I0821 12:31:35.662750 14629 net.cpp:150] Setting up res3b1_branch2b
I0821 12:31:35.662768 14629 net.cpp:157] Top shape: 1 128 28 28 (100352)
I0821 12:31:35.662773 14629 net.cpp:165] Memory required for data: 133468172
I0821 12:31:35.662782 14629 layer_factory.hpp:77] Creating layer bn3b1_branch2b
I0821 12:31:35.662793 14629 net.cpp:100] Creating Layer bn3b1_branch2b
I0821 12:31:35.662798 14629 net.cpp:444] bn3b1_branch2b <- res3b1_branch2b
I0821 12:31:35.662811 14629 net.cpp:405] bn3b1_branch2b -> res3b1_branch2b (in-place)
I0821 12:31:35.663040 14629 net.cpp:150] Setting up bn3b1_branch2b
I0821 12:31:35.663050 14629 net.cpp:157] Top shape: 1 128 28 28 (100352)
I0821 12:31:35.663054 14629 net.cpp:165] Memory required for data: 133869580
I0821 12:31:35.663063 14629 layer_factory.hpp:77] Creating layer scale3b1_branch2b
I0821 12:31:35.663072 14629 net.cpp:100] Creating Layer scale3b1_branch2b
I0821 12:31:35.663077 14629 net.cpp:444] scale3b1_branch2b <- res3b1_branch2b
I0821 12:31:35.663084 14629 net.cpp:405] scale3b1_branch2b -> res3b1_branch2b (in-place)
I0821 12:31:35.663153 14629 layer_factory.hpp:77] Creating layer scale3b1_branch2b
I0821 12:31:35.663283 14629 net.cpp:150] Setting up scale3b1_branch2b
I0821 12:31:35.663293 14629 net.cpp:157] Top shape: 1 128 28 28 (100352)
I0821 12:31:35.663297 14629 net.cpp:165] Memory required for data: 134270988
I0821 12:31:35.663305 14629 layer_factory.hpp:77] Creating layer res3b1_branch2b_relu
I0821 12:31:35.663313 14629 net.cpp:100] Creating Layer res3b1_branch2b_relu
I0821 12:31:35.663318 14629 net.cpp:444] res3b1_branch2b_relu <- res3b1_branch2b
I0821 12:31:35.663326 14629 net.cpp:405] res3b1_branch2b_relu -> res3b1_branch2b (in-place)
I0821 12:31:35.663779 14629 net.cpp:150] Setting up res3b1_branch2b_relu
I0821 12:31:35.663800 14629 net.cpp:157] Top shape: 1 128 28 28 (100352)
I0821 12:31:35.663805 14629 net.cpp:165] Memory required for data: 134672396
I0821 12:31:35.663810 14629 layer_factory.hpp:77] Creating layer res3b1_branch2c
I0821 12:31:35.663822 14629 net.cpp:100] Creating Layer res3b1_branch2c
I0821 12:31:35.663828 14629 net.cpp:444] res3b1_branch2c <- res3b1_branch2b
I0821 12:31:35.663836 14629 net.cpp:418] res3b1_branch2c -> res3b1_branch2c
I0821 12:31:35.665082 14629 net.cpp:150] Setting up res3b1_branch2c
I0821 12:31:35.665099 14629 net.cpp:157] Top shape: 1 512 28 28 (401408)
I0821 12:31:35.665104 14629 net.cpp:165] Memory required for data: 136278028
I0821 12:31:35.665110 14629 layer_factory.hpp:77] Creating layer bn3b1_branch2c
I0821 12:31:35.665120 14629 net.cpp:100] Creating Layer bn3b1_branch2c
I0821 12:31:35.665127 14629 net.cpp:444] bn3b1_branch2c <- res3b1_branch2c
I0821 12:31:35.665136 14629 net.cpp:405] bn3b1_branch2c -> res3b1_branch2c (in-place)
I0821 12:31:35.665372 14629 net.cpp:150] Setting up bn3b1_branch2c
I0821 12:31:35.665383 14629 net.cpp:157] Top shape: 1 512 28 28 (401408)
I0821 12:31:35.665387 14629 net.cpp:165] Memory required for data: 137883660
I0821 12:31:35.665395 14629 layer_factory.hpp:77] Creating layer scale3b1_branch2c
I0821 12:31:35.665408 14629 net.cpp:100] Creating Layer scale3b1_branch2c
I0821 12:31:35.665415 14629 net.cpp:444] scale3b1_branch2c <- res3b1_branch2c
I0821 12:31:35.665421 14629 net.cpp:405] scale3b1_branch2c -> res3b1_branch2c (in-place)
I0821 12:31:35.665470 14629 layer_factory.hpp:77] Creating layer scale3b1_branch2c
I0821 12:31:35.665597 14629 net.cpp:150] Setting up scale3b1_branch2c
I0821 12:31:35.665606 14629 net.cpp:157] Top shape: 1 512 28 28 (401408)
I0821 12:31:35.665611 14629 net.cpp:165] Memory required for data: 139489292
I0821 12:31:35.665617 14629 layer_factory.hpp:77] Creating layer res3b1
I0821 12:31:35.665627 14629 net.cpp:100] Creating Layer res3b1
I0821 12:31:35.665632 14629 net.cpp:444] res3b1 <- res3a_res3a_relu_0_split_1
I0821 12:31:35.665638 14629 net.cpp:444] res3b1 <- res3b1_branch2c
I0821 12:31:35.665644 14629 net.cpp:418] res3b1 -> res3b1
I0821 12:31:35.665678 14629 net.cpp:150] Setting up res3b1
I0821 12:31:35.665685 14629 net.cpp:157] Top shape: 1 512 28 28 (401408)
I0821 12:31:35.665689 14629 net.cpp:165] Memory required for data: 141094924
I0821 12:31:35.665694 14629 layer_factory.hpp:77] Creating layer res3b1_relu
I0821 12:31:35.665704 14629 net.cpp:100] Creating Layer res3b1_relu
I0821 12:31:35.665707 14629 net.cpp:444] res3b1_relu <- res3b1
I0821 12:31:35.665714 14629 net.cpp:405] res3b1_relu -> res3b1 (in-place)
I0821 12:31:35.666225 14629 net.cpp:150] Setting up res3b1_relu
I0821 12:31:35.666240 14629 net.cpp:157] Top shape: 1 512 28 28 (401408)
I0821 12:31:35.666245 14629 net.cpp:165] Memory required for data: 142700556
I0821 12:31:35.666249 14629 layer_factory.hpp:77] Creating layer res3b1_res3b1_relu_0_split
I0821 12:31:35.666257 14629 net.cpp:100] Creating Layer res3b1_res3b1_relu_0_split
I0821 12:31:35.666262 14629 net.cpp:444] res3b1_res3b1_relu_0_split <- res3b1
I0821 12:31:35.666271 14629 net.cpp:418] res3b1_res3b1_relu_0_split -> res3b1_res3b1_relu_0_split_0
I0821 12:31:35.666281 14629 net.cpp:418] res3b1_res3b1_relu_0_split -> res3b1_res3b1_relu_0_split_1
I0821 12:31:35.666337 14629 net.cpp:150] Setting up res3b1_res3b1_relu_0_split
I0821 12:31:35.666345 14629 net.cpp:157] Top shape: 1 512 28 28 (401408)
I0821 12:31:35.666350 14629 net.cpp:157] Top shape: 1 512 28 28 (401408)
I0821 12:31:35.666354 14629 net.cpp:165] Memory required for data: 145911820
I0821 12:31:35.666358 14629 layer_factory.hpp:77] Creating layer res3b2_branch2a
I0821 12:31:35.666369 14629 net.cpp:100] Creating Layer res3b2_branch2a
I0821 12:31:35.666374 14629 net.cpp:444] res3b2_branch2a <- res3b1_res3b1_relu_0_split_0
I0821 12:31:35.666381 14629 net.cpp:418] res3b2_branch2a -> res3b2_branch2a
I0821 12:31:35.667810 14629 net.cpp:150] Setting up res3b2_branch2a
I0821 12:31:35.667827 14629 net.cpp:157] Top shape: 1 128 28 28 (100352)
I0821 12:31:35.667831 14629 net.cpp:165] Memory required for data: 146313228
I0821 12:31:35.667845 14629 layer_factory.hpp:77] Creating layer bn3b2_branch2a
I0821 12:31:35.667857 14629 net.cpp:100] Creating Layer bn3b2_branch2a
I0821 12:31:35.667862 14629 net.cpp:444] bn3b2_branch2a <- res3b2_branch2a
I0821 12:31:35.667871 14629 net.cpp:405] bn3b2_branch2a -> res3b2_branch2a (in-place)
I0821 12:31:35.668113 14629 net.cpp:150] Setting up bn3b2_branch2a
I0821 12:31:35.668123 14629 net.cpp:157] Top shape: 1 128 28 28 (100352)
I0821 12:31:35.668128 14629 net.cpp:165] Memory required for data: 146714636
I0821 12:31:35.668136 14629 layer_factory.hpp:77] Creating layer scale3b2_branch2a
I0821 12:31:35.668146 14629 net.cpp:100] Creating Layer scale3b2_branch2a
I0821 12:31:35.668151 14629 net.cpp:444] scale3b2_branch2a <- res3b2_branch2a
I0821 12:31:35.668157 14629 net.cpp:405] scale3b2_branch2a -> res3b2_branch2a (in-place)
I0821 12:31:35.668208 14629 layer_factory.hpp:77] Creating layer scale3b2_branch2a
I0821 12:31:35.668362 14629 net.cpp:150] Setting up scale3b2_branch2a
I0821 12:31:35.668372 14629 net.cpp:157] Top shape: 1 128 28 28 (100352)
I0821 12:31:35.668376 14629 net.cpp:165] Memory required for data: 147116044
I0821 12:31:35.668383 14629 layer_factory.hpp:77] Creating layer res3b2_branch2a_relu
I0821 12:31:35.668396 14629 net.cpp:100] Creating Layer res3b2_branch2a_relu
I0821 12:31:35.668402 14629 net.cpp:444] res3b2_branch2a_relu <- res3b2_branch2a
I0821 12:31:35.668408 14629 net.cpp:405] res3b2_branch2a_relu -> res3b2_branch2a (in-place)
I0821 12:31:35.668655 14629 net.cpp:150] Setting up res3b2_branch2a_relu
I0821 12:31:35.668668 14629 net.cpp:157] Top shape: 1 128 28 28 (100352)
I0821 12:31:35.668673 14629 net.cpp:165] Memory required for data: 147517452
I0821 12:31:35.668678 14629 layer_factory.hpp:77] Creating layer res3b2_branch2b
I0821 12:31:35.668689 14629 net.cpp:100] Creating Layer res3b2_branch2b
I0821 12:31:35.668694 14629 net.cpp:444] res3b2_branch2b <- res3b2_branch2a
I0821 12:31:35.668702 14629 net.cpp:418] res3b2_branch2b -> res3b2_branch2b
I0821 12:31:35.671205 14629 net.cpp:150] Setting up res3b2_branch2b
I0821 12:31:35.671224 14629 net.cpp:157] Top shape: 1 128 28 28 (100352)
I0821 12:31:35.671229 14629 net.cpp:165] Memory required for data: 147918860
I0821 12:31:35.671238 14629 layer_factory.hpp:77] Creating layer bn3b2_branch2b
I0821 12:31:35.671248 14629 net.cpp:100] Creating Layer bn3b2_branch2b
I0821 12:31:35.671254 14629 net.cpp:444] bn3b2_branch2b <- res3b2_branch2b
I0821 12:31:35.671260 14629 net.cpp:405] bn3b2_branch2b -> res3b2_branch2b (in-place)
I0821 12:31:35.671494 14629 net.cpp:150] Setting up bn3b2_branch2b
I0821 12:31:35.671504 14629 net.cpp:157] Top shape: 1 128 28 28 (100352)
I0821 12:31:35.671507 14629 net.cpp:165] Memory required for data: 148320268
I0821 12:31:35.671515 14629 layer_factory.hpp:77] Creating layer scale3b2_branch2b
I0821 12:31:35.671526 14629 net.cpp:100] Creating Layer scale3b2_branch2b
I0821 12:31:35.671531 14629 net.cpp:444] scale3b2_branch2b <- res3b2_branch2b
I0821 12:31:35.671537 14629 net.cpp:405] scale3b2_branch2b -> res3b2_branch2b (in-place)
I0821 12:31:35.671587 14629 layer_factory.hpp:77] Creating layer scale3b2_branch2b
I0821 12:31:35.671720 14629 net.cpp:150] Setting up scale3b2_branch2b
I0821 12:31:35.671730 14629 net.cpp:157] Top shape: 1 128 28 28 (100352)
I0821 12:31:35.671735 14629 net.cpp:165] Memory required for data: 148721676
I0821 12:31:35.671741 14629 layer_factory.hpp:77] Creating layer res3b2_branch2b_relu
I0821 12:31:35.671748 14629 net.cpp:100] Creating Layer res3b2_branch2b_relu
I0821 12:31:35.671752 14629 net.cpp:444] res3b2_branch2b_relu <- res3b2_branch2b
I0821 12:31:35.671761 14629 net.cpp:405] res3b2_branch2b_relu -> res3b2_branch2b (in-place)
I0821 12:31:35.672224 14629 net.cpp:150] Setting up res3b2_branch2b_relu
I0821 12:31:35.672240 14629 net.cpp:157] Top shape: 1 128 28 28 (100352)
I0821 12:31:35.672245 14629 net.cpp:165] Memory required for data: 149123084
I0821 12:31:35.672250 14629 layer_factory.hpp:77] Creating layer res3b2_branch2c
I0821 12:31:35.672267 14629 net.cpp:100] Creating Layer res3b2_branch2c
I0821 12:31:35.672273 14629 net.cpp:444] res3b2_branch2c <- res3b2_branch2b
I0821 12:31:35.672282 14629 net.cpp:418] res3b2_branch2c -> res3b2_branch2c
I0821 12:31:35.673554 14629 net.cpp:150] Setting up res3b2_branch2c
I0821 12:31:35.673571 14629 net.cpp:157] Top shape: 1 512 28 28 (401408)
I0821 12:31:35.673576 14629 net.cpp:165] Memory required for data: 150728716
I0821 12:31:35.673583 14629 layer_factory.hpp:77] Creating layer bn3b2_branch2c
I0821 12:31:35.673593 14629 net.cpp:100] Creating Layer bn3b2_branch2c
I0821 12:31:35.673599 14629 net.cpp:444] bn3b2_branch2c <- res3b2_branch2c
I0821 12:31:35.673612 14629 net.cpp:405] bn3b2_branch2c -> res3b2_branch2c (in-place)
I0821 12:31:35.673838 14629 net.cpp:150] Setting up bn3b2_branch2c
I0821 12:31:35.673847 14629 net.cpp:157] Top shape: 1 512 28 28 (401408)
I0821 12:31:35.673851 14629 net.cpp:165] Memory required for data: 152334348
I0821 12:31:35.673859 14629 layer_factory.hpp:77] Creating layer scale3b2_branch2c
I0821 12:31:35.673869 14629 net.cpp:100] Creating Layer scale3b2_branch2c
I0821 12:31:35.673873 14629 net.cpp:444] scale3b2_branch2c <- res3b2_branch2c
I0821 12:31:35.673879 14629 net.cpp:405] scale3b2_branch2c -> res3b2_branch2c (in-place)
I0821 12:31:35.673929 14629 layer_factory.hpp:77] Creating layer scale3b2_branch2c
I0821 12:31:35.674058 14629 net.cpp:150] Setting up scale3b2_branch2c
I0821 12:31:35.674068 14629 net.cpp:157] Top shape: 1 512 28 28 (401408)
I0821 12:31:35.674072 14629 net.cpp:165] Memory required for data: 153939980
I0821 12:31:35.674079 14629 layer_factory.hpp:77] Creating layer res3b2
I0821 12:31:35.674089 14629 net.cpp:100] Creating Layer res3b2
I0821 12:31:35.674095 14629 net.cpp:444] res3b2 <- res3b1_res3b1_relu_0_split_1
I0821 12:31:35.674100 14629 net.cpp:444] res3b2 <- res3b2_branch2c
I0821 12:31:35.674108 14629 net.cpp:418] res3b2 -> res3b2
I0821 12:31:35.674139 14629 net.cpp:150] Setting up res3b2
I0821 12:31:35.674146 14629 net.cpp:157] Top shape: 1 512 28 28 (401408)
I0821 12:31:35.674150 14629 net.cpp:165] Memory required for data: 155545612
I0821 12:31:35.674156 14629 layer_factory.hpp:77] Creating layer res3b2_relu
I0821 12:31:35.674165 14629 net.cpp:100] Creating Layer res3b2_relu
I0821 12:31:35.674170 14629 net.cpp:444] res3b2_relu <- res3b2
I0821 12:31:35.674175 14629 net.cpp:405] res3b2_relu -> res3b2 (in-place)
I0821 12:31:35.674628 14629 net.cpp:150] Setting up res3b2_relu
I0821 12:31:35.674643 14629 net.cpp:157] Top shape: 1 512 28 28 (401408)
I0821 12:31:35.674646 14629 net.cpp:165] Memory required for data: 157151244
I0821 12:31:35.674651 14629 layer_factory.hpp:77] Creating layer res3b2_res3b2_relu_0_split
I0821 12:31:35.674659 14629 net.cpp:100] Creating Layer res3b2_res3b2_relu_0_split
I0821 12:31:35.674664 14629 net.cpp:444] res3b2_res3b2_relu_0_split <- res3b2
I0821 12:31:35.674674 14629 net.cpp:418] res3b2_res3b2_relu_0_split -> res3b2_res3b2_relu_0_split_0
I0821 12:31:35.674684 14629 net.cpp:418] res3b2_res3b2_relu_0_split -> res3b2_res3b2_relu_0_split_1
I0821 12:31:35.674739 14629 net.cpp:150] Setting up res3b2_res3b2_relu_0_split
I0821 12:31:35.674748 14629 net.cpp:157] Top shape: 1 512 28 28 (401408)
I0821 12:31:35.674753 14629 net.cpp:157] Top shape: 1 512 28 28 (401408)
I0821 12:31:35.674757 14629 net.cpp:165] Memory required for data: 160362508
I0821 12:31:35.674760 14629 layer_factory.hpp:77] Creating layer res3b3_branch2a
I0821 12:31:35.674772 14629 net.cpp:100] Creating Layer res3b3_branch2a
I0821 12:31:35.674777 14629 net.cpp:444] res3b3_branch2a <- res3b2_res3b2_relu_0_split_0
I0821 12:31:35.674785 14629 net.cpp:418] res3b3_branch2a -> res3b3_branch2a
I0821 12:31:35.676983 14629 net.cpp:150] Setting up res3b3_branch2a
I0821 12:31:35.677002 14629 net.cpp:157] Top shape: 1 128 28 28 (100352)
I0821 12:31:35.677007 14629 net.cpp:165] Memory required for data: 160763916
I0821 12:31:35.677014 14629 layer_factory.hpp:77] Creating layer bn3b3_branch2a
I0821 12:31:35.677024 14629 net.cpp:100] Creating Layer bn3b3_branch2a
I0821 12:31:35.677036 14629 net.cpp:444] bn3b3_branch2a <- res3b3_branch2a
I0821 12:31:35.677044 14629 net.cpp:405] bn3b3_branch2a -> res3b3_branch2a (in-place)
I0821 12:31:35.677281 14629 net.cpp:150] Setting up bn3b3_branch2a
I0821 12:31:35.677291 14629 net.cpp:157] Top shape: 1 128 28 28 (100352)
I0821 12:31:35.677295 14629 net.cpp:165] Memory required for data: 161165324
I0821 12:31:35.677321 14629 layer_factory.hpp:77] Creating layer scale3b3_branch2a
I0821 12:31:35.677333 14629 net.cpp:100] Creating Layer scale3b3_branch2a
I0821 12:31:35.677340 14629 net.cpp:444] scale3b3_branch2a <- res3b3_branch2a
I0821 12:31:35.677345 14629 net.cpp:405] scale3b3_branch2a -> res3b3_branch2a (in-place)
I0821 12:31:35.677397 14629 layer_factory.hpp:77] Creating layer scale3b3_branch2a
I0821 12:31:35.677528 14629 net.cpp:150] Setting up scale3b3_branch2a
I0821 12:31:35.677538 14629 net.cpp:157] Top shape: 1 128 28 28 (100352)
I0821 12:31:35.677542 14629 net.cpp:165] Memory required for data: 161566732
I0821 12:31:35.677549 14629 layer_factory.hpp:77] Creating layer res3b3_branch2a_relu
I0821 12:31:35.677558 14629 net.cpp:100] Creating Layer res3b3_branch2a_relu
I0821 12:31:35.677562 14629 net.cpp:444] res3b3_branch2a_relu <- res3b3_branch2a
I0821 12:31:35.677570 14629 net.cpp:405] res3b3_branch2a_relu -> res3b3_branch2a (in-place)
I0821 12:31:35.677817 14629 net.cpp:150] Setting up res3b3_branch2a_relu
I0821 12:31:35.677831 14629 net.cpp:157] Top shape: 1 128 28 28 (100352)
I0821 12:31:35.677836 14629 net.cpp:165] Memory required for data: 161968140
I0821 12:31:35.677840 14629 layer_factory.hpp:77] Creating layer res3b3_branch2b
I0821 12:31:35.677848 14629 net.cpp:100] Creating Layer res3b3_branch2b
I0821 12:31:35.677853 14629 net.cpp:444] res3b3_branch2b <- res3b3_branch2a
I0821 12:31:35.677862 14629 net.cpp:418] res3b3_branch2b -> res3b3_branch2b
I0821 12:31:35.680546 14629 net.cpp:150] Setting up res3b3_branch2b
I0821 12:31:35.680563 14629 net.cpp:157] Top shape: 1 128 28 28 (100352)
I0821 12:31:35.680568 14629 net.cpp:165] Memory required for data: 162369548
I0821 12:31:35.680577 14629 layer_factory.hpp:77] Creating layer bn3b3_branch2b
I0821 12:31:35.680588 14629 net.cpp:100] Creating Layer bn3b3_branch2b
I0821 12:31:35.680593 14629 net.cpp:444] bn3b3_branch2b <- res3b3_branch2b
I0821 12:31:35.680599 14629 net.cpp:405] bn3b3_branch2b -> res3b3_branch2b (in-place)
I0821 12:31:35.680837 14629 net.cpp:150] Setting up bn3b3_branch2b
I0821 12:31:35.680860 14629 net.cpp:157] Top shape: 1 128 28 28 (100352)
I0821 12:31:35.680863 14629 net.cpp:165] Memory required for data: 162770956
I0821 12:31:35.680871 14629 layer_factory.hpp:77] Creating layer scale3b3_branch2b
I0821 12:31:35.680881 14629 net.cpp:100] Creating Layer scale3b3_branch2b
I0821 12:31:35.680884 14629 net.cpp:444] scale3b3_branch2b <- res3b3_branch2b
I0821 12:31:35.680893 14629 net.cpp:405] scale3b3_branch2b -> res3b3_branch2b (in-place)
I0821 12:31:35.680968 14629 layer_factory.hpp:77] Creating layer scale3b3_branch2b
I0821 12:31:35.681133 14629 net.cpp:150] Setting up scale3b3_branch2b
I0821 12:31:35.681143 14629 net.cpp:157] Top shape: 1 128 28 28 (100352)
I0821 12:31:35.681149 14629 net.cpp:165] Memory required for data: 163172364
I0821 12:31:35.681156 14629 layer_factory.hpp:77] Creating layer res3b3_branch2b_relu
I0821 12:31:35.681164 14629 net.cpp:100] Creating Layer res3b3_branch2b_relu
I0821 12:31:35.681169 14629 net.cpp:444] res3b3_branch2b_relu <- res3b3_branch2b
I0821 12:31:35.681176 14629 net.cpp:405] res3b3_branch2b_relu -> res3b3_branch2b (in-place)
I0821 12:31:35.681672 14629 net.cpp:150] Setting up res3b3_branch2b_relu
I0821 12:31:35.681690 14629 net.cpp:157] Top shape: 1 128 28 28 (100352)
I0821 12:31:35.681695 14629 net.cpp:165] Memory required for data: 163573772
I0821 12:31:35.681700 14629 layer_factory.hpp:77] Creating layer res3b3_branch2c
I0821 12:31:35.681711 14629 net.cpp:100] Creating Layer res3b3_branch2c
I0821 12:31:35.681716 14629 net.cpp:444] res3b3_branch2c <- res3b3_branch2b
I0821 12:31:35.681725 14629 net.cpp:418] res3b3_branch2c -> res3b3_branch2c
I0821 12:31:35.682981 14629 net.cpp:150] Setting up res3b3_branch2c
I0821 12:31:35.682996 14629 net.cpp:157] Top shape: 1 512 28 28 (401408)
I0821 12:31:35.683001 14629 net.cpp:165] Memory required for data: 165179404
I0821 12:31:35.683008 14629 layer_factory.hpp:77] Creating layer bn3b3_branch2c
I0821 12:31:35.683018 14629 net.cpp:100] Creating Layer bn3b3_branch2c
I0821 12:31:35.683023 14629 net.cpp:444] bn3b3_branch2c <- res3b3_branch2c
I0821 12:31:35.683033 14629 net.cpp:405] bn3b3_branch2c -> res3b3_branch2c (in-place)
I0821 12:31:35.683264 14629 net.cpp:150] Setting up bn3b3_branch2c
I0821 12:31:35.683274 14629 net.cpp:157] Top shape: 1 512 28 28 (401408)
I0821 12:31:35.683277 14629 net.cpp:165] Memory required for data: 166785036
I0821 12:31:35.683286 14629 layer_factory.hpp:77] Creating layer scale3b3_branch2c
I0821 12:31:35.683296 14629 net.cpp:100] Creating Layer scale3b3_branch2c
I0821 12:31:35.683301 14629 net.cpp:444] scale3b3_branch2c <- res3b3_branch2c
I0821 12:31:35.683307 14629 net.cpp:405] scale3b3_branch2c -> res3b3_branch2c (in-place)
I0821 12:31:35.683357 14629 layer_factory.hpp:77] Creating layer scale3b3_branch2c
I0821 12:31:35.683492 14629 net.cpp:150] Setting up scale3b3_branch2c
I0821 12:31:35.683502 14629 net.cpp:157] Top shape: 1 512 28 28 (401408)
I0821 12:31:35.683506 14629 net.cpp:165] Memory required for data: 168390668
I0821 12:31:35.683513 14629 layer_factory.hpp:77] Creating layer res3b3
I0821 12:31:35.683523 14629 net.cpp:100] Creating Layer res3b3
I0821 12:31:35.683529 14629 net.cpp:444] res3b3 <- res3b2_res3b2_relu_0_split_1
I0821 12:31:35.683534 14629 net.cpp:444] res3b3 <- res3b3_branch2c
I0821 12:31:35.683540 14629 net.cpp:418] res3b3 -> res3b3
I0821 12:31:35.683573 14629 net.cpp:150] Setting up res3b3
I0821 12:31:35.683581 14629 net.cpp:157] Top shape: 1 512 28 28 (401408)
I0821 12:31:35.683585 14629 net.cpp:165] Memory required for data: 169996300
I0821 12:31:35.683591 14629 layer_factory.hpp:77] Creating layer res3b3_relu
I0821 12:31:35.683598 14629 net.cpp:100] Creating Layer res3b3_relu
I0821 12:31:35.683603 14629 net.cpp:444] res3b3_relu <- res3b3
I0821 12:31:35.683614 14629 net.cpp:405] res3b3_relu -> res3b3 (in-place)
I0821 12:31:35.684074 14629 net.cpp:150] Setting up res3b3_relu
I0821 12:31:35.684089 14629 net.cpp:157] Top shape: 1 512 28 28 (401408)
I0821 12:31:35.684093 14629 net.cpp:165] Memory required for data: 171601932
I0821 12:31:35.684098 14629 layer_factory.hpp:77] Creating layer res3b3_res3b3_relu_0_split
I0821 12:31:35.684105 14629 net.cpp:100] Creating Layer res3b3_res3b3_relu_0_split
I0821 12:31:35.684110 14629 net.cpp:444] res3b3_res3b3_relu_0_split <- res3b3
I0821 12:31:35.684119 14629 net.cpp:418] res3b3_res3b3_relu_0_split -> res3b3_res3b3_relu_0_split_0
I0821 12:31:35.684129 14629 net.cpp:418] res3b3_res3b3_relu_0_split -> res3b3_res3b3_relu_0_split_1
I0821 12:31:35.684186 14629 net.cpp:150] Setting up res3b3_res3b3_relu_0_split
I0821 12:31:35.684195 14629 net.cpp:157] Top shape: 1 512 28 28 (401408)
I0821 12:31:35.684201 14629 net.cpp:157] Top shape: 1 512 28 28 (401408)
I0821 12:31:35.684203 14629 net.cpp:165] Memory required for data: 174813196
I0821 12:31:35.684208 14629 layer_factory.hpp:77] Creating layer res4a_branch1
I0821 12:31:35.684218 14629 net.cpp:100] Creating Layer res4a_branch1
I0821 12:31:35.684223 14629 net.cpp:444] res4a_branch1 <- res3b3_res3b3_relu_0_split_0
I0821 12:31:35.684231 14629 net.cpp:418] res4a_branch1 -> res4a_branch1
I0821 12:31:35.687228 14629 net.cpp:150] Setting up res4a_branch1
I0821 12:31:35.687248 14629 net.cpp:157] Top shape: 1 1024 14 14 (200704)
I0821 12:31:35.687253 14629 net.cpp:165] Memory required for data: 175616012
I0821 12:31:35.687263 14629 layer_factory.hpp:77] Creating layer bn4a_branch1
I0821 12:31:35.687270 14629 net.cpp:100] Creating Layer bn4a_branch1
I0821 12:31:35.687275 14629 net.cpp:444] bn4a_branch1 <- res4a_branch1
I0821 12:31:35.687288 14629 net.cpp:405] bn4a_branch1 -> res4a_branch1 (in-place)
I0821 12:31:35.687559 14629 net.cpp:150] Setting up bn4a_branch1
I0821 12:31:35.687569 14629 net.cpp:157] Top shape: 1 1024 14 14 (200704)
I0821 12:31:35.687579 14629 net.cpp:165] Memory required for data: 176418828
I0821 12:31:35.687588 14629 layer_factory.hpp:77] Creating layer scale4a_branch1
I0821 12:31:35.687595 14629 net.cpp:100] Creating Layer scale4a_branch1
I0821 12:31:35.687600 14629 net.cpp:444] scale4a_branch1 <- res4a_branch1
I0821 12:31:35.687608 14629 net.cpp:405] scale4a_branch1 -> res4a_branch1 (in-place)
I0821 12:31:35.687654 14629 layer_factory.hpp:77] Creating layer scale4a_branch1
I0821 12:31:35.687793 14629 net.cpp:150] Setting up scale4a_branch1
I0821 12:31:35.687803 14629 net.cpp:157] Top shape: 1 1024 14 14 (200704)
I0821 12:31:35.687806 14629 net.cpp:165] Memory required for data: 177221644
I0821 12:31:35.687813 14629 layer_factory.hpp:77] Creating layer res4a_branch2a
I0821 12:31:35.687825 14629 net.cpp:100] Creating Layer res4a_branch2a
I0821 12:31:35.687831 14629 net.cpp:444] res4a_branch2a <- res3b3_res3b3_relu_0_split_1
I0821 12:31:35.687839 14629 net.cpp:418] res4a_branch2a -> res4a_branch2a
I0821 12:31:35.689127 14629 net.cpp:150] Setting up res4a_branch2a
I0821 12:31:35.689144 14629 net.cpp:157] Top shape: 1 256 14 14 (50176)
I0821 12:31:35.689149 14629 net.cpp:165] Memory required for data: 177422348
I0821 12:31:35.689155 14629 layer_factory.hpp:77] Creating layer bn4a_branch2a
I0821 12:31:35.689167 14629 net.cpp:100] Creating Layer bn4a_branch2a
I0821 12:31:35.689173 14629 net.cpp:444] bn4a_branch2a <- res4a_branch2a
I0821 12:31:35.689182 14629 net.cpp:405] bn4a_branch2a -> res4a_branch2a (in-place)
I0821 12:31:35.689435 14629 net.cpp:150] Setting up bn4a_branch2a
I0821 12:31:35.689448 14629 net.cpp:157] Top shape: 1 256 14 14 (50176)
I0821 12:31:35.689452 14629 net.cpp:165] Memory required for data: 177623052
I0821 12:31:35.689461 14629 layer_factory.hpp:77] Creating layer scale4a_branch2a
I0821 12:31:35.689472 14629 net.cpp:100] Creating Layer scale4a_branch2a
I0821 12:31:35.689477 14629 net.cpp:444] scale4a_branch2a <- res4a_branch2a
I0821 12:31:35.689484 14629 net.cpp:405] scale4a_branch2a -> res4a_branch2a (in-place)
I0821 12:31:35.689534 14629 layer_factory.hpp:77] Creating layer scale4a_branch2a
I0821 12:31:35.689677 14629 net.cpp:150] Setting up scale4a_branch2a
I0821 12:31:35.689685 14629 net.cpp:157] Top shape: 1 256 14 14 (50176)
I0821 12:31:35.689689 14629 net.cpp:165] Memory required for data: 177823756
I0821 12:31:35.689697 14629 layer_factory.hpp:77] Creating layer res4a_branch2a_relu
I0821 12:31:35.689703 14629 net.cpp:100] Creating Layer res4a_branch2a_relu
I0821 12:31:35.689708 14629 net.cpp:444] res4a_branch2a_relu <- res4a_branch2a
I0821 12:31:35.689716 14629 net.cpp:405] res4a_branch2a_relu -> res4a_branch2a (in-place)
I0821 12:31:35.690306 14629 net.cpp:150] Setting up res4a_branch2a_relu
I0821 12:31:35.690322 14629 net.cpp:157] Top shape: 1 256 14 14 (50176)
I0821 12:31:35.690327 14629 net.cpp:165] Memory required for data: 178024460
I0821 12:31:35.690331 14629 layer_factory.hpp:77] Creating layer res4a_branch2b
I0821 12:31:35.690345 14629 net.cpp:100] Creating Layer res4a_branch2b
I0821 12:31:35.690351 14629 net.cpp:444] res4a_branch2b <- res4a_branch2a
I0821 12:31:35.690357 14629 net.cpp:418] res4a_branch2b -> res4a_branch2b
I0821 12:31:35.693734 14629 net.cpp:150] Setting up res4a_branch2b
I0821 12:31:35.693753 14629 net.cpp:157] Top shape: 1 256 14 14 (50176)
I0821 12:31:35.693758 14629 net.cpp:165] Memory required for data: 178225164
I0821 12:31:35.693764 14629 layer_factory.hpp:77] Creating layer bn4a_branch2b
I0821 12:31:35.693776 14629 net.cpp:100] Creating Layer bn4a_branch2b
I0821 12:31:35.693781 14629 net.cpp:444] bn4a_branch2b <- res4a_branch2b
I0821 12:31:35.693789 14629 net.cpp:405] bn4a_branch2b -> res4a_branch2b (in-place)
I0821 12:31:35.694031 14629 net.cpp:150] Setting up bn4a_branch2b
I0821 12:31:35.694041 14629 net.cpp:157] Top shape: 1 256 14 14 (50176)
I0821 12:31:35.694046 14629 net.cpp:165] Memory required for data: 178425868
I0821 12:31:35.694053 14629 layer_factory.hpp:77] Creating layer scale4a_branch2b
I0821 12:31:35.694063 14629 net.cpp:100] Creating Layer scale4a_branch2b
I0821 12:31:35.694075 14629 net.cpp:444] scale4a_branch2b <- res4a_branch2b
I0821 12:31:35.694082 14629 net.cpp:405] scale4a_branch2b -> res4a_branch2b (in-place)
I0821 12:31:35.694137 14629 layer_factory.hpp:77] Creating layer scale4a_branch2b
I0821 12:31:35.694278 14629 net.cpp:150] Setting up scale4a_branch2b
I0821 12:31:35.694288 14629 net.cpp:157] Top shape: 1 256 14 14 (50176)
I0821 12:31:35.694293 14629 net.cpp:165] Memory required for data: 178626572
I0821 12:31:35.694298 14629 layer_factory.hpp:77] Creating layer res4a_branch2b_relu
I0821 12:31:35.694305 14629 net.cpp:100] Creating Layer res4a_branch2b_relu
I0821 12:31:35.694310 14629 net.cpp:444] res4a_branch2b_relu <- res4a_branch2b
I0821 12:31:35.694319 14629 net.cpp:405] res4a_branch2b_relu -> res4a_branch2b (in-place)
I0821 12:31:35.694561 14629 net.cpp:150] Setting up res4a_branch2b_relu
I0821 12:31:35.694573 14629 net.cpp:157] Top shape: 1 256 14 14 (50176)
I0821 12:31:35.694578 14629 net.cpp:165] Memory required for data: 178827276
I0821 12:31:35.694582 14629 layer_factory.hpp:77] Creating layer res4a_branch2c
I0821 12:31:35.694594 14629 net.cpp:100] Creating Layer res4a_branch2c
I0821 12:31:35.694599 14629 net.cpp:444] res4a_branch2c <- res4a_branch2b
I0821 12:31:35.694607 14629 net.cpp:418] res4a_branch2c -> res4a_branch2c
I0821 12:31:35.697106 14629 net.cpp:150] Setting up res4a_branch2c
I0821 12:31:35.697124 14629 net.cpp:157] Top shape: 1 1024 14 14 (200704)
I0821 12:31:35.697129 14629 net.cpp:165] Memory required for data: 179630092
I0821 12:31:35.697137 14629 layer_factory.hpp:77] Creating layer bn4a_branch2c
I0821 12:31:35.697146 14629 net.cpp:100] Creating Layer bn4a_branch2c
I0821 12:31:35.697151 14629 net.cpp:444] bn4a_branch2c <- res4a_branch2c
I0821 12:31:35.697170 14629 net.cpp:405] bn4a_branch2c -> res4a_branch2c (in-place)
I0821 12:31:35.697441 14629 net.cpp:150] Setting up bn4a_branch2c
I0821 12:31:35.697455 14629 net.cpp:157] Top shape: 1 1024 14 14 (200704)
I0821 12:31:35.697459 14629 net.cpp:165] Memory required for data: 180432908
I0821 12:31:35.697468 14629 layer_factory.hpp:77] Creating layer scale4a_branch2c
I0821 12:31:35.697476 14629 net.cpp:100] Creating Layer scale4a_branch2c
I0821 12:31:35.697481 14629 net.cpp:444] scale4a_branch2c <- res4a_branch2c
I0821 12:31:35.697490 14629 net.cpp:405] scale4a_branch2c -> res4a_branch2c (in-place)
I0821 12:31:35.697536 14629 layer_factory.hpp:77] Creating layer scale4a_branch2c
I0821 12:31:35.697684 14629 net.cpp:150] Setting up scale4a_branch2c
I0821 12:31:35.697692 14629 net.cpp:157] Top shape: 1 1024 14 14 (200704)
I0821 12:31:35.697696 14629 net.cpp:165] Memory required for data: 181235724
I0821 12:31:35.697703 14629 layer_factory.hpp:77] Creating layer res4a
I0821 12:31:35.697710 14629 net.cpp:100] Creating Layer res4a
I0821 12:31:35.697715 14629 net.cpp:444] res4a <- res4a_branch1
I0821 12:31:35.697721 14629 net.cpp:444] res4a <- res4a_branch2c
I0821 12:31:35.697728 14629 net.cpp:418] res4a -> res4a
I0821 12:31:35.697760 14629 net.cpp:150] Setting up res4a
I0821 12:31:35.697770 14629 net.cpp:157] Top shape: 1 1024 14 14 (200704)
I0821 12:31:35.697774 14629 net.cpp:165] Memory required for data: 182038540
I0821 12:31:35.697780 14629 layer_factory.hpp:77] Creating layer res4a_relu
I0821 12:31:35.697787 14629 net.cpp:100] Creating Layer res4a_relu
I0821 12:31:35.697790 14629 net.cpp:444] res4a_relu <- res4a
I0821 12:31:35.697796 14629 net.cpp:405] res4a_relu -> res4a (in-place)
I0821 12:31:35.698287 14629 net.cpp:150] Setting up res4a_relu
I0821 12:31:35.698303 14629 net.cpp:157] Top shape: 1 1024 14 14 (200704)
I0821 12:31:35.698307 14629 net.cpp:165] Memory required for data: 182841356
I0821 12:31:35.698312 14629 layer_factory.hpp:77] Creating layer res4a_res4a_relu_0_split
I0821 12:31:35.698326 14629 net.cpp:100] Creating Layer res4a_res4a_relu_0_split
I0821 12:31:35.698331 14629 net.cpp:444] res4a_res4a_relu_0_split <- res4a
I0821 12:31:35.698338 14629 net.cpp:418] res4a_res4a_relu_0_split -> res4a_res4a_relu_0_split_0
I0821 12:31:35.698348 14629 net.cpp:418] res4a_res4a_relu_0_split -> res4a_res4a_relu_0_split_1
I0821 12:31:35.698413 14629 net.cpp:150] Setting up res4a_res4a_relu_0_split
I0821 12:31:35.698422 14629 net.cpp:157] Top shape: 1 1024 14 14 (200704)
I0821 12:31:35.698427 14629 net.cpp:157] Top shape: 1 1024 14 14 (200704)
I0821 12:31:35.698431 14629 net.cpp:165] Memory required for data: 184446988
I0821 12:31:35.698436 14629 layer_factory.hpp:77] Creating layer res4b1_branch2a
I0821 12:31:35.698453 14629 net.cpp:100] Creating Layer res4b1_branch2a
I0821 12:31:35.698459 14629 net.cpp:444] res4b1_branch2a <- res4a_res4a_relu_0_split_0
I0821 12:31:35.698467 14629 net.cpp:418] res4b1_branch2a -> res4b1_branch2a
I0821 12:31:35.700577 14629 net.cpp:150] Setting up res4b1_branch2a
I0821 12:31:35.700595 14629 net.cpp:157] Top shape: 1 256 14 14 (50176)
I0821 12:31:35.700600 14629 net.cpp:165] Memory required for data: 184647692
I0821 12:31:35.700608 14629 layer_factory.hpp:77] Creating layer bn4b1_branch2a
I0821 12:31:35.700621 14629 net.cpp:100] Creating Layer bn4b1_branch2a
I0821 12:31:35.700628 14629 net.cpp:444] bn4b1_branch2a <- res4b1_branch2a
I0821 12:31:35.700635 14629 net.cpp:405] bn4b1_branch2a -> res4b1_branch2a (in-place)
I0821 12:31:35.700894 14629 net.cpp:150] Setting up bn4b1_branch2a
I0821 12:31:35.700904 14629 net.cpp:157] Top shape: 1 256 14 14 (50176)
I0821 12:31:35.700908 14629 net.cpp:165] Memory required for data: 184848396
I0821 12:31:35.700917 14629 layer_factory.hpp:77] Creating layer scale4b1_branch2a
I0821 12:31:35.700927 14629 net.cpp:100] Creating Layer scale4b1_branch2a
I0821 12:31:35.700932 14629 net.cpp:444] scale4b1_branch2a <- res4b1_branch2a
I0821 12:31:35.700937 14629 net.cpp:405] scale4b1_branch2a -> res4b1_branch2a (in-place)
I0821 12:31:35.700989 14629 layer_factory.hpp:77] Creating layer scale4b1_branch2a
I0821 12:31:35.701203 14629 net.cpp:150] Setting up scale4b1_branch2a
I0821 12:31:35.701218 14629 net.cpp:157] Top shape: 1 256 14 14 (50176)
I0821 12:31:35.701223 14629 net.cpp:165] Memory required for data: 185049100
I0821 12:31:35.701231 14629 layer_factory.hpp:77] Creating layer res4b1_branch2a_relu
I0821 12:31:35.701238 14629 net.cpp:100] Creating Layer res4b1_branch2a_relu
I0821 12:31:35.701243 14629 net.cpp:444] res4b1_branch2a_relu <- res4b1_branch2a
I0821 12:31:35.701252 14629 net.cpp:405] res4b1_branch2a_relu -> res4b1_branch2a (in-place)
I0821 12:31:35.701735 14629 net.cpp:150] Setting up res4b1_branch2a_relu
I0821 12:31:35.701751 14629 net.cpp:157] Top shape: 1 256 14 14 (50176)
I0821 12:31:35.701756 14629 net.cpp:165] Memory required for data: 185249804
I0821 12:31:35.701761 14629 layer_factory.hpp:77] Creating layer res4b1_branch2b
I0821 12:31:35.701772 14629 net.cpp:100] Creating Layer res4b1_branch2b
I0821 12:31:35.701777 14629 net.cpp:444] res4b1_branch2b <- res4b1_branch2a
I0821 12:31:35.701786 14629 net.cpp:418] res4b1_branch2b -> res4b1_branch2b
I0821 12:31:35.705226 14629 net.cpp:150] Setting up res4b1_branch2b
I0821 12:31:35.705243 14629 net.cpp:157] Top shape: 1 256 14 14 (50176)
I0821 12:31:35.705250 14629 net.cpp:165] Memory required for data: 185450508
I0821 12:31:35.705266 14629 layer_factory.hpp:77] Creating layer bn4b1_branch2b
I0821 12:31:35.705276 14629 net.cpp:100] Creating Layer bn4b1_branch2b
I0821 12:31:35.705281 14629 net.cpp:444] bn4b1_branch2b <- res4b1_branch2b
I0821 12:31:35.705287 14629 net.cpp:405] bn4b1_branch2b -> res4b1_branch2b (in-place)
I0821 12:31:35.705595 14629 net.cpp:150] Setting up bn4b1_branch2b
I0821 12:31:35.705606 14629 net.cpp:157] Top shape: 1 256 14 14 (50176)
I0821 12:31:35.705621 14629 net.cpp:165] Memory required for data: 185651212
I0821 12:31:35.705631 14629 layer_factory.hpp:77] Creating layer scale4b1_branch2b
I0821 12:31:35.705641 14629 net.cpp:100] Creating Layer scale4b1_branch2b
I0821 12:31:35.705646 14629 net.cpp:444] scale4b1_branch2b <- res4b1_branch2b
I0821 12:31:35.705652 14629 net.cpp:405] scale4b1_branch2b -> res4b1_branch2b (in-place)
I0821 12:31:35.705709 14629 layer_factory.hpp:77] Creating layer scale4b1_branch2b
I0821 12:31:35.705870 14629 net.cpp:150] Setting up scale4b1_branch2b
I0821 12:31:35.705889 14629 net.cpp:157] Top shape: 1 256 14 14 (50176)
I0821 12:31:35.705893 14629 net.cpp:165] Memory required for data: 185851916
I0821 12:31:35.705900 14629 layer_factory.hpp:77] Creating layer res4b1_branch2b_relu
I0821 12:31:35.705907 14629 net.cpp:100] Creating Layer res4b1_branch2b_relu
I0821 12:31:35.705912 14629 net.cpp:444] res4b1_branch2b_relu <- res4b1_branch2b
I0821 12:31:35.705919 14629 net.cpp:405] res4b1_branch2b_relu -> res4b1_branch2b (in-place)
I0821 12:31:35.706184 14629 net.cpp:150] Setting up res4b1_branch2b_relu
I0821 12:31:35.706197 14629 net.cpp:157] Top shape: 1 256 14 14 (50176)
I0821 12:31:35.706202 14629 net.cpp:165] Memory required for data: 186052620
I0821 12:31:35.706207 14629 layer_factory.hpp:77] Creating layer res4b1_branch2c
I0821 12:31:35.706218 14629 net.cpp:100] Creating Layer res4b1_branch2c
I0821 12:31:35.706223 14629 net.cpp:444] res4b1_branch2c <- res4b1_branch2b
I0821 12:31:35.706243 14629 net.cpp:418] res4b1_branch2c -> res4b1_branch2c
I0821 12:31:35.708936 14629 net.cpp:150] Setting up res4b1_branch2c
I0821 12:31:35.708953 14629 net.cpp:157] Top shape: 1 1024 14 14 (200704)
I0821 12:31:35.708958 14629 net.cpp:165] Memory required for data: 186855436
I0821 12:31:35.708967 14629 layer_factory.hpp:77] Creating layer bn4b1_branch2c
I0821 12:31:35.708977 14629 net.cpp:100] Creating Layer bn4b1_branch2c
I0821 12:31:35.708983 14629 net.cpp:444] bn4b1_branch2c <- res4b1_branch2c
I0821 12:31:35.708989 14629 net.cpp:405] bn4b1_branch2c -> res4b1_branch2c (in-place)
I0821 12:31:35.709244 14629 net.cpp:150] Setting up bn4b1_branch2c
I0821 12:31:35.709254 14629 net.cpp:157] Top shape: 1 1024 14 14 (200704)
I0821 12:31:35.709259 14629 net.cpp:165] Memory required for data: 187658252
I0821 12:31:35.709266 14629 layer_factory.hpp:77] Creating layer scale4b1_branch2c
I0821 12:31:35.709275 14629 net.cpp:100] Creating Layer scale4b1_branch2c
I0821 12:31:35.709280 14629 net.cpp:444] scale4b1_branch2c <- res4b1_branch2c
I0821 12:31:35.709285 14629 net.cpp:405] scale4b1_branch2c -> res4b1_branch2c (in-place)
I0821 12:31:35.709358 14629 layer_factory.hpp:77] Creating layer scale4b1_branch2c
I0821 12:31:35.709520 14629 net.cpp:150] Setting up scale4b1_branch2c
I0821 12:31:35.709530 14629 net.cpp:157] Top shape: 1 1024 14 14 (200704)
I0821 12:31:35.709534 14629 net.cpp:165] Memory required for data: 188461068
I0821 12:31:35.709542 14629 layer_factory.hpp:77] Creating layer res4b1
I0821 12:31:35.709552 14629 net.cpp:100] Creating Layer res4b1
I0821 12:31:35.709556 14629 net.cpp:444] res4b1 <- res4a_res4a_relu_0_split_1
I0821 12:31:35.709561 14629 net.cpp:444] res4b1 <- res4b1_branch2c
I0821 12:31:35.709568 14629 net.cpp:418] res4b1 -> res4b1
I0821 12:31:35.709604 14629 net.cpp:150] Setting up res4b1
I0821 12:31:35.709612 14629 net.cpp:157] Top shape: 1 1024 14 14 (200704)
I0821 12:31:35.709616 14629 net.cpp:165] Memory required for data: 189263884
I0821 12:31:35.709622 14629 layer_factory.hpp:77] Creating layer res4b1_relu
I0821 12:31:35.709628 14629 net.cpp:100] Creating Layer res4b1_relu
I0821 12:31:35.709632 14629 net.cpp:444] res4b1_relu <- res4b1
I0821 12:31:35.709638 14629 net.cpp:405] res4b1_relu -> res4b1 (in-place)
I0821 12:31:35.710140 14629 net.cpp:150] Setting up res4b1_relu
I0821 12:31:35.710156 14629 net.cpp:157] Top shape: 1 1024 14 14 (200704)
I0821 12:31:35.710160 14629 net.cpp:165] Memory required for data: 190066700
I0821 12:31:35.710165 14629 layer_factory.hpp:77] Creating layer res4b1_res4b1_relu_0_split
I0821 12:31:35.710175 14629 net.cpp:100] Creating Layer res4b1_res4b1_relu_0_split
I0821 12:31:35.710180 14629 net.cpp:444] res4b1_res4b1_relu_0_split <- res4b1
I0821 12:31:35.710189 14629 net.cpp:418] res4b1_res4b1_relu_0_split -> res4b1_res4b1_relu_0_split_0
I0821 12:31:35.710198 14629 net.cpp:418] res4b1_res4b1_relu_0_split -> res4b1_res4b1_relu_0_split_1
I0821 12:31:35.710258 14629 net.cpp:150] Setting up res4b1_res4b1_relu_0_split
I0821 12:31:35.710269 14629 net.cpp:157] Top shape: 1 1024 14 14 (200704)
I0821 12:31:35.710280 14629 net.cpp:157] Top shape: 1 1024 14 14 (200704)
I0821 12:31:35.710284 14629 net.cpp:165] Memory required for data: 191672332
I0821 12:31:35.710289 14629 layer_factory.hpp:77] Creating layer res4b2_branch2a
I0821 12:31:35.710297 14629 net.cpp:100] Creating Layer res4b2_branch2a
I0821 12:31:35.710302 14629 net.cpp:444] res4b2_branch2a <- res4b1_res4b1_relu_0_split_0
I0821 12:31:35.710311 14629 net.cpp:418] res4b2_branch2a -> res4b2_branch2a
I0821 12:31:35.712482 14629 net.cpp:150] Setting up res4b2_branch2a
I0821 12:31:35.712498 14629 net.cpp:157] Top shape: 1 256 14 14 (50176)
I0821 12:31:35.712503 14629 net.cpp:165] Memory required for data: 191873036
I0821 12:31:35.712510 14629 layer_factory.hpp:77] Creating layer bn4b2_branch2a
I0821 12:31:35.712522 14629 net.cpp:100] Creating Layer bn4b2_branch2a
I0821 12:31:35.712527 14629 net.cpp:444] bn4b2_branch2a <- res4b2_branch2a
I0821 12:31:35.712534 14629 net.cpp:405] bn4b2_branch2a -> res4b2_branch2a (in-place)
I0821 12:31:35.712791 14629 net.cpp:150] Setting up bn4b2_branch2a
I0821 12:31:35.712801 14629 net.cpp:157] Top shape: 1 256 14 14 (50176)
I0821 12:31:35.712805 14629 net.cpp:165] Memory required for data: 192073740
I0821 12:31:35.712813 14629 layer_factory.hpp:77] Creating layer scale4b2_branch2a
I0821 12:31:35.712821 14629 net.cpp:100] Creating Layer scale4b2_branch2a
I0821 12:31:35.712826 14629 net.cpp:444] scale4b2_branch2a <- res4b2_branch2a
I0821 12:31:35.712831 14629 net.cpp:405] scale4b2_branch2a -> res4b2_branch2a (in-place)
I0821 12:31:35.712887 14629 layer_factory.hpp:77] Creating layer scale4b2_branch2a
I0821 12:31:35.713029 14629 net.cpp:150] Setting up scale4b2_branch2a
I0821 12:31:35.713039 14629 net.cpp:157] Top shape: 1 256 14 14 (50176)
I0821 12:31:35.713043 14629 net.cpp:165] Memory required for data: 192274444
I0821 12:31:35.713050 14629 layer_factory.hpp:77] Creating layer res4b2_branch2a_relu
I0821 12:31:35.713057 14629 net.cpp:100] Creating Layer res4b2_branch2a_relu
I0821 12:31:35.713062 14629 net.cpp:444] res4b2_branch2a_relu <- res4b2_branch2a
I0821 12:31:35.713069 14629 net.cpp:405] res4b2_branch2a_relu -> res4b2_branch2a (in-place)
I0821 12:31:35.713542 14629 net.cpp:150] Setting up res4b2_branch2a_relu
I0821 12:31:35.713558 14629 net.cpp:157] Top shape: 1 256 14 14 (50176)
I0821 12:31:35.713562 14629 net.cpp:165] Memory required for data: 192475148
I0821 12:31:35.713567 14629 layer_factory.hpp:77] Creating layer res4b2_branch2b
I0821 12:31:35.713582 14629 net.cpp:100] Creating Layer res4b2_branch2b
I0821 12:31:35.713587 14629 net.cpp:444] res4b2_branch2b <- res4b2_branch2a
I0821 12:31:35.713593 14629 net.cpp:418] res4b2_branch2b -> res4b2_branch2b
I0821 12:31:35.716989 14629 net.cpp:150] Setting up res4b2_branch2b
I0821 12:31:35.717007 14629 net.cpp:157] Top shape: 1 256 14 14 (50176)
I0821 12:31:35.717012 14629 net.cpp:165] Memory required for data: 192675852
I0821 12:31:35.717021 14629 layer_factory.hpp:77] Creating layer bn4b2_branch2b
I0821 12:31:35.717031 14629 net.cpp:100] Creating Layer bn4b2_branch2b
I0821 12:31:35.717036 14629 net.cpp:444] bn4b2_branch2b <- res4b2_branch2b
I0821 12:31:35.717044 14629 net.cpp:405] bn4b2_branch2b -> res4b2_branch2b (in-place)
I0821 12:31:35.717322 14629 net.cpp:150] Setting up bn4b2_branch2b
I0821 12:31:35.717335 14629 net.cpp:157] Top shape: 1 256 14 14 (50176)
I0821 12:31:35.717340 14629 net.cpp:165] Memory required for data: 192876556
I0821 12:31:35.717350 14629 layer_factory.hpp:77] Creating layer scale4b2_branch2b
I0821 12:31:35.717357 14629 net.cpp:100] Creating Layer scale4b2_branch2b
I0821 12:31:35.717362 14629 net.cpp:444] scale4b2_branch2b <- res4b2_branch2b
I0821 12:31:35.717368 14629 net.cpp:405] scale4b2_branch2b -> res4b2_branch2b (in-place)
I0821 12:31:35.717427 14629 layer_factory.hpp:77] Creating layer scale4b2_branch2b
I0821 12:31:35.717571 14629 net.cpp:150] Setting up scale4b2_branch2b
I0821 12:31:35.717582 14629 net.cpp:157] Top shape: 1 256 14 14 (50176)
I0821 12:31:35.717587 14629 net.cpp:165] Memory required for data: 193077260
I0821 12:31:35.717593 14629 layer_factory.hpp:77] Creating layer res4b2_branch2b_relu
I0821 12:31:35.717607 14629 net.cpp:100] Creating Layer res4b2_branch2b_relu
I0821 12:31:35.717612 14629 net.cpp:444] res4b2_branch2b_relu <- res4b2_branch2b
I0821 12:31:35.717617 14629 net.cpp:405] res4b2_branch2b_relu -> res4b2_branch2b (in-place)
I0821 12:31:35.717875 14629 net.cpp:150] Setting up res4b2_branch2b_relu
I0821 12:31:35.717886 14629 net.cpp:157] Top shape: 1 256 14 14 (50176)
I0821 12:31:35.717891 14629 net.cpp:165] Memory required for data: 193277964
I0821 12:31:35.717895 14629 layer_factory.hpp:77] Creating layer res4b2_branch2c
I0821 12:31:35.717908 14629 net.cpp:100] Creating Layer res4b2_branch2c
I0821 12:31:35.717913 14629 net.cpp:444] res4b2_branch2c <- res4b2_branch2b
I0821 12:31:35.717922 14629 net.cpp:418] res4b2_branch2c -> res4b2_branch2c
I0821 12:31:35.720335 14629 net.cpp:150] Setting up res4b2_branch2c
I0821 12:31:35.720351 14629 net.cpp:157] Top shape: 1 1024 14 14 (200704)
I0821 12:31:35.720356 14629 net.cpp:165] Memory required for data: 194080780
I0821 12:31:35.720363 14629 layer_factory.hpp:77] Creating layer bn4b2_branch2c
I0821 12:31:35.720373 14629 net.cpp:100] Creating Layer bn4b2_branch2c
I0821 12:31:35.720379 14629 net.cpp:444] bn4b2_branch2c <- res4b2_branch2c
I0821 12:31:35.720387 14629 net.cpp:405] bn4b2_branch2c -> res4b2_branch2c (in-place)
I0821 12:31:35.720643 14629 net.cpp:150] Setting up bn4b2_branch2c
I0821 12:31:35.720651 14629 net.cpp:157] Top shape: 1 1024 14 14 (200704)
I0821 12:31:35.720655 14629 net.cpp:165] Memory required for data: 194883596
I0821 12:31:35.720664 14629 layer_factory.hpp:77] Creating layer scale4b2_branch2c
I0821 12:31:35.720674 14629 net.cpp:100] Creating Layer scale4b2_branch2c
I0821 12:31:35.720679 14629 net.cpp:444] scale4b2_branch2c <- res4b2_branch2c
I0821 12:31:35.720685 14629 net.cpp:405] scale4b2_branch2c -> res4b2_branch2c (in-place)
I0821 12:31:35.720734 14629 layer_factory.hpp:77] Creating layer scale4b2_branch2c
I0821 12:31:35.720906 14629 net.cpp:150] Setting up scale4b2_branch2c
I0821 12:31:35.720916 14629 net.cpp:157] Top shape: 1 1024 14 14 (200704)
I0821 12:31:35.720921 14629 net.cpp:165] Memory required for data: 195686412
I0821 12:31:35.720927 14629 layer_factory.hpp:77] Creating layer res4b2
I0821 12:31:35.720937 14629 net.cpp:100] Creating Layer res4b2
I0821 12:31:35.720942 14629 net.cpp:444] res4b2 <- res4b1_res4b1_relu_0_split_1
I0821 12:31:35.720947 14629 net.cpp:444] res4b2 <- res4b2_branch2c
I0821 12:31:35.720953 14629 net.cpp:418] res4b2 -> res4b2
I0821 12:31:35.720991 14629 net.cpp:150] Setting up res4b2
I0821 12:31:35.720999 14629 net.cpp:157] Top shape: 1 1024 14 14 (200704)
I0821 12:31:35.721004 14629 net.cpp:165] Memory required for data: 196489228
I0821 12:31:35.721009 14629 layer_factory.hpp:77] Creating layer res4b2_relu
I0821 12:31:35.721016 14629 net.cpp:100] Creating Layer res4b2_relu
I0821 12:31:35.721020 14629 net.cpp:444] res4b2_relu <- res4b2
I0821 12:31:35.721029 14629 net.cpp:405] res4b2_relu -> res4b2 (in-place)
I0821 12:31:35.721678 14629 net.cpp:150] Setting up res4b2_relu
I0821 12:31:35.721698 14629 net.cpp:157] Top shape: 1 1024 14 14 (200704)
I0821 12:31:35.721702 14629 net.cpp:165] Memory required for data: 197292044
I0821 12:31:35.721707 14629 layer_factory.hpp:77] Creating layer res4b2_res4b2_relu_0_split
I0821 12:31:35.721714 14629 net.cpp:100] Creating Layer res4b2_res4b2_relu_0_split
I0821 12:31:35.721719 14629 net.cpp:444] res4b2_res4b2_relu_0_split <- res4b2
I0821 12:31:35.721729 14629 net.cpp:418] res4b2_res4b2_relu_0_split -> res4b2_res4b2_relu_0_split_0
I0821 12:31:35.721738 14629 net.cpp:418] res4b2_res4b2_relu_0_split -> res4b2_res4b2_relu_0_split_1
I0821 12:31:35.721801 14629 net.cpp:150] Setting up res4b2_res4b2_relu_0_split
I0821 12:31:35.721809 14629 net.cpp:157] Top shape: 1 1024 14 14 (200704)
I0821 12:31:35.721814 14629 net.cpp:157] Top shape: 1 1024 14 14 (200704)
I0821 12:31:35.721817 14629 net.cpp:165] Memory required for data: 198897676
I0821 12:31:35.721822 14629 layer_factory.hpp:77] Creating layer res4b3_branch2a
I0821 12:31:35.721840 14629 net.cpp:100] Creating Layer res4b3_branch2a
I0821 12:31:35.721846 14629 net.cpp:444] res4b3_branch2a <- res4b2_res4b2_relu_0_split_0
I0821 12:31:35.721853 14629 net.cpp:418] res4b3_branch2a -> res4b3_branch2a
I0821 12:31:35.723997 14629 net.cpp:150] Setting up res4b3_branch2a
I0821 12:31:35.724014 14629 net.cpp:157] Top shape: 1 256 14 14 (50176)
I0821 12:31:35.724018 14629 net.cpp:165] Memory required for data: 199098380
I0821 12:31:35.724025 14629 layer_factory.hpp:77] Creating layer bn4b3_branch2a
I0821 12:31:35.724036 14629 net.cpp:100] Creating Layer bn4b3_branch2a
I0821 12:31:35.724042 14629 net.cpp:444] bn4b3_branch2a <- res4b3_branch2a
I0821 12:31:35.724050 14629 net.cpp:405] bn4b3_branch2a -> res4b3_branch2a (in-place)
I0821 12:31:35.724308 14629 net.cpp:150] Setting up bn4b3_branch2a
I0821 12:31:35.724318 14629 net.cpp:157] Top shape: 1 256 14 14 (50176)
I0821 12:31:35.724321 14629 net.cpp:165] Memory required for data: 199299084
I0821 12:31:35.724333 14629 layer_factory.hpp:77] Creating layer scale4b3_branch2a
I0821 12:31:35.724342 14629 net.cpp:100] Creating Layer scale4b3_branch2a
I0821 12:31:35.724347 14629 net.cpp:444] scale4b3_branch2a <- res4b3_branch2a
I0821 12:31:35.724354 14629 net.cpp:405] scale4b3_branch2a -> res4b3_branch2a (in-place)
I0821 12:31:35.724411 14629 layer_factory.hpp:77] Creating layer scale4b3_branch2a
I0821 12:31:35.724558 14629 net.cpp:150] Setting up scale4b3_branch2a
I0821 12:31:35.724567 14629 net.cpp:157] Top shape: 1 256 14 14 (50176)
I0821 12:31:35.724571 14629 net.cpp:165] Memory required for data: 199499788
I0821 12:31:35.724578 14629 layer_factory.hpp:77] Creating layer res4b3_branch2a_relu
I0821 12:31:35.724587 14629 net.cpp:100] Creating Layer res4b3_branch2a_relu
I0821 12:31:35.724592 14629 net.cpp:444] res4b3_branch2a_relu <- res4b3_branch2a
I0821 12:31:35.724598 14629 net.cpp:405] res4b3_branch2a_relu -> res4b3_branch2a (in-place)
I0821 12:31:35.725075 14629 net.cpp:150] Setting up res4b3_branch2a_relu
I0821 12:31:35.725090 14629 net.cpp:157] Top shape: 1 256 14 14 (50176)
I0821 12:31:35.725095 14629 net.cpp:165] Memory required for data: 199700492
I0821 12:31:35.725100 14629 layer_factory.hpp:77] Creating layer res4b3_branch2b
I0821 12:31:35.725111 14629 net.cpp:100] Creating Layer res4b3_branch2b
I0821 12:31:35.725116 14629 net.cpp:444] res4b3_branch2b <- res4b3_branch2a
I0821 12:31:35.725124 14629 net.cpp:418] res4b3_branch2b -> res4b3_branch2b
I0821 12:31:35.728628 14629 net.cpp:150] Setting up res4b3_branch2b
I0821 12:31:35.728646 14629 net.cpp:157] Top shape: 1 256 14 14 (50176)
I0821 12:31:35.728652 14629 net.cpp:165] Memory required for data: 199901196
I0821 12:31:35.728659 14629 layer_factory.hpp:77] Creating layer bn4b3_branch2b
I0821 12:31:35.728669 14629 net.cpp:100] Creating Layer bn4b3_branch2b
I0821 12:31:35.728675 14629 net.cpp:444] bn4b3_branch2b <- res4b3_branch2b
I0821 12:31:35.728683 14629 net.cpp:405] bn4b3_branch2b -> res4b3_branch2b (in-place)
I0821 12:31:35.728950 14629 net.cpp:150] Setting up bn4b3_branch2b
I0821 12:31:35.728960 14629 net.cpp:157] Top shape: 1 256 14 14 (50176)
I0821 12:31:35.728963 14629 net.cpp:165] Memory required for data: 200101900
I0821 12:31:35.728972 14629 layer_factory.hpp:77] Creating layer scale4b3_branch2b
I0821 12:31:35.728981 14629 net.cpp:100] Creating Layer scale4b3_branch2b
I0821 12:31:35.728984 14629 net.cpp:444] scale4b3_branch2b <- res4b3_branch2b
I0821 12:31:35.728991 14629 net.cpp:405] scale4b3_branch2b -> res4b3_branch2b (in-place)
I0821 12:31:35.729045 14629 layer_factory.hpp:77] Creating layer scale4b3_branch2b
I0821 12:31:35.729195 14629 net.cpp:150] Setting up scale4b3_branch2b
I0821 12:31:35.729207 14629 net.cpp:157] Top shape: 1 256 14 14 (50176)
I0821 12:31:35.729212 14629 net.cpp:165] Memory required for data: 200302604
I0821 12:31:35.729218 14629 layer_factory.hpp:77] Creating layer res4b3_branch2b_relu
I0821 12:31:35.729224 14629 net.cpp:100] Creating Layer res4b3_branch2b_relu
I0821 12:31:35.729229 14629 net.cpp:444] res4b3_branch2b_relu <- res4b3_branch2b
I0821 12:31:35.729241 14629 net.cpp:405] res4b3_branch2b_relu -> res4b3_branch2b (in-place)
I0821 12:31:35.729524 14629 net.cpp:150] Setting up res4b3_branch2b_relu
I0821 12:31:35.729539 14629 net.cpp:157] Top shape: 1 256 14 14 (50176)
I0821 12:31:35.729543 14629 net.cpp:165] Memory required for data: 200503308
I0821 12:31:35.729548 14629 layer_factory.hpp:77] Creating layer res4b3_branch2c
I0821 12:31:35.729560 14629 net.cpp:100] Creating Layer res4b3_branch2c
I0821 12:31:35.729566 14629 net.cpp:444] res4b3_branch2c <- res4b3_branch2b
I0821 12:31:35.729575 14629 net.cpp:418] res4b3_branch2c -> res4b3_branch2c
I0821 12:31:35.731986 14629 net.cpp:150] Setting up res4b3_branch2c
I0821 12:31:35.732002 14629 net.cpp:157] Top shape: 1 1024 14 14 (200704)
I0821 12:31:35.732007 14629 net.cpp:165] Memory required for data: 201306124
I0821 12:31:35.732013 14629 layer_factory.hpp:77] Creating layer bn4b3_branch2c
I0821 12:31:35.732024 14629 net.cpp:100] Creating Layer bn4b3_branch2c
I0821 12:31:35.732029 14629 net.cpp:444] bn4b3_branch2c <- res4b3_branch2c
I0821 12:31:35.732038 14629 net.cpp:405] bn4b3_branch2c -> res4b3_branch2c (in-place)
I0821 12:31:35.732306 14629 net.cpp:150] Setting up bn4b3_branch2c
I0821 12:31:35.732316 14629 net.cpp:157] Top shape: 1 1024 14 14 (200704)
I0821 12:31:35.732321 14629 net.cpp:165] Memory required for data: 202108940
I0821 12:31:35.732329 14629 layer_factory.hpp:77] Creating layer scale4b3_branch2c
I0821 12:31:35.732343 14629 net.cpp:100] Creating Layer scale4b3_branch2c
I0821 12:31:35.732348 14629 net.cpp:444] scale4b3_branch2c <- res4b3_branch2c
I0821 12:31:35.732355 14629 net.cpp:405] scale4b3_branch2c -> res4b3_branch2c (in-place)
I0821 12:31:35.732409 14629 layer_factory.hpp:77] Creating layer scale4b3_branch2c
I0821 12:31:35.732568 14629 net.cpp:150] Setting up scale4b3_branch2c
I0821 12:31:35.732578 14629 net.cpp:157] Top shape: 1 1024 14 14 (200704)
I0821 12:31:35.732581 14629 net.cpp:165] Memory required for data: 202911756
I0821 12:31:35.732589 14629 layer_factory.hpp:77] Creating layer res4b3
I0821 12:31:35.732601 14629 net.cpp:100] Creating Layer res4b3
I0821 12:31:35.732607 14629 net.cpp:444] res4b3 <- res4b2_res4b2_relu_0_split_1
I0821 12:31:35.732612 14629 net.cpp:444] res4b3 <- res4b3_branch2c
I0821 12:31:35.732620 14629 net.cpp:418] res4b3 -> res4b3
I0821 12:31:35.732656 14629 net.cpp:150] Setting up res4b3
I0821 12:31:35.732663 14629 net.cpp:157] Top shape: 1 1024 14 14 (200704)
I0821 12:31:35.732667 14629 net.cpp:165] Memory required for data: 203714572
I0821 12:31:35.732673 14629 layer_factory.hpp:77] Creating layer res4b3_relu
I0821 12:31:35.732679 14629 net.cpp:100] Creating Layer res4b3_relu
I0821 12:31:35.732684 14629 net.cpp:444] res4b3_relu <- res4b3
I0821 12:31:35.732692 14629 net.cpp:405] res4b3_relu -> res4b3 (in-place)
I0821 12:31:35.733177 14629 net.cpp:150] Setting up res4b3_relu
I0821 12:31:35.733196 14629 net.cpp:157] Top shape: 1 1024 14 14 (200704)
I0821 12:31:35.733199 14629 net.cpp:165] Memory required for data: 204517388
I0821 12:31:35.733204 14629 layer_factory.hpp:77] Creating layer res4b3_res4b3_relu_0_split
I0821 12:31:35.733212 14629 net.cpp:100] Creating Layer res4b3_res4b3_relu_0_split
I0821 12:31:35.733217 14629 net.cpp:444] res4b3_res4b3_relu_0_split <- res4b3
I0821 12:31:35.733227 14629 net.cpp:418] res4b3_res4b3_relu_0_split -> res4b3_res4b3_relu_0_split_0
I0821 12:31:35.733235 14629 net.cpp:418] res4b3_res4b3_relu_0_split -> res4b3_res4b3_relu_0_split_1
I0821 12:31:35.733306 14629 net.cpp:150] Setting up res4b3_res4b3_relu_0_split
I0821 12:31:35.733316 14629 net.cpp:157] Top shape: 1 1024 14 14 (200704)
I0821 12:31:35.733321 14629 net.cpp:157] Top shape: 1 1024 14 14 (200704)
I0821 12:31:35.733325 14629 net.cpp:165] Memory required for data: 206123020
I0821 12:31:35.733330 14629 layer_factory.hpp:77] Creating layer res4b4_branch2a
I0821 12:31:35.733343 14629 net.cpp:100] Creating Layer res4b4_branch2a
I0821 12:31:35.733348 14629 net.cpp:444] res4b4_branch2a <- res4b3_res4b3_relu_0_split_0
I0821 12:31:35.733355 14629 net.cpp:418] res4b4_branch2a -> res4b4_branch2a
I0821 12:31:35.735589 14629 net.cpp:150] Setting up res4b4_branch2a
I0821 12:31:35.735605 14629 net.cpp:157] Top shape: 1 256 14 14 (50176)
I0821 12:31:35.735610 14629 net.cpp:165] Memory required for data: 206323724
I0821 12:31:35.735616 14629 layer_factory.hpp:77] Creating layer bn4b4_branch2a
I0821 12:31:35.735627 14629 net.cpp:100] Creating Layer bn4b4_branch2a
I0821 12:31:35.735632 14629 net.cpp:444] bn4b4_branch2a <- res4b4_branch2a
I0821 12:31:35.735641 14629 net.cpp:405] bn4b4_branch2a -> res4b4_branch2a (in-place)
I0821 12:31:35.735909 14629 net.cpp:150] Setting up bn4b4_branch2a
I0821 12:31:35.735919 14629 net.cpp:157] Top shape: 1 256 14 14 (50176)
I0821 12:31:35.735924 14629 net.cpp:165] Memory required for data: 206524428
I0821 12:31:35.735934 14629 layer_factory.hpp:77] Creating layer scale4b4_branch2a
I0821 12:31:35.735944 14629 net.cpp:100] Creating Layer scale4b4_branch2a
I0821 12:31:35.735949 14629 net.cpp:444] scale4b4_branch2a <- res4b4_branch2a
I0821 12:31:35.735954 14629 net.cpp:405] scale4b4_branch2a -> res4b4_branch2a (in-place)
I0821 12:31:35.736011 14629 layer_factory.hpp:77] Creating layer scale4b4_branch2a
I0821 12:31:35.736181 14629 net.cpp:150] Setting up scale4b4_branch2a
I0821 12:31:35.736191 14629 net.cpp:157] Top shape: 1 256 14 14 (50176)
I0821 12:31:35.736194 14629 net.cpp:165] Memory required for data: 206725132
I0821 12:31:35.736202 14629 layer_factory.hpp:77] Creating layer res4b4_branch2a_relu
I0821 12:31:35.736209 14629 net.cpp:100] Creating Layer res4b4_branch2a_relu
I0821 12:31:35.736214 14629 net.cpp:444] res4b4_branch2a_relu <- res4b4_branch2a
I0821 12:31:35.736222 14629 net.cpp:405] res4b4_branch2a_relu -> res4b4_branch2a (in-place)
I0821 12:31:35.736711 14629 net.cpp:150] Setting up res4b4_branch2a_relu
I0821 12:31:35.736726 14629 net.cpp:157] Top shape: 1 256 14 14 (50176)
I0821 12:31:35.736730 14629 net.cpp:165] Memory required for data: 206925836
I0821 12:31:35.736735 14629 layer_factory.hpp:77] Creating layer res4b4_branch2b
I0821 12:31:35.736747 14629 net.cpp:100] Creating Layer res4b4_branch2b
I0821 12:31:35.736752 14629 net.cpp:444] res4b4_branch2b <- res4b4_branch2a
I0821 12:31:35.736759 14629 net.cpp:418] res4b4_branch2b -> res4b4_branch2b
I0821 12:31:35.740430 14629 net.cpp:150] Setting up res4b4_branch2b
I0821 12:31:35.740450 14629 net.cpp:157] Top shape: 1 256 14 14 (50176)
I0821 12:31:35.740455 14629 net.cpp:165] Memory required for data: 207126540
I0821 12:31:35.740464 14629 layer_factory.hpp:77] Creating layer bn4b4_branch2b
I0821 12:31:35.740473 14629 net.cpp:100] Creating Layer bn4b4_branch2b
I0821 12:31:35.740478 14629 net.cpp:444] bn4b4_branch2b <- res4b4_branch2b
I0821 12:31:35.740486 14629 net.cpp:405] bn4b4_branch2b -> res4b4_branch2b (in-place)
I0821 12:31:35.740758 14629 net.cpp:150] Setting up bn4b4_branch2b
I0821 12:31:35.740769 14629 net.cpp:157] Top shape: 1 256 14 14 (50176)
I0821 12:31:35.740773 14629 net.cpp:165] Memory required for data: 207327244
I0821 12:31:35.740782 14629 layer_factory.hpp:77] Creating layer scale4b4_branch2b
I0821 12:31:35.740789 14629 net.cpp:100] Creating Layer scale4b4_branch2b
I0821 12:31:35.740794 14629 net.cpp:444] scale4b4_branch2b <- res4b4_branch2b
I0821 12:31:35.740803 14629 net.cpp:405] scale4b4_branch2b -> res4b4_branch2b (in-place)
I0821 12:31:35.740856 14629 layer_factory.hpp:77] Creating layer scale4b4_branch2b
I0821 12:31:35.741010 14629 net.cpp:150] Setting up scale4b4_branch2b
I0821 12:31:35.741019 14629 net.cpp:157] Top shape: 1 256 14 14 (50176)
I0821 12:31:35.741024 14629 net.cpp:165] Memory required for data: 207527948
I0821 12:31:35.741030 14629 layer_factory.hpp:77] Creating layer res4b4_branch2b_relu
I0821 12:31:35.741037 14629 net.cpp:100] Creating Layer res4b4_branch2b_relu
I0821 12:31:35.741041 14629 net.cpp:444] res4b4_branch2b_relu <- res4b4_branch2b
I0821 12:31:35.741047 14629 net.cpp:405] res4b4_branch2b_relu -> res4b4_branch2b (in-place)
I0821 12:31:35.741327 14629 net.cpp:150] Setting up res4b4_branch2b_relu
I0821 12:31:35.741341 14629 net.cpp:157] Top shape: 1 256 14 14 (50176)
I0821 12:31:35.741355 14629 net.cpp:165] Memory required for data: 207728652
I0821 12:31:35.741360 14629 layer_factory.hpp:77] Creating layer res4b4_branch2c
I0821 12:31:35.741374 14629 net.cpp:100] Creating Layer res4b4_branch2c
I0821 12:31:35.741379 14629 net.cpp:444] res4b4_branch2c <- res4b4_branch2b
I0821 12:31:35.741400 14629 net.cpp:418] res4b4_branch2c -> res4b4_branch2c
I0821 12:31:35.743880 14629 net.cpp:150] Setting up res4b4_branch2c
I0821 12:31:35.743897 14629 net.cpp:157] Top shape: 1 1024 14 14 (200704)
I0821 12:31:35.743902 14629 net.cpp:165] Memory required for data: 208531468
I0821 12:31:35.743909 14629 layer_factory.hpp:77] Creating layer bn4b4_branch2c
I0821 12:31:35.743919 14629 net.cpp:100] Creating Layer bn4b4_branch2c
I0821 12:31:35.743926 14629 net.cpp:444] bn4b4_branch2c <- res4b4_branch2c
I0821 12:31:35.743935 14629 net.cpp:405] bn4b4_branch2c -> res4b4_branch2c (in-place)
I0821 12:31:35.744204 14629 net.cpp:150] Setting up bn4b4_branch2c
I0821 12:31:35.744213 14629 net.cpp:157] Top shape: 1 1024 14 14 (200704)
I0821 12:31:35.744217 14629 net.cpp:165] Memory required for data: 209334284
I0821 12:31:35.744226 14629 layer_factory.hpp:77] Creating layer scale4b4_branch2c
I0821 12:31:35.744236 14629 net.cpp:100] Creating Layer scale4b4_branch2c
I0821 12:31:35.744241 14629 net.cpp:444] scale4b4_branch2c <- res4b4_branch2c
I0821 12:31:35.744248 14629 net.cpp:405] scale4b4_branch2c -> res4b4_branch2c (in-place)
I0821 12:31:35.744302 14629 layer_factory.hpp:77] Creating layer scale4b4_branch2c
I0821 12:31:35.744463 14629 net.cpp:150] Setting up scale4b4_branch2c
I0821 12:31:35.744473 14629 net.cpp:157] Top shape: 1 1024 14 14 (200704)
I0821 12:31:35.744477 14629 net.cpp:165] Memory required for data: 210137100
I0821 12:31:35.744484 14629 layer_factory.hpp:77] Creating layer res4b4
I0821 12:31:35.744493 14629 net.cpp:100] Creating Layer res4b4
I0821 12:31:35.744498 14629 net.cpp:444] res4b4 <- res4b3_res4b3_relu_0_split_1
I0821 12:31:35.744504 14629 net.cpp:444] res4b4 <- res4b4_branch2c
I0821 12:31:35.744516 14629 net.cpp:418] res4b4 -> res4b4
I0821 12:31:35.744552 14629 net.cpp:150] Setting up res4b4
I0821 12:31:35.744561 14629 net.cpp:157] Top shape: 1 1024 14 14 (200704)
I0821 12:31:35.744565 14629 net.cpp:165] Memory required for data: 210939916
I0821 12:31:35.744571 14629 layer_factory.hpp:77] Creating layer res4b4_relu
I0821 12:31:35.744580 14629 net.cpp:100] Creating Layer res4b4_relu
I0821 12:31:35.744583 14629 net.cpp:444] res4b4_relu <- res4b4
I0821 12:31:35.744590 14629 net.cpp:405] res4b4_relu -> res4b4 (in-place)
I0821 12:31:35.745087 14629 net.cpp:150] Setting up res4b4_relu
I0821 12:31:35.745103 14629 net.cpp:157] Top shape: 1 1024 14 14 (200704)
I0821 12:31:35.745107 14629 net.cpp:165] Memory required for data: 211742732
I0821 12:31:35.745112 14629 layer_factory.hpp:77] Creating layer res4b4_res4b4_relu_0_split
I0821 12:31:35.745121 14629 net.cpp:100] Creating Layer res4b4_res4b4_relu_0_split
I0821 12:31:35.745126 14629 net.cpp:444] res4b4_res4b4_relu_0_split <- res4b4
I0821 12:31:35.745134 14629 net.cpp:418] res4b4_res4b4_relu_0_split -> res4b4_res4b4_relu_0_split_0
I0821 12:31:35.745143 14629 net.cpp:418] res4b4_res4b4_relu_0_split -> res4b4_res4b4_relu_0_split_1
I0821 12:31:35.745208 14629 net.cpp:150] Setting up res4b4_res4b4_relu_0_split
I0821 12:31:35.745216 14629 net.cpp:157] Top shape: 1 1024 14 14 (200704)
I0821 12:31:35.745221 14629 net.cpp:157] Top shape: 1 1024 14 14 (200704)
I0821 12:31:35.745225 14629 net.cpp:165] Memory required for data: 213348364
I0821 12:31:35.745229 14629 layer_factory.hpp:77] Creating layer res4b5_branch2a
I0821 12:31:35.745239 14629 net.cpp:100] Creating Layer res4b5_branch2a
I0821 12:31:35.745244 14629 net.cpp:444] res4b5_branch2a <- res4b4_res4b4_relu_0_split_0
I0821 12:31:35.745254 14629 net.cpp:418] res4b5_branch2a -> res4b5_branch2a
I0821 12:31:35.747503 14629 net.cpp:150] Setting up res4b5_branch2a
I0821 12:31:35.747521 14629 net.cpp:157] Top shape: 1 256 14 14 (50176)
I0821 12:31:35.747526 14629 net.cpp:165] Memory required for data: 213549068
I0821 12:31:35.747539 14629 layer_factory.hpp:77] Creating layer bn4b5_branch2a
I0821 12:31:35.747551 14629 net.cpp:100] Creating Layer bn4b5_branch2a
I0821 12:31:35.747556 14629 net.cpp:444] bn4b5_branch2a <- res4b5_branch2a
I0821 12:31:35.747565 14629 net.cpp:405] bn4b5_branch2a -> res4b5_branch2a (in-place)
I0821 12:31:35.747841 14629 net.cpp:150] Setting up bn4b5_branch2a
I0821 12:31:35.747851 14629 net.cpp:157] Top shape: 1 256 14 14 (50176)
I0821 12:31:35.747855 14629 net.cpp:165] Memory required for data: 213749772
I0821 12:31:35.747864 14629 layer_factory.hpp:77] Creating layer scale4b5_branch2a
I0821 12:31:35.747874 14629 net.cpp:100] Creating Layer scale4b5_branch2a
I0821 12:31:35.747879 14629 net.cpp:444] scale4b5_branch2a <- res4b5_branch2a
I0821 12:31:35.747885 14629 net.cpp:405] scale4b5_branch2a -> res4b5_branch2a (in-place)
I0821 12:31:35.747943 14629 layer_factory.hpp:77] Creating layer scale4b5_branch2a
I0821 12:31:35.748100 14629 net.cpp:150] Setting up scale4b5_branch2a
I0821 12:31:35.748111 14629 net.cpp:157] Top shape: 1 256 14 14 (50176)
I0821 12:31:35.748114 14629 net.cpp:165] Memory required for data: 213950476
I0821 12:31:35.748121 14629 layer_factory.hpp:77] Creating layer res4b5_branch2a_relu
I0821 12:31:35.748131 14629 net.cpp:100] Creating Layer res4b5_branch2a_relu
I0821 12:31:35.748134 14629 net.cpp:444] res4b5_branch2a_relu <- res4b5_branch2a
I0821 12:31:35.748140 14629 net.cpp:405] res4b5_branch2a_relu -> res4b5_branch2a (in-place)
I0821 12:31:35.748634 14629 net.cpp:150] Setting up res4b5_branch2a_relu
I0821 12:31:35.748649 14629 net.cpp:157] Top shape: 1 256 14 14 (50176)
I0821 12:31:35.748654 14629 net.cpp:165] Memory required for data: 214151180
I0821 12:31:35.748659 14629 layer_factory.hpp:77] Creating layer res4b5_branch2b
I0821 12:31:35.748670 14629 net.cpp:100] Creating Layer res4b5_branch2b
I0821 12:31:35.748675 14629 net.cpp:444] res4b5_branch2b <- res4b5_branch2a
I0821 12:31:35.748685 14629 net.cpp:418] res4b5_branch2b -> res4b5_branch2b
I0821 12:31:35.752202 14629 net.cpp:150] Setting up res4b5_branch2b
I0821 12:31:35.752220 14629 net.cpp:157] Top shape: 1 256 14 14 (50176)
I0821 12:31:35.752225 14629 net.cpp:165] Memory required for data: 214351884
I0821 12:31:35.752234 14629 layer_factory.hpp:77] Creating layer bn4b5_branch2b
I0821 12:31:35.752245 14629 net.cpp:100] Creating Layer bn4b5_branch2b
I0821 12:31:35.752250 14629 net.cpp:444] bn4b5_branch2b <- res4b5_branch2b
I0821 12:31:35.752259 14629 net.cpp:405] bn4b5_branch2b -> res4b5_branch2b (in-place)
I0821 12:31:35.752535 14629 net.cpp:150] Setting up bn4b5_branch2b
I0821 12:31:35.752545 14629 net.cpp:157] Top shape: 1 256 14 14 (50176)
I0821 12:31:35.752549 14629 net.cpp:165] Memory required for data: 214552588
I0821 12:31:35.752558 14629 layer_factory.hpp:77] Creating layer scale4b5_branch2b
I0821 12:31:35.752565 14629 net.cpp:100] Creating Layer scale4b5_branch2b
I0821 12:31:35.752570 14629 net.cpp:444] scale4b5_branch2b <- res4b5_branch2b
I0821 12:31:35.752576 14629 net.cpp:405] scale4b5_branch2b -> res4b5_branch2b (in-place)
I0821 12:31:35.752634 14629 layer_factory.hpp:77] Creating layer scale4b5_branch2b
I0821 12:31:35.752792 14629 net.cpp:150] Setting up scale4b5_branch2b
I0821 12:31:35.752802 14629 net.cpp:157] Top shape: 1 256 14 14 (50176)
I0821 12:31:35.752806 14629 net.cpp:165] Memory required for data: 214753292
I0821 12:31:35.752813 14629 layer_factory.hpp:77] Creating layer res4b5_branch2b_relu
I0821 12:31:35.752822 14629 net.cpp:100] Creating Layer res4b5_branch2b_relu
I0821 12:31:35.752827 14629 net.cpp:444] res4b5_branch2b_relu <- res4b5_branch2b
I0821 12:31:35.752833 14629 net.cpp:405] res4b5_branch2b_relu -> res4b5_branch2b (in-place)
I0821 12:31:35.753100 14629 net.cpp:150] Setting up res4b5_branch2b_relu
I0821 12:31:35.753113 14629 net.cpp:157] Top shape: 1 256 14 14 (50176)
I0821 12:31:35.753118 14629 net.cpp:165] Memory required for data: 214953996
I0821 12:31:35.753123 14629 layer_factory.hpp:77] Creating layer res4b5_branch2c
I0821 12:31:35.753136 14629 net.cpp:100] Creating Layer res4b5_branch2c
I0821 12:31:35.753151 14629 net.cpp:444] res4b5_branch2c <- res4b5_branch2b
I0821 12:31:35.753161 14629 net.cpp:418] res4b5_branch2c -> res4b5_branch2c
I0821 12:31:35.755580 14629 net.cpp:150] Setting up res4b5_branch2c
I0821 12:31:35.755599 14629 net.cpp:157] Top shape: 1 1024 14 14 (200704)
I0821 12:31:35.755604 14629 net.cpp:165] Memory required for data: 215756812
I0821 12:31:35.755610 14629 layer_factory.hpp:77] Creating layer bn4b5_branch2c
I0821 12:31:35.755620 14629 net.cpp:100] Creating Layer bn4b5_branch2c
I0821 12:31:35.755626 14629 net.cpp:444] bn4b5_branch2c <- res4b5_branch2c
I0821 12:31:35.755635 14629 net.cpp:405] bn4b5_branch2c -> res4b5_branch2c (in-place)
I0821 12:31:35.755908 14629 net.cpp:150] Setting up bn4b5_branch2c
I0821 12:31:35.755918 14629 net.cpp:157] Top shape: 1 1024 14 14 (200704)
I0821 12:31:35.755923 14629 net.cpp:165] Memory required for data: 216559628
I0821 12:31:35.755931 14629 layer_factory.hpp:77] Creating layer scale4b5_branch2c
I0821 12:31:35.755940 14629 net.cpp:100] Creating Layer scale4b5_branch2c
I0821 12:31:35.755945 14629 net.cpp:444] scale4b5_branch2c <- res4b5_branch2c
I0821 12:31:35.755951 14629 net.cpp:405] scale4b5_branch2c -> res4b5_branch2c (in-place)
I0821 12:31:35.756006 14629 layer_factory.hpp:77] Creating layer scale4b5_branch2c
I0821 12:31:35.756176 14629 net.cpp:150] Setting up scale4b5_branch2c
I0821 12:31:35.756186 14629 net.cpp:157] Top shape: 1 1024 14 14 (200704)
I0821 12:31:35.756191 14629 net.cpp:165] Memory required for data: 217362444
I0821 12:31:35.756217 14629 layer_factory.hpp:77] Creating layer res4b5
I0821 12:31:35.756224 14629 net.cpp:100] Creating Layer res4b5
I0821 12:31:35.756229 14629 net.cpp:444] res4b5 <- res4b4_res4b4_relu_0_split_1
I0821 12:31:35.756235 14629 net.cpp:444] res4b5 <- res4b5_branch2c
I0821 12:31:35.756242 14629 net.cpp:418] res4b5 -> res4b5
I0821 12:31:35.756279 14629 net.cpp:150] Setting up res4b5
I0821 12:31:35.756287 14629 net.cpp:157] Top shape: 1 1024 14 14 (200704)
I0821 12:31:35.756291 14629 net.cpp:165] Memory required for data: 218165260
I0821 12:31:35.756297 14629 layer_factory.hpp:77] Creating layer res4b5_relu
I0821 12:31:35.756304 14629 net.cpp:100] Creating Layer res4b5_relu
I0821 12:31:35.756309 14629 net.cpp:444] res4b5_relu <- res4b5
I0821 12:31:35.756316 14629 net.cpp:405] res4b5_relu -> res4b5 (in-place)
I0821 12:31:35.756827 14629 net.cpp:150] Setting up res4b5_relu
I0821 12:31:35.756844 14629 net.cpp:157] Top shape: 1 1024 14 14 (200704)
I0821 12:31:35.756850 14629 net.cpp:165] Memory required for data: 218968076
I0821 12:31:35.756855 14629 layer_factory.hpp:77] Creating layer res4b5_res4b5_relu_0_split
I0821 12:31:35.756862 14629 net.cpp:100] Creating Layer res4b5_res4b5_relu_0_split
I0821 12:31:35.756867 14629 net.cpp:444] res4b5_res4b5_relu_0_split <- res4b5
I0821 12:31:35.756877 14629 net.cpp:418] res4b5_res4b5_relu_0_split -> res4b5_res4b5_relu_0_split_0
I0821 12:31:35.756886 14629 net.cpp:418] res4b5_res4b5_relu_0_split -> res4b5_res4b5_relu_0_split_1
I0821 12:31:35.756974 14629 net.cpp:150] Setting up res4b5_res4b5_relu_0_split
I0821 12:31:35.756983 14629 net.cpp:157] Top shape: 1 1024 14 14 (200704)
I0821 12:31:35.756989 14629 net.cpp:157] Top shape: 1 1024 14 14 (200704)
I0821 12:31:35.756992 14629 net.cpp:165] Memory required for data: 220573708
I0821 12:31:35.757007 14629 layer_factory.hpp:77] Creating layer res4b6_branch2a
I0821 12:31:35.757020 14629 net.cpp:100] Creating Layer res4b6_branch2a
I0821 12:31:35.757025 14629 net.cpp:444] res4b6_branch2a <- res4b5_res4b5_relu_0_split_0
I0821 12:31:35.757032 14629 net.cpp:418] res4b6_branch2a -> res4b6_branch2a
I0821 12:31:35.759200 14629 net.cpp:150] Setting up res4b6_branch2a
I0821 12:31:35.759218 14629 net.cpp:157] Top shape: 1 256 14 14 (50176)
I0821 12:31:35.759223 14629 net.cpp:165] Memory required for data: 220774412
I0821 12:31:35.759230 14629 layer_factory.hpp:77] Creating layer bn4b6_branch2a
I0821 12:31:35.759243 14629 net.cpp:100] Creating Layer bn4b6_branch2a
I0821 12:31:35.759248 14629 net.cpp:444] bn4b6_branch2a <- res4b6_branch2a
I0821 12:31:35.759263 14629 net.cpp:405] bn4b6_branch2a -> res4b6_branch2a (in-place)
I0821 12:31:35.759546 14629 net.cpp:150] Setting up bn4b6_branch2a
I0821 12:31:35.759557 14629 net.cpp:157] Top shape: 1 256 14 14 (50176)
I0821 12:31:35.759560 14629 net.cpp:165] Memory required for data: 220975116
I0821 12:31:35.759568 14629 layer_factory.hpp:77] Creating layer scale4b6_branch2a
I0821 12:31:35.759577 14629 net.cpp:100] Creating Layer scale4b6_branch2a
I0821 12:31:35.759582 14629 net.cpp:444] scale4b6_branch2a <- res4b6_branch2a
I0821 12:31:35.759590 14629 net.cpp:405] scale4b6_branch2a -> res4b6_branch2a (in-place)
I0821 12:31:35.759649 14629 layer_factory.hpp:77] Creating layer scale4b6_branch2a
I0821 12:31:35.759807 14629 net.cpp:150] Setting up scale4b6_branch2a
I0821 12:31:35.759817 14629 net.cpp:157] Top shape: 1 256 14 14 (50176)
I0821 12:31:35.759821 14629 net.cpp:165] Memory required for data: 221175820
I0821 12:31:35.759829 14629 layer_factory.hpp:77] Creating layer res4b6_branch2a_relu
I0821 12:31:35.759835 14629 net.cpp:100] Creating Layer res4b6_branch2a_relu
I0821 12:31:35.759840 14629 net.cpp:444] res4b6_branch2a_relu <- res4b6_branch2a
I0821 12:31:35.759848 14629 net.cpp:405] res4b6_branch2a_relu -> res4b6_branch2a (in-place)
I0821 12:31:35.760359 14629 net.cpp:150] Setting up res4b6_branch2a_relu
I0821 12:31:35.760373 14629 net.cpp:157] Top shape: 1 256 14 14 (50176)
I0821 12:31:35.760378 14629 net.cpp:165] Memory required for data: 221376524
I0821 12:31:35.760382 14629 layer_factory.hpp:77] Creating layer res4b6_branch2b
I0821 12:31:35.760406 14629 net.cpp:100] Creating Layer res4b6_branch2b
I0821 12:31:35.760411 14629 net.cpp:444] res4b6_branch2b <- res4b6_branch2a
I0821 12:31:35.760418 14629 net.cpp:418] res4b6_branch2b -> res4b6_branch2b
I0821 12:31:35.763989 14629 net.cpp:150] Setting up res4b6_branch2b
I0821 12:31:35.764008 14629 net.cpp:157] Top shape: 1 256 14 14 (50176)
I0821 12:31:35.764012 14629 net.cpp:165] Memory required for data: 221577228
I0821 12:31:35.764021 14629 layer_factory.hpp:77] Creating layer bn4b6_branch2b
I0821 12:31:35.764032 14629 net.cpp:100] Creating Layer bn4b6_branch2b
I0821 12:31:35.764037 14629 net.cpp:444] bn4b6_branch2b <- res4b6_branch2b
I0821 12:31:35.764045 14629 net.cpp:405] bn4b6_branch2b -> res4b6_branch2b (in-place)
I0821 12:31:35.764333 14629 net.cpp:150] Setting up bn4b6_branch2b
I0821 12:31:35.764343 14629 net.cpp:157] Top shape: 1 256 14 14 (50176)
I0821 12:31:35.764348 14629 net.cpp:165] Memory required for data: 221777932
I0821 12:31:35.764358 14629 layer_factory.hpp:77] Creating layer scale4b6_branch2b
I0821 12:31:35.764367 14629 net.cpp:100] Creating Layer scale4b6_branch2b
I0821 12:31:35.764372 14629 net.cpp:444] scale4b6_branch2b <- res4b6_branch2b
I0821 12:31:35.764379 14629 net.cpp:405] scale4b6_branch2b -> res4b6_branch2b (in-place)
I0821 12:31:35.764441 14629 layer_factory.hpp:77] Creating layer scale4b6_branch2b
I0821 12:31:35.764605 14629 net.cpp:150] Setting up scale4b6_branch2b
I0821 12:31:35.764616 14629 net.cpp:157] Top shape: 1 256 14 14 (50176)
I0821 12:31:35.764619 14629 net.cpp:165] Memory required for data: 221978636
I0821 12:31:35.764626 14629 layer_factory.hpp:77] Creating layer res4b6_branch2b_relu
I0821 12:31:35.764632 14629 net.cpp:100] Creating Layer res4b6_branch2b_relu
I0821 12:31:35.764637 14629 net.cpp:444] res4b6_branch2b_relu <- res4b6_branch2b
I0821 12:31:35.764645 14629 net.cpp:405] res4b6_branch2b_relu -> res4b6_branch2b (in-place)
I0821 12:31:35.764906 14629 net.cpp:150] Setting up res4b6_branch2b_relu
I0821 12:31:35.764919 14629 net.cpp:157] Top shape: 1 256 14 14 (50176)
I0821 12:31:35.764922 14629 net.cpp:165] Memory required for data: 222179340
I0821 12:31:35.764927 14629 layer_factory.hpp:77] Creating layer res4b6_branch2c
I0821 12:31:35.764940 14629 net.cpp:100] Creating Layer res4b6_branch2c
I0821 12:31:35.764945 14629 net.cpp:444] res4b6_branch2c <- res4b6_branch2b
I0821 12:31:35.764952 14629 net.cpp:418] res4b6_branch2c -> res4b6_branch2c
I0821 12:31:35.767470 14629 net.cpp:150] Setting up res4b6_branch2c
I0821 12:31:35.767494 14629 net.cpp:157] Top shape: 1 1024 14 14 (200704)
I0821 12:31:35.767500 14629 net.cpp:165] Memory required for data: 222982156
I0821 12:31:35.767508 14629 layer_factory.hpp:77] Creating layer bn4b6_branch2c
I0821 12:31:35.767515 14629 net.cpp:100] Creating Layer bn4b6_branch2c
I0821 12:31:35.767520 14629 net.cpp:444] bn4b6_branch2c <- res4b6_branch2c
I0821 12:31:35.767529 14629 net.cpp:405] bn4b6_branch2c -> res4b6_branch2c (in-place)
I0821 12:31:35.767815 14629 net.cpp:150] Setting up bn4b6_branch2c
I0821 12:31:35.767825 14629 net.cpp:157] Top shape: 1 1024 14 14 (200704)
I0821 12:31:35.767829 14629 net.cpp:165] Memory required for data: 223784972
I0821 12:31:35.767838 14629 layer_factory.hpp:77] Creating layer scale4b6_branch2c
I0821 12:31:35.767845 14629 net.cpp:100] Creating Layer scale4b6_branch2c
I0821 12:31:35.767850 14629 net.cpp:444] scale4b6_branch2c <- res4b6_branch2c
I0821 12:31:35.767858 14629 net.cpp:405] scale4b6_branch2c -> res4b6_branch2c (in-place)
I0821 12:31:35.767911 14629 layer_factory.hpp:77] Creating layer scale4b6_branch2c
I0821 12:31:35.768086 14629 net.cpp:150] Setting up scale4b6_branch2c
I0821 12:31:35.768096 14629 net.cpp:157] Top shape: 1 1024 14 14 (200704)
I0821 12:31:35.768100 14629 net.cpp:165] Memory required for data: 224587788
I0821 12:31:35.768107 14629 layer_factory.hpp:77] Creating layer res4b6
I0821 12:31:35.768115 14629 net.cpp:100] Creating Layer res4b6
I0821 12:31:35.768119 14629 net.cpp:444] res4b6 <- res4b5_res4b5_relu_0_split_1
I0821 12:31:35.768124 14629 net.cpp:444] res4b6 <- res4b6_branch2c
I0821 12:31:35.768136 14629 net.cpp:418] res4b6 -> res4b6
I0821 12:31:35.768175 14629 net.cpp:150] Setting up res4b6
I0821 12:31:35.768187 14629 net.cpp:157] Top shape: 1 1024 14 14 (200704)
I0821 12:31:35.768190 14629 net.cpp:165] Memory required for data: 225390604
I0821 12:31:35.768196 14629 layer_factory.hpp:77] Creating layer res4b6_relu
I0821 12:31:35.768203 14629 net.cpp:100] Creating Layer res4b6_relu
I0821 12:31:35.768208 14629 net.cpp:444] res4b6_relu <- res4b6
I0821 12:31:35.768213 14629 net.cpp:405] res4b6_relu -> res4b6 (in-place)
I0821 12:31:35.768750 14629 net.cpp:150] Setting up res4b6_relu
I0821 12:31:35.768766 14629 net.cpp:157] Top shape: 1 1024 14 14 (200704)
I0821 12:31:35.768771 14629 net.cpp:165] Memory required for data: 226193420
I0821 12:31:35.768775 14629 layer_factory.hpp:77] Creating layer res4b6_res4b6_relu_0_split
I0821 12:31:35.768785 14629 net.cpp:100] Creating Layer res4b6_res4b6_relu_0_split
I0821 12:31:35.768790 14629 net.cpp:444] res4b6_res4b6_relu_0_split <- res4b6
I0821 12:31:35.768797 14629 net.cpp:418] res4b6_res4b6_relu_0_split -> res4b6_res4b6_relu_0_split_0
I0821 12:31:35.768806 14629 net.cpp:418] res4b6_res4b6_relu_0_split -> res4b6_res4b6_relu_0_split_1
I0821 12:31:35.768877 14629 net.cpp:150] Setting up res4b6_res4b6_relu_0_split
I0821 12:31:35.768885 14629 net.cpp:157] Top shape: 1 1024 14 14 (200704)
I0821 12:31:35.768891 14629 net.cpp:157] Top shape: 1 1024 14 14 (200704)
I0821 12:31:35.768894 14629 net.cpp:165] Memory required for data: 227799052
I0821 12:31:35.768899 14629 layer_factory.hpp:77] Creating layer res4b7_branch2a
I0821 12:31:35.768910 14629 net.cpp:100] Creating Layer res4b7_branch2a
I0821 12:31:35.768915 14629 net.cpp:444] res4b7_branch2a <- res4b6_res4b6_relu_0_split_0
…
I0821 12:31:35.944555 14629 net.cpp:150] Setting up scale4b21_branch2b
I0821 12:31:35.944563 14629 net.cpp:157] Top shape: 1 256 14 14 (50176)
I0821 12:31:35.944567 14629 net.cpp:165] Memory required for data: 330358796
I0821 12:31:35.944574 14629 layer_factory.hpp:77] Creating layer res4b21_branch2b_relu
I0821 12:31:35.944583 14629 net.cpp:100] Creating Layer res4b21_branch2b_relu
I0821 12:31:35.944588 14629 net.cpp:444] res4b21_branch2b_relu <- res4b21_branch2b
I0821 12:31:35.944597 14629 net.cpp:405] res4b21_branch2b_relu -> res4b21_branch2b (in-place)
I0821 12:31:35.944880 14629 net.cpp:150] Setting up res4b21_branch2b_relu
I0821 12:31:35.944900 14629 net.cpp:157] Top shape: 1 256 14 14 (50176)
I0821 12:31:35.944905 14629 net.cpp:165] Memory required for data: 330559500
I0821 12:31:35.944908 14629 layer_factory.hpp:77] Creating layer res4b21_branch2c
I0821 12:31:35.944919 14629 net.cpp:100] Creating Layer res4b21_branch2c
I0821 12:31:35.944924 14629 net.cpp:444] res4b21_branch2c <- res4b21_branch2b
I0821 12:31:35.944933 14629 net.cpp:418] res4b21_branch2c -> res4b21_branch2c
I0821 12:31:35.947643 14629 net.cpp:150] Setting up res4b21_branch2c
I0821 12:31:35.947660 14629 net.cpp:157] Top shape: 1 1024 14 14 (200704)
I0821 12:31:35.947665 14629 net.cpp:165] Memory required for data: 331362316
I0821 12:31:35.947671 14629 layer_factory.hpp:77] Creating layer bn4b21_branch2c
I0821 12:31:35.947680 14629 net.cpp:100] Creating Layer bn4b21_branch2c
I0821 12:31:35.947685 14629 net.cpp:444] bn4b21_branch2c <- res4b21_branch2c
I0821 12:31:35.947695 14629 net.cpp:405] bn4b21_branch2c -> res4b21_branch2c (in-place)
I0821 12:31:35.947999 14629 net.cpp:150] Setting up bn4b21_branch2c
I0821 12:31:35.948009 14629 net.cpp:157] Top shape: 1 1024 14 14 (200704)
I0821 12:31:35.948014 14629 net.cpp:165] Memory required for data: 332165132
I0821 12:31:35.948021 14629 layer_factory.hpp:77] Creating layer scale4b21_branch2c
I0821 12:31:35.948029 14629 net.cpp:100] Creating Layer scale4b21_branch2c
I0821 12:31:35.948034 14629 net.cpp:444] scale4b21_branch2c <- res4b21_branch2c
I0821 12:31:35.948042 14629 net.cpp:405] scale4b21_branch2c -> res4b21_branch2c (in-place)
I0821 12:31:35.948103 14629 layer_factory.hpp:77] Creating layer scale4b21_branch2c
I0821 12:31:35.948287 14629 net.cpp:150] Setting up scale4b21_branch2c
I0821 12:31:35.948297 14629 net.cpp:157] Top shape: 1 1024 14 14 (200704)
I0821 12:31:35.948300 14629 net.cpp:165] Memory required for data: 332967948
I0821 12:31:35.948307 14629 layer_factory.hpp:77] Creating layer res4b21
I0821 12:31:35.948313 14629 net.cpp:100] Creating Layer res4b21
I0821 12:31:35.948318 14629 net.cpp:444] res4b21 <- res4b20_res4b20_relu_0_split_1
I0821 12:31:35.948323 14629 net.cpp:444] res4b21 <- res4b21_branch2c
I0821 12:31:35.948331 14629 net.cpp:418] res4b21 -> res4b21
I0821 12:31:35.948375 14629 net.cpp:150] Setting up res4b21
I0821 12:31:35.948385 14629 net.cpp:157] Top shape: 1 1024 14 14 (200704)
I0821 12:31:35.948390 14629 net.cpp:165] Memory required for data: 333770764
I0821 12:31:35.948406 14629 layer_factory.hpp:77] Creating layer res4b21_relu
I0821 12:31:35.948413 14629 net.cpp:100] Creating Layer res4b21_relu
I0821 12:31:35.948427 14629 net.cpp:444] res4b21_relu <- res4b21
I0821 12:31:35.948433 14629 net.cpp:405] res4b21_relu -> res4b21 (in-place)
I0821 12:31:35.948982 14629 net.cpp:150] Setting up res4b21_relu
I0821 12:31:35.948997 14629 net.cpp:157] Top shape: 1 1024 14 14 (200704)
I0821 12:31:35.949002 14629 net.cpp:165] Memory required for data: 334573580
I0821 12:31:35.949005 14629 layer_factory.hpp:77] Creating layer res4b21_res4b21_relu_0_split
I0821 12:31:35.949014 14629 net.cpp:100] Creating Layer res4b21_res4b21_relu_0_split
I0821 12:31:35.949019 14629 net.cpp:444] res4b21_res4b21_relu_0_split <- res4b21
I0821 12:31:35.949033 14629 net.cpp:418] res4b21_res4b21_relu_0_split -> res4b21_res4b21_relu_0_split_0
I0821 12:31:35.949041 14629 net.cpp:418] res4b21_res4b21_relu_0_split -> res4b21_res4b21_relu_0_split_1
I0821 12:31:35.949101 14629 net.cpp:150] Setting up res4b21_res4b21_relu_0_split
I0821 12:31:35.949110 14629 net.cpp:157] Top shape: 1 1024 14 14 (200704)
I0821 12:31:35.949113 14629 net.cpp:157] Top shape: 1 1024 14 14 (200704)
I0821 12:31:35.949117 14629 net.cpp:165] Memory required for data: 336179212
I0821 12:31:35.949132 14629 layer_factory.hpp:77] Creating layer res4b22_branch2a
I0821 12:31:35.949142 14629 net.cpp:100] Creating Layer res4b22_branch2a
I0821 12:31:35.949148 14629 net.cpp:444] res4b22_branch2a <- res4b21_res4b21_relu_0_split_0
I0821 12:31:35.949156 14629 net.cpp:418] res4b22_branch2a -> res4b22_branch2a
I0821 12:31:35.951571 14629 net.cpp:150] Setting up res4b22_branch2a
I0821 12:31:35.951589 14629 net.cpp:157] Top shape: 1 256 14 14 (50176)
I0821 12:31:35.951593 14629 net.cpp:165] Memory required for data: 336379916
I0821 12:31:35.951601 14629 layer_factory.hpp:77] Creating layer bn4b22_branch2a
I0821 12:31:35.951612 14629 net.cpp:100] Creating Layer bn4b22_branch2a
I0821 12:31:35.951618 14629 net.cpp:444] bn4b22_branch2a <- res4b22_branch2a
I0821 12:31:35.951624 14629 net.cpp:405] bn4b22_branch2a -> res4b22_branch2a (in-place)
I0821 12:31:35.951898 14629 net.cpp:150] Setting up bn4b22_branch2a
I0821 12:31:35.951908 14629 net.cpp:157] Top shape: 1 256 14 14 (50176)
I0821 12:31:35.951912 14629 net.cpp:165] Memory required for data: 336580620
I0821 12:31:35.951920 14629 layer_factory.hpp:77] Creating layer scale4b22_branch2a
I0821 12:31:35.951927 14629 net.cpp:100] Creating Layer scale4b22_branch2a
I0821 12:31:35.951932 14629 net.cpp:444] scale4b22_branch2a <- res4b22_branch2a
I0821 12:31:35.951941 14629 net.cpp:405] scale4b22_branch2a -> res4b22_branch2a (in-place)
I0821 12:31:35.951992 14629 layer_factory.hpp:77] Creating layer scale4b22_branch2a
I0821 12:31:35.952134 14629 net.cpp:150] Setting up scale4b22_branch2a
I0821 12:31:35.952143 14629 net.cpp:157] Top shape: 1 256 14 14 (50176)
I0821 12:31:35.952147 14629 net.cpp:165] Memory required for data: 336781324
I0821 12:31:35.952153 14629 layer_factory.hpp:77] Creating layer res4b22_branch2a_relu
I0821 12:31:35.952159 14629 net.cpp:100] Creating Layer res4b22_branch2a_relu
I0821 12:31:35.952163 14629 net.cpp:444] res4b22_branch2a_relu <- res4b22_branch2a
I0821 12:31:35.952172 14629 net.cpp:405] res4b22_branch2a_relu -> res4b22_branch2a (in-place)
I0821 12:31:35.952679 14629 net.cpp:150] Setting up res4b22_branch2a_relu
I0821 12:31:35.952693 14629 net.cpp:157] Top shape: 1 256 14 14 (50176)
I0821 12:31:35.952697 14629 net.cpp:165] Memory required for data: 336982028
I0821 12:31:35.952702 14629 layer_factory.hpp:77] Creating layer res4b22_branch2b
I0821 12:31:35.952713 14629 net.cpp:100] Creating Layer res4b22_branch2b
I0821 12:31:35.952718 14629 net.cpp:444] res4b22_branch2b <- res4b22_branch2a
I0821 12:31:35.952725 14629 net.cpp:418] res4b22_branch2b -> res4b22_branch2b
I0821 12:31:35.956446 14629 net.cpp:150] Setting up res4b22_branch2b
I0821 12:31:35.956465 14629 net.cpp:157] Top shape: 1 256 14 14 (50176)
I0821 12:31:35.956470 14629 net.cpp:165] Memory required for data: 337182732
I0821 12:31:35.956480 14629 layer_factory.hpp:77] Creating layer bn4b22_branch2b
I0821 12:31:35.956490 14629 net.cpp:100] Creating Layer bn4b22_branch2b
I0821 12:31:35.956496 14629 net.cpp:444] bn4b22_branch2b <- res4b22_branch2b
I0821 12:31:35.956509 14629 net.cpp:405] bn4b22_branch2b -> res4b22_branch2b (in-place)
I0821 12:31:35.956792 14629 net.cpp:150] Setting up bn4b22_branch2b
I0821 12:31:35.956802 14629 net.cpp:157] Top shape: 1 256 14 14 (50176)
I0821 12:31:35.956806 14629 net.cpp:165] Memory required for data: 337383436
I0821 12:31:35.956815 14629 layer_factory.hpp:77] Creating layer scale4b22_branch2b
I0821 12:31:35.956822 14629 net.cpp:100] Creating Layer scale4b22_branch2b
I0821 12:31:35.956826 14629 net.cpp:444] scale4b22_branch2b <- res4b22_branch2b
I0821 12:31:35.956845 14629 net.cpp:405] scale4b22_branch2b -> res4b22_branch2b (in-place)
I0821 12:31:35.956904 14629 layer_factory.hpp:77] Creating layer scale4b22_branch2b
I0821 12:31:35.957062 14629 net.cpp:150] Setting up scale4b22_branch2b
I0821 12:31:35.957072 14629 net.cpp:157] Top shape: 1 256 14 14 (50176)
I0821 12:31:35.957075 14629 net.cpp:165] Memory required for data: 337584140
I0821 12:31:35.957082 14629 layer_factory.hpp:77] Creating layer res4b22_branch2b_relu
I0821 12:31:35.957089 14629 net.cpp:100] Creating Layer res4b22_branch2b_relu
I0821 12:31:35.957093 14629 net.cpp:444] res4b22_branch2b_relu <- res4b22_branch2b
I0821 12:31:35.957103 14629 net.cpp:405] res4b22_branch2b_relu -> res4b22_branch2b (in-place)
I0821 12:31:35.957438 14629 net.cpp:150] Setting up res4b22_branch2b_relu
I0821 12:31:35.957453 14629 net.cpp:157] Top shape: 1 256 14 14 (50176)
I0821 12:31:35.957458 14629 net.cpp:165] Memory required for data: 337784844
I0821 12:31:35.957463 14629 layer_factory.hpp:77] Creating layer res4b22_branch2c
I0821 12:31:35.957479 14629 net.cpp:100] Creating Layer res4b22_branch2c
I0821 12:31:35.957485 14629 net.cpp:444] res4b22_branch2c <- res4b22_branch2b
I0821 12:31:35.957501 14629 net.cpp:418] res4b22_branch2c -> res4b22_branch2c
I0821 12:31:35.960233 14629 net.cpp:150] Setting up res4b22_branch2c
I0821 12:31:35.960252 14629 net.cpp:157] Top shape: 1 1024 14 14 (200704)
I0821 12:31:35.960256 14629 net.cpp:165] Memory required for data: 338587660
I0821 12:31:35.960263 14629 layer_factory.hpp:77] Creating layer bn4b22_branch2c
I0821 12:31:35.960274 14629 net.cpp:100] Creating Layer bn4b22_branch2c
I0821 12:31:35.960279 14629 net.cpp:444] bn4b22_branch2c <- res4b22_branch2c
I0821 12:31:35.960289 14629 net.cpp:405] bn4b22_branch2c -> res4b22_branch2c (in-place)
I0821 12:31:35.960598 14629 net.cpp:150] Setting up bn4b22_branch2c
I0821 12:31:35.960609 14629 net.cpp:157] Top shape: 1 1024 14 14 (200704)
I0821 12:31:35.960613 14629 net.cpp:165] Memory required for data: 339390476
I0821 12:31:35.960623 14629 layer_factory.hpp:77] Creating layer scale4b22_branch2c
I0821 12:31:35.960631 14629 net.cpp:100] Creating Layer scale4b22_branch2c
I0821 12:31:35.960638 14629 net.cpp:444] scale4b22_branch2c <- res4b22_branch2c
I0821 12:31:35.960644 14629 net.cpp:405] scale4b22_branch2c -> res4b22_branch2c (in-place)
I0821 12:31:35.960708 14629 layer_factory.hpp:77] Creating layer scale4b22_branch2c
I0821 12:31:35.960881 14629 net.cpp:150] Setting up scale4b22_branch2c
I0821 12:31:35.960891 14629 net.cpp:157] Top shape: 1 1024 14 14 (200704)
I0821 12:31:35.960896 14629 net.cpp:165] Memory required for data: 340193292
I0821 12:31:35.960902 14629 layer_factory.hpp:77] Creating layer res4b22
I0821 12:31:35.960911 14629 net.cpp:100] Creating Layer res4b22
I0821 12:31:35.960916 14629 net.cpp:444] res4b22 <- res4b21_res4b21_relu_0_split_1
I0821 12:31:35.960922 14629 net.cpp:444] res4b22 <- res4b22_branch2c
I0821 12:31:35.960928 14629 net.cpp:418] res4b22 -> res4b22
I0821 12:31:35.960981 14629 net.cpp:150] Setting up res4b22
I0821 12:31:35.960989 14629 net.cpp:157] Top shape: 1 1024 14 14 (200704)
I0821 12:31:35.960994 14629 net.cpp:165] Memory required for data: 340996108
I0821 12:31:35.960999 14629 layer_factory.hpp:77] Creating layer res4b22_relu
I0821 12:31:35.961005 14629 net.cpp:100] Creating Layer res4b22_relu
I0821 12:31:35.961010 14629 net.cpp:444] res4b22_relu <- res4b22
I0821 12:31:35.961017 14629 net.cpp:405] res4b22_relu -> res4b22 (in-place)
I0821 12:31:35.961642 14629 net.cpp:150] Setting up res4b22_relu
I0821 12:31:35.961663 14629 net.cpp:157] Top shape: 1 1024 14 14 (200704)
I0821 12:31:35.961668 14629 net.cpp:165] Memory required for data: 341798924
I0821 12:31:35.961673 14629 layer_factory.hpp:77] Creating layer res4b22_res4b22_relu_0_split
I0821 12:31:35.961681 14629 net.cpp:100] Creating Layer res4b22_res4b22_relu_0_split
I0821 12:31:35.961686 14629 net.cpp:444] res4b22_res4b22_relu_0_split <- res4b22
I0821 12:31:35.961696 14629 net.cpp:418] res4b22_res4b22_relu_0_split -> res4b22_res4b22_relu_0_split_0
I0821 12:31:35.961707 14629 net.cpp:418] res4b22_res4b22_relu_0_split -> res4b22_res4b22_relu_0_split_1
I0821 12:31:35.961726 14629 net.cpp:418] res4b22_res4b22_relu_0_split -> res4b22_res4b22_relu_0_split_2
I0821 12:31:35.961822 14629 net.cpp:150] Setting up res4b22_res4b22_relu_0_split
I0821 12:31:35.961832 14629 net.cpp:157] Top shape: 1 1024 14 14 (200704)
I0821 12:31:35.961836 14629 net.cpp:157] Top shape: 1 1024 14 14 (200704)
I0821 12:31:35.961841 14629 net.cpp:157] Top shape: 1 1024 14 14 (200704)
I0821 12:31:35.961844 14629 net.cpp:165] Memory required for data: 344207372
I0821 12:31:35.961849 14629 layer_factory.hpp:77] Creating layer res5a_branch1
I0821 12:31:35.961859 14629 net.cpp:100] Creating Layer res5a_branch1
I0821 12:31:35.961865 14629 net.cpp:444] res5a_branch1 <- res4b22_res4b22_relu_0_split_0
I0821 12:31:35.961874 14629 net.cpp:418] res5a_branch1 -> res5a_branch1
I0821 12:31:35.969866 14629 net.cpp:150] Setting up res5a_branch1
I0821 12:31:35.969913 14629 net.cpp:157] Top shape: 1 2048 14 14 (401408)
I0821 12:31:35.969919 14629 net.cpp:165] Memory required for data: 345813004
I0821 12:31:35.969943 14629 layer_factory.hpp:77] Creating layer bn5a_branch1
I0821 12:31:35.969959 14629 net.cpp:100] Creating Layer bn5a_branch1
I0821 12:31:35.969966 14629 net.cpp:444] bn5a_branch1 <- res5a_branch1
I0821 12:31:35.969976 14629 net.cpp:405] bn5a_branch1 -> res5a_branch1 (in-place)
I0821 12:31:35.970325 14629 net.cpp:150] Setting up bn5a_branch1
I0821 12:31:35.970336 14629 net.cpp:157] Top shape: 1 2048 14 14 (401408)
I0821 12:31:35.970340 14629 net.cpp:165] Memory required for data: 347418636
I0821 12:31:35.970350 14629 layer_factory.hpp:77] Creating layer scale5a_branch1
I0821 12:31:35.970371 14629 net.cpp:100] Creating Layer scale5a_branch1
I0821 12:31:35.970376 14629 net.cpp:444] scale5a_branch1 <- res5a_branch1
I0821 12:31:35.970381 14629 net.cpp:405] scale5a_branch1 -> res5a_branch1 (in-place)
I0821 12:31:35.970450 14629 layer_factory.hpp:77] Creating layer scale5a_branch1
I0821 12:31:35.970649 14629 net.cpp:150] Setting up scale5a_branch1
I0821 12:31:35.970660 14629 net.cpp:157] Top shape: 1 2048 14 14 (401408)
I0821 12:31:35.970664 14629 net.cpp:165] Memory required for data: 349024268
I0821 12:31:35.970671 14629 layer_factory.hpp:77] Creating layer res5a_branch2a
I0821 12:31:35.970683 14629 net.cpp:100] Creating Layer res5a_branch2a
I0821 12:31:35.970690 14629 net.cpp:444] res5a_branch2a <- res4b22_res4b22_relu_0_split_1
I0821 12:31:35.970700 14629 net.cpp:418] res5a_branch2a -> res5a_branch2a
I0821 12:31:35.974217 14629 net.cpp:150] Setting up res5a_branch2a
I0821 12:31:35.974242 14629 net.cpp:157] Top shape: 1 512 14 14 (100352)
I0821 12:31:35.974247 14629 net.cpp:165] Memory required for data: 349425676
I0821 12:31:35.974256 14629 layer_factory.hpp:77] Creating layer bn5a_branch2a
I0821 12:31:35.974267 14629 net.cpp:100] Creating Layer bn5a_branch2a
I0821 12:31:35.974273 14629 net.cpp:444] bn5a_branch2a <- res5a_branch2a
I0821 12:31:35.974282 14629 net.cpp:405] bn5a_branch2a -> res5a_branch2a (in-place)
I0821 12:31:35.974603 14629 net.cpp:150] Setting up bn5a_branch2a
I0821 12:31:35.974613 14629 net.cpp:157] Top shape: 1 512 14 14 (100352)
I0821 12:31:35.974617 14629 net.cpp:165] Memory required for data: 349827084
I0821 12:31:35.974628 14629 layer_factory.hpp:77] Creating layer scale5a_branch2a
I0821 12:31:35.974639 14629 net.cpp:100] Creating Layer scale5a_branch2a
I0821 12:31:35.974644 14629 net.cpp:444] scale5a_branch2a <- res5a_branch2a
I0821 12:31:35.974659 14629 net.cpp:405] scale5a_branch2a -> res5a_branch2a (in-place)
I0821 12:31:35.974733 14629 layer_factory.hpp:77] Creating layer scale5a_branch2a
I0821 12:31:35.974923 14629 net.cpp:150] Setting up scale5a_branch2a
I0821 12:31:35.974933 14629 net.cpp:157] Top shape: 1 512 14 14 (100352)
I0821 12:31:35.974937 14629 net.cpp:165] Memory required for data: 350228492
I0821 12:31:35.974944 14629 layer_factory.hpp:77] Creating layer res5a_branch2a_relu
I0821 12:31:35.974954 14629 net.cpp:100] Creating Layer res5a_branch2a_relu
I0821 12:31:35.974959 14629 net.cpp:444] res5a_branch2a_relu <- res5a_branch2a
I0821 12:31:35.974967 14629 net.cpp:405] res5a_branch2a_relu -> res5a_branch2a (in-place)
I0821 12:31:35.975530 14629 net.cpp:150] Setting up res5a_branch2a_relu
I0821 12:31:35.975556 14629 net.cpp:157] Top shape: 1 512 14 14 (100352)
I0821 12:31:35.975560 14629 net.cpp:165] Memory required for data: 350629900
I0821 12:31:35.975565 14629 layer_factory.hpp:77] Creating layer res5a_branch2b
I0821 12:31:35.975589 14629 net.cpp:100] Creating Layer res5a_branch2b
I0821 12:31:35.975594 14629 net.cpp:444] res5a_branch2b <- res5a_branch2a
I0821 12:31:35.975603 14629 net.cpp:418] res5a_branch2b -> res5a_branch2b
I0821 12:31:35.982172 14629 net.cpp:150] Setting up res5a_branch2b
I0821 12:31:35.982195 14629 net.cpp:157] Top shape: 1 512 14 14 (100352)
I0821 12:31:35.982199 14629 net.cpp:165] Memory required for data: 351031308
I0821 12:31:35.982208 14629 layer_factory.hpp:77] Creating layer bn5a_branch2b
I0821 12:31:35.982224 14629 net.cpp:100] Creating Layer bn5a_branch2b
I0821 12:31:35.982230 14629 net.cpp:444] bn5a_branch2b <- res5a_branch2b
I0821 12:31:35.982237 14629 net.cpp:405] bn5a_branch2b -> res5a_branch2b (in-place)
I0821 12:31:35.982539 14629 net.cpp:150] Setting up bn5a_branch2b
I0821 12:31:35.982549 14629 net.cpp:157] Top shape: 1 512 14 14 (100352)
I0821 12:31:35.982553 14629 net.cpp:165] Memory required for data: 351432716
I0821 12:31:35.982560 14629 layer_factory.hpp:77] Creating layer scale5a_branch2b
I0821 12:31:35.982570 14629 net.cpp:100] Creating Layer scale5a_branch2b
I0821 12:31:35.982575 14629 net.cpp:444] scale5a_branch2b <- res5a_branch2b
I0821 12:31:35.982580 14629 net.cpp:405] scale5a_branch2b -> res5a_branch2b (in-place)
I0821 12:31:35.982645 14629 layer_factory.hpp:77] Creating layer scale5a_branch2b
I0821 12:31:35.982812 14629 net.cpp:150] Setting up scale5a_branch2b
I0821 12:31:35.982822 14629 net.cpp:157] Top shape: 1 512 14 14 (100352)
I0821 12:31:35.982825 14629 net.cpp:165] Memory required for data: 351834124
I0821 12:31:35.982832 14629 layer_factory.hpp:77] Creating layer res5a_branch2b_relu
I0821 12:31:35.982839 14629 net.cpp:100] Creating Layer res5a_branch2b_relu
I0821 12:31:35.982843 14629 net.cpp:444] res5a_branch2b_relu <- res5a_branch2b
I0821 12:31:35.982851 14629 net.cpp:405] res5a_branch2b_relu -> res5a_branch2b (in-place)
I0821 12:31:35.983129 14629 net.cpp:150] Setting up res5a_branch2b_relu
I0821 12:31:35.983140 14629 net.cpp:157] Top shape: 1 512 14 14 (100352)
I0821 12:31:35.983144 14629 net.cpp:165] Memory required for data: 352235532
I0821 12:31:35.983148 14629 layer_factory.hpp:77] Creating layer res5a_branch2c
I0821 12:31:35.983160 14629 net.cpp:100] Creating Layer res5a_branch2c
I0821 12:31:35.983163 14629 net.cpp:444] res5a_branch2c <- res5a_branch2b
I0821 12:31:35.983171 14629 net.cpp:418] res5a_branch2c -> res5a_branch2c
I0821 12:31:35.987799 14629 net.cpp:150] Setting up res5a_branch2c
I0821 12:31:35.987818 14629 net.cpp:157] Top shape: 1 2048 14 14 (401408)
I0821 12:31:35.987823 14629 net.cpp:165] Memory required for data: 353841164
I0821 12:31:35.987831 14629 layer_factory.hpp:77] Creating layer bn5a_branch2c
I0821 12:31:35.987841 14629 net.cpp:100] Creating Layer bn5a_branch2c
I0821 12:31:35.987848 14629 net.cpp:444] bn5a_branch2c <- res5a_branch2c
I0821 12:31:35.987855 14629 net.cpp:405] bn5a_branch2c -> res5a_branch2c (in-place)
I0821 12:31:35.988162 14629 net.cpp:150] Setting up bn5a_branch2c
I0821 12:31:35.988173 14629 net.cpp:157] Top shape: 1 2048 14 14 (401408)
I0821 12:31:35.988186 14629 net.cpp:165] Memory required for data: 355446796
I0821 12:31:35.988194 14629 layer_factory.hpp:77] Creating layer scale5a_branch2c
I0821 12:31:35.988201 14629 net.cpp:100] Creating Layer scale5a_branch2c
I0821 12:31:35.988206 14629 net.cpp:444] scale5a_branch2c <- res5a_branch2c
I0821 12:31:35.988212 14629 net.cpp:405] scale5a_branch2c -> res5a_branch2c (in-place)
I0821 12:31:35.988278 14629 layer_factory.hpp:77] Creating layer scale5a_branch2c
I0821 12:31:35.988466 14629 net.cpp:150] Setting up scale5a_branch2c
I0821 12:31:35.988476 14629 net.cpp:157] Top shape: 1 2048 14 14 (401408)
I0821 12:31:35.988481 14629 net.cpp:165] Memory required for data: 357052428
I0821 12:31:35.988487 14629 layer_factory.hpp:77] Creating layer res5a
I0821 12:31:35.988497 14629 net.cpp:100] Creating Layer res5a
I0821 12:31:35.988502 14629 net.cpp:444] res5a <- res5a_branch1
I0821 12:31:35.988507 14629 net.cpp:444] res5a <- res5a_branch2c
I0821 12:31:35.988512 14629 net.cpp:418] res5a -> res5a
I0821 12:31:35.988549 14629 net.cpp:150] Setting up res5a
I0821 12:31:35.988559 14629 net.cpp:157] Top shape: 1 2048 14 14 (401408)
I0821 12:31:35.988562 14629 net.cpp:165] Memory required for data: 358658060
I0821 12:31:35.988567 14629 layer_factory.hpp:77] Creating layer res5a_relu
I0821 12:31:35.988574 14629 net.cpp:100] Creating Layer res5a_relu
I0821 12:31:35.988577 14629 net.cpp:444] res5a_relu <- res5a
I0821 12:31:35.988585 14629 net.cpp:405] res5a_relu -> res5a (in-place)
I0821 12:31:35.989183 14629 net.cpp:150] Setting up res5a_relu
I0821 12:31:35.989199 14629 net.cpp:157] Top shape: 1 2048 14 14 (401408)
I0821 12:31:35.989204 14629 net.cpp:165] Memory required for data: 360263692
I0821 12:31:35.989208 14629 layer_factory.hpp:77] Creating layer res5a_res5a_relu_0_split
I0821 12:31:35.989219 14629 net.cpp:100] Creating Layer res5a_res5a_relu_0_split
I0821 12:31:35.989224 14629 net.cpp:444] res5a_res5a_relu_0_split <- res5a
I0821 12:31:35.989244 14629 net.cpp:418] res5a_res5a_relu_0_split -> res5a_res5a_relu_0_split_0
I0821 12:31:35.989265 14629 net.cpp:418] res5a_res5a_relu_0_split -> res5a_res5a_relu_0_split_1
I0821 12:31:35.989337 14629 net.cpp:150] Setting up res5a_res5a_relu_0_split
I0821 12:31:35.989348 14629 net.cpp:157] Top shape: 1 2048 14 14 (401408)
I0821 12:31:35.989352 14629 net.cpp:157] Top shape: 1 2048 14 14 (401408)
I0821 12:31:35.989356 14629 net.cpp:165] Memory required for data: 363474956
I0821 12:31:35.989361 14629 layer_factory.hpp:77] Creating layer res5b_branch2a
I0821 12:31:35.989370 14629 net.cpp:100] Creating Layer res5b_branch2a
I0821 12:31:35.989375 14629 net.cpp:444] res5b_branch2a <- res5a_res5a_relu_0_split_0
I0821 12:31:35.989382 14629 net.cpp:418] res5b_branch2a -> res5b_branch2a
I0821 12:31:35.993593 14629 net.cpp:150] Setting up res5b_branch2a
I0821 12:31:35.993621 14629 net.cpp:157] Top shape: 1 512 14 14 (100352)
I0821 12:31:35.993626 14629 net.cpp:165] Memory required for data: 363876364
I0821 12:31:35.993634 14629 layer_factory.hpp:77] Creating layer bn5b_branch2a
I0821 12:31:35.993644 14629 net.cpp:100] Creating Layer bn5b_branch2a
I0821 12:31:35.993649 14629 net.cpp:444] bn5b_branch2a <- res5b_branch2a
I0821 12:31:35.993657 14629 net.cpp:405] bn5b_branch2a -> res5b_branch2a (in-place)
I0821 12:31:35.993985 14629 net.cpp:150] Setting up bn5b_branch2a
I0821 12:31:35.993996 14629 net.cpp:157] Top shape: 1 512 14 14 (100352)
I0821 12:31:35.994000 14629 net.cpp:165] Memory required for data: 364277772
I0821 12:31:35.994009 14629 layer_factory.hpp:77] Creating layer scale5b_branch2a
I0821 12:31:35.994016 14629 net.cpp:100] Creating Layer scale5b_branch2a
I0821 12:31:35.994021 14629 net.cpp:444] scale5b_branch2a <- res5b_branch2a
I0821 12:31:35.994027 14629 net.cpp:405] scale5b_branch2a -> res5b_branch2a (in-place)
I0821 12:31:35.994093 14629 layer_factory.hpp:77] Creating layer scale5b_branch2a
I0821 12:31:35.994277 14629 net.cpp:150] Setting up scale5b_branch2a
I0821 12:31:35.994287 14629 net.cpp:157] Top shape: 1 512 14 14 (100352)
I0821 12:31:35.994297 14629 net.cpp:165] Memory required for data: 364679180
I0821 12:31:35.994304 14629 layer_factory.hpp:77] Creating layer res5b_branch2a_relu
I0821 12:31:35.994313 14629 net.cpp:100] Creating Layer res5b_branch2a_relu
I0821 12:31:35.994318 14629 net.cpp:444] res5b_branch2a_relu <- res5b_branch2a
I0821 12:31:35.994323 14629 net.cpp:405] res5b_branch2a_relu -> res5b_branch2a (in-place)
I0821 12:31:35.994855 14629 net.cpp:150] Setting up res5b_branch2a_relu
I0821 12:31:35.994869 14629 net.cpp:157] Top shape: 1 512 14 14 (100352)
I0821 12:31:35.994874 14629 net.cpp:165] Memory required for data: 365080588
I0821 12:31:35.994879 14629 layer_factory.hpp:77] Creating layer res5b_branch2b
I0821 12:31:35.994891 14629 net.cpp:100] Creating Layer res5b_branch2b
I0821 12:31:35.994896 14629 net.cpp:444] res5b_branch2b <- res5b_branch2a
I0821 12:31:35.994904 14629 net.cpp:418] res5b_branch2b -> res5b_branch2b
I0821 12:31:36.001125 14629 net.cpp:150] Setting up res5b_branch2b
I0821 12:31:36.001142 14629 net.cpp:157] Top shape: 1 512 14 14 (100352)
I0821 12:31:36.001147 14629 net.cpp:165] Memory required for data: 365481996
I0821 12:31:36.001153 14629 layer_factory.hpp:77] Creating layer bn5b_branch2b
I0821 12:31:36.001163 14629 net.cpp:100] Creating Layer bn5b_branch2b
I0821 12:31:36.001168 14629 net.cpp:444] bn5b_branch2b <- res5b_branch2b
I0821 12:31:36.001173 14629 net.cpp:405] bn5b_branch2b -> res5b_branch2b (in-place)
I0821 12:31:36.002321 14629 net.cpp:150] Setting up bn5b_branch2b
I0821 12:31:36.002336 14629 net.cpp:157] Top shape: 1 512 14 14 (100352)
I0821 12:31:36.002341 14629 net.cpp:165] Memory required for data: 365883404
I0821 12:31:36.002351 14629 layer_factory.hpp:77] Creating layer scale5b_branch2b
I0821 12:31:36.002358 14629 net.cpp:100] Creating Layer scale5b_branch2b
I0821 12:31:36.002363 14629 net.cpp:444] scale5b_branch2b <- res5b_branch2b
I0821 12:31:36.002370 14629 net.cpp:405] scale5b_branch2b -> res5b_branch2b (in-place)
I0821 12:31:36.002437 14629 layer_factory.hpp:77] Creating layer scale5b_branch2b
I0821 12:31:36.002585 14629 net.cpp:150] Setting up scale5b_branch2b
I0821 12:31:36.002596 14629 net.cpp:157] Top shape: 1 512 14 14 (100352)
I0821 12:31:36.002600 14629 net.cpp:165] Memory required for data: 366284812
I0821 12:31:36.002609 14629 layer_factory.hpp:77] Creating layer res5b_branch2b_relu
I0821 12:31:36.002617 14629 net.cpp:100] Creating Layer res5b_branch2b_relu
I0821 12:31:36.002622 14629 net.cpp:444] res5b_branch2b_relu <- res5b_branch2b
I0821 12:31:36.002629 14629 net.cpp:405] res5b_branch2b_relu -> res5b_branch2b (in-place)
I0821 12:31:36.003185 14629 net.cpp:150] Setting up res5b_branch2b_relu
I0821 12:31:36.003201 14629 net.cpp:157] Top shape: 1 512 14 14 (100352)
I0821 12:31:36.003206 14629 net.cpp:165] Memory required for data: 366686220
I0821 12:31:36.003211 14629 layer_factory.hpp:77] Creating layer res5b_branch2c
I0821 12:31:36.003222 14629 net.cpp:100] Creating Layer res5b_branch2c
I0821 12:31:36.003227 14629 net.cpp:444] res5b_branch2c <- res5b_branch2b
I0821 12:31:36.003234 14629 net.cpp:418] res5b_branch2c -> res5b_branch2c
I0821 12:31:36.007524 14629 net.cpp:150] Setting up res5b_branch2c
I0821 12:31:36.007542 14629 net.cpp:157] Top shape: 1 2048 14 14 (401408)
I0821 12:31:36.007547 14629 net.cpp:165] Memory required for data: 368291852
I0821 12:31:36.007555 14629 layer_factory.hpp:77] Creating layer bn5b_branch2c
I0821 12:31:36.007565 14629 net.cpp:100] Creating Layer bn5b_branch2c
I0821 12:31:36.007570 14629 net.cpp:444] bn5b_branch2c <- res5b_branch2c
I0821 12:31:36.007578 14629 net.cpp:405] bn5b_branch2c -> res5b_branch2c (in-place)
I0821 12:31:36.007827 14629 net.cpp:150] Setting up bn5b_branch2c
I0821 12:31:36.007838 14629 net.cpp:157] Top shape: 1 2048 14 14 (401408)
I0821 12:31:36.007840 14629 net.cpp:165] Memory required for data: 369897484
I0821 12:31:36.007851 14629 layer_factory.hpp:77] Creating layer scale5b_branch2c
I0821 12:31:36.007861 14629 net.cpp:100] Creating Layer scale5b_branch2c
I0821 12:31:36.007866 14629 net.cpp:444] scale5b_branch2c <- res5b_branch2c
I0821 12:31:36.007879 14629 net.cpp:405] scale5b_branch2c -> res5b_branch2c (in-place)
I0821 12:31:36.007941 14629 layer_factory.hpp:77] Creating layer scale5b_branch2c
I0821 12:31:36.008080 14629 net.cpp:150] Setting up scale5b_branch2c
I0821 12:31:36.008090 14629 net.cpp:157] Top shape: 1 2048 14 14 (401408)
I0821 12:31:36.008093 14629 net.cpp:165] Memory required for data: 371503116
I0821 12:31:36.008100 14629 layer_factory.hpp:77] Creating layer res5b
I0821 12:31:36.008108 14629 net.cpp:100] Creating Layer res5b
I0821 12:31:36.008113 14629 net.cpp:444] res5b <- res5a_res5a_relu_0_split_1
I0821 12:31:36.008118 14629 net.cpp:444] res5b <- res5b_branch2c
I0821 12:31:36.008131 14629 net.cpp:418] res5b -> res5b
I0821 12:31:36.008155 14629 net.cpp:150] Setting up res5b
I0821 12:31:36.008162 14629 net.cpp:157] Top shape: 1 2048 14 14 (401408)
I0821 12:31:36.008167 14629 net.cpp:165] Memory required for data: 373108748
I0821 12:31:36.008169 14629 layer_factory.hpp:77] Creating layer res5b_relu
I0821 12:31:36.008177 14629 net.cpp:100] Creating Layer res5b_relu
I0821 12:31:36.008183 14629 net.cpp:444] res5b_relu <- res5b
I0821 12:31:36.008188 14629 net.cpp:405] res5b_relu -> res5b (in-place)
I0821 12:31:36.008759 14629 net.cpp:150] Setting up res5b_relu
I0821 12:31:36.008775 14629 net.cpp:157] Top shape: 1 2048 14 14 (401408)
I0821 12:31:36.008780 14629 net.cpp:165] Memory required for data: 374714380
I0821 12:31:36.008783 14629 layer_factory.hpp:77] Creating layer res5b_res5b_relu_0_split
I0821 12:31:36.008791 14629 net.cpp:100] Creating Layer res5b_res5b_relu_0_split
I0821 12:31:36.008796 14629 net.cpp:444] res5b_res5b_relu_0_split <- res5b
I0821 12:31:36.008805 14629 net.cpp:418] res5b_res5b_relu_0_split -> res5b_res5b_relu_0_split_0
I0821 12:31:36.008814 14629 net.cpp:418] res5b_res5b_relu_0_split -> res5b_res5b_relu_0_split_1
I0821 12:31:36.008864 14629 net.cpp:150] Setting up res5b_res5b_relu_0_split
I0821 12:31:36.008872 14629 net.cpp:157] Top shape: 1 2048 14 14 (401408)
I0821 12:31:36.008877 14629 net.cpp:157] Top shape: 1 2048 14 14 (401408)
I0821 12:31:36.008880 14629 net.cpp:165] Memory required for data: 377925644
I0821 12:31:36.008884 14629 layer_factory.hpp:77] Creating layer res5c_branch2a
I0821 12:31:36.008894 14629 net.cpp:100] Creating Layer res5c_branch2a
I0821 12:31:36.008899 14629 net.cpp:444] res5c_branch2a <- res5b_res5b_relu_0_split_0
I0821 12:31:36.008908 14629 net.cpp:418] res5c_branch2a -> res5c_branch2a
I0821 12:31:36.013494 14629 net.cpp:150] Setting up res5c_branch2a
I0821 12:31:36.013512 14629 net.cpp:157] Top shape: 1 512 14 14 (100352)
I0821 12:31:36.013517 14629 net.cpp:165] Memory required for data: 378327052
I0821 12:31:36.013527 14629 layer_factory.hpp:77] Creating layer bn5c_branch2a
I0821 12:31:36.013537 14629 net.cpp:100] Creating Layer bn5c_branch2a
I0821 12:31:36.013543 14629 net.cpp:444] bn5c_branch2a <- res5c_branch2a
I0821 12:31:36.013551 14629 net.cpp:405] bn5c_branch2a -> res5c_branch2a (in-place)
I0821 12:31:36.013819 14629 net.cpp:150] Setting up bn5c_branch2a
I0821 12:31:36.013829 14629 net.cpp:157] Top shape: 1 512 14 14 (100352)
I0821 12:31:36.013833 14629 net.cpp:165] Memory required for data: 378728460
I0821 12:31:36.013841 14629 layer_factory.hpp:77] Creating layer scale5c_branch2a
I0821 12:31:36.013849 14629 net.cpp:100] Creating Layer scale5c_branch2a
I0821 12:31:36.013854 14629 net.cpp:444] scale5c_branch2a <- res5c_branch2a
I0821 12:31:36.013860 14629 net.cpp:405] scale5c_branch2a -> res5c_branch2a (in-place)
I0821 12:31:36.013923 14629 layer_factory.hpp:77] Creating layer scale5c_branch2a
I0821 12:31:36.014067 14629 net.cpp:150] Setting up scale5c_branch2a
I0821 12:31:36.014077 14629 net.cpp:157] Top shape: 1 512 14 14 (100352)
I0821 12:31:36.014081 14629 net.cpp:165] Memory required for data: 379129868
I0821 12:31:36.014088 14629 layer_factory.hpp:77] Creating layer res5c_branch2a_relu
I0821 12:31:36.014108 14629 net.cpp:100] Creating Layer res5c_branch2a_relu
I0821 12:31:36.014113 14629 net.cpp:444] res5c_branch2a_relu <- res5c_branch2a
I0821 12:31:36.014118 14629 net.cpp:405] res5c_branch2a_relu -> res5c_branch2a (in-place)
I0821 12:31:36.014403 14629 net.cpp:150] Setting up res5c_branch2a_relu
I0821 12:31:36.014415 14629 net.cpp:157] Top shape: 1 512 14 14 (100352)
I0821 12:31:36.014420 14629 net.cpp:165] Memory required for data: 379531276
I0821 12:31:36.014425 14629 layer_factory.hpp:77] Creating layer res5c_branch2b
I0821 12:31:36.014436 14629 net.cpp:100] Creating Layer res5c_branch2b
I0821 12:31:36.014441 14629 net.cpp:444] res5c_branch2b <- res5c_branch2a
I0821 12:31:36.014449 14629 net.cpp:418] res5c_branch2b -> res5c_branch2b
I0821 12:31:36.020651 14629 net.cpp:150] Setting up res5c_branch2b
I0821 12:31:36.020669 14629 net.cpp:157] Top shape: 1 512 14 14 (100352)
I0821 12:31:36.020673 14629 net.cpp:165] Memory required for data: 379932684
I0821 12:31:36.020680 14629 layer_factory.hpp:77] Creating layer bn5c_branch2b
I0821 12:31:36.020690 14629 net.cpp:100] Creating Layer bn5c_branch2b
I0821 12:31:36.020696 14629 net.cpp:444] bn5c_branch2b <- res5c_branch2b
I0821 12:31:36.020702 14629 net.cpp:405] bn5c_branch2b -> res5c_branch2b (in-place)
I0821 12:31:36.020944 14629 net.cpp:150] Setting up bn5c_branch2b
I0821 12:31:36.020954 14629 net.cpp:157] Top shape: 1 512 14 14 (100352)
I0821 12:31:36.020958 14629 net.cpp:165] Memory required for data: 380334092
I0821 12:31:36.020967 14629 layer_factory.hpp:77] Creating layer scale5c_branch2b
I0821 12:31:36.020973 14629 net.cpp:100] Creating Layer scale5c_branch2b
I0821 12:31:36.020977 14629 net.cpp:444] scale5c_branch2b <- res5c_branch2b
I0821 12:31:36.020985 14629 net.cpp:405] scale5c_branch2b -> res5c_branch2b (in-place)
I0821 12:31:36.021044 14629 layer_factory.hpp:77] Creating layer scale5c_branch2b
I0821 12:31:36.021180 14629 net.cpp:150] Setting up scale5c_branch2b
I0821 12:31:36.021190 14629 net.cpp:157] Top shape: 1 512 14 14 (100352)
I0821 12:31:36.021194 14629 net.cpp:165] Memory required for data: 380735500
I0821 12:31:36.021201 14629 layer_factory.hpp:77] Creating layer res5c_branch2b_relu
I0821 12:31:36.021209 14629 net.cpp:100] Creating Layer res5c_branch2b_relu
I0821 12:31:36.021212 14629 net.cpp:444] res5c_branch2b_relu <- res5c_branch2b
I0821 12:31:36.021219 14629 net.cpp:405] res5c_branch2b_relu -> res5c_branch2b (in-place)
I0821 12:31:36.021803 14629 net.cpp:150] Setting up res5c_branch2b_relu
I0821 12:31:36.021819 14629 net.cpp:157] Top shape: 1 512 14 14 (100352)
I0821 12:31:36.021823 14629 net.cpp:165] Memory required for data: 381136908
I0821 12:31:36.021828 14629 layer_factory.hpp:77] Creating layer res5c_branch2c
I0821 12:31:36.021839 14629 net.cpp:100] Creating Layer res5c_branch2c
I0821 12:31:36.021845 14629 net.cpp:444] res5c_branch2c <- res5c_branch2b
I0821 12:31:36.021852 14629 net.cpp:418] res5c_branch2c -> res5c_branch2c
I0821 12:31:36.026408 14629 net.cpp:150] Setting up res5c_branch2c
I0821 12:31:36.026427 14629 net.cpp:157] Top shape: 1 2048 14 14 (401408)
I0821 12:31:36.026432 14629 net.cpp:165] Memory required for data: 382742540
I0821 12:31:36.026437 14629 layer_factory.hpp:77] Creating layer bn5c_branch2c
I0821 12:31:36.026448 14629 net.cpp:100] Creating Layer bn5c_branch2c
I0821 12:31:36.026453 14629 net.cpp:444] bn5c_branch2c <- res5c_branch2c
I0821 12:31:36.026458 14629 net.cpp:405] bn5c_branch2c -> res5c_branch2c (in-place)
I0821 12:31:36.026708 14629 net.cpp:150] Setting up bn5c_branch2c
I0821 12:31:36.026718 14629 net.cpp:157] Top shape: 1 2048 14 14 (401408)
I0821 12:31:36.026722 14629 net.cpp:165] Memory required for data: 384348172
I0821 12:31:36.026731 14629 layer_factory.hpp:77] Creating layer scale5c_branch2c
I0821 12:31:36.026741 14629 net.cpp:100] Creating Layer scale5c_branch2c
I0821 12:31:36.026746 14629 net.cpp:444] scale5c_branch2c <- res5c_branch2c
I0821 12:31:36.026757 14629 net.cpp:405] scale5c_branch2c -> res5c_branch2c (in-place)
I0821 12:31:36.026821 14629 layer_factory.hpp:77] Creating layer scale5c_branch2c
I0821 12:31:36.026975 14629 net.cpp:150] Setting up scale5c_branch2c
I0821 12:31:36.026986 14629 net.cpp:157] Top shape: 1 2048 14 14 (401408)
I0821 12:31:36.027009 14629 net.cpp:165] Memory required for data: 385953804
I0821 12:31:36.027015 14629 layer_factory.hpp:77] Creating layer res5c
I0821 12:31:36.027022 14629 net.cpp:100] Creating Layer res5c
I0821 12:31:36.027027 14629 net.cpp:444] res5c <- res5b_res5b_relu_0_split_1
I0821 12:31:36.027034 14629 net.cpp:444] res5c <- res5c_branch2c
I0821 12:31:36.027040 14629 net.cpp:418] res5c -> res5c
I0821 12:31:36.027070 14629 net.cpp:150] Setting up res5c
I0821 12:31:36.027077 14629 net.cpp:157] Top shape: 1 2048 14 14 (401408)
I0821 12:31:36.027081 14629 net.cpp:165] Memory required for data: 387559436
I0821 12:31:36.027084 14629 layer_factory.hpp:77] Creating layer res5c_relu
I0821 12:31:36.027091 14629 net.cpp:100] Creating Layer res5c_relu
I0821 12:31:36.027094 14629 net.cpp:444] res5c_relu <- res5c
I0821 12:31:36.027104 14629 net.cpp:405] res5c_relu -> res5c (in-place)
I0821 12:31:36.027396 14629 net.cpp:150] Setting up res5c_relu
I0821 12:31:36.027420 14629 net.cpp:157] Top shape: 1 2048 14 14 (401408)
I0821 12:31:36.027424 14629 net.cpp:165] Memory required for data: 389165068
I0821 12:31:36.027429 14629 layer_factory.hpp:77] Creating layer rpn_conv/3x3
I0821 12:31:36.027443 14629 net.cpp:100] Creating Layer rpn_conv/3x3
I0821 12:31:36.027451 14629 net.cpp:444] rpn_conv/3x3 <- res4b22_res4b22_relu_0_split_2
I0821 12:31:36.027458 14629 net.cpp:418] rpn_conv/3x3 -> rpn/output
I0821 12:31:36.086017 14629 net.cpp:150] Setting up rpn_conv/3x3
I0821 12:31:36.086061 14629 net.cpp:157] Top shape: 1 512 14 14 (100352)
I0821 12:31:36.086066 14629 net.cpp:165] Memory required for data: 389566476
I0821 12:31:36.086077 14629 layer_factory.hpp:77] Creating layer rpn_relu/3x3
I0821 12:31:36.086091 14629 net.cpp:100] Creating Layer rpn_relu/3x3
I0821 12:31:36.086097 14629 net.cpp:444] rpn_relu/3x3 <- rpn/output
I0821 12:31:36.086105 14629 net.cpp:405] rpn_relu/3x3 -> rpn/output (in-place)
I0821 12:31:36.086410 14629 net.cpp:150] Setting up rpn_relu/3x3
I0821 12:31:36.086422 14629 net.cpp:157] Top shape: 1 512 14 14 (100352)
I0821 12:31:36.086426 14629 net.cpp:165] Memory required for data: 389967884
I0821 12:31:36.086431 14629 layer_factory.hpp:77] Creating layer rpn/output_rpn_relu/3x3_0_split
I0821 12:31:36.086441 14629 net.cpp:100] Creating Layer rpn/output_rpn_relu/3x3_0_split
I0821 12:31:36.086446 14629 net.cpp:444] rpn/output_rpn_relu/3x3_0_split <- rpn/output
I0821 12:31:36.086452 14629 net.cpp:418] rpn/output_rpn_relu/3x3_0_split -> rpn/output_rpn_relu/3x3_0_split_0
I0821 12:31:36.086462 14629 net.cpp:418] rpn/output_rpn_relu/3x3_0_split -> rpn/output_rpn_relu/3x3_0_split_1
I0821 12:31:36.086518 14629 net.cpp:150] Setting up rpn/output_rpn_relu/3x3_0_split
I0821 12:31:36.086525 14629 net.cpp:157] Top shape: 1 512 14 14 (100352)
I0821 12:31:36.086529 14629 net.cpp:157] Top shape: 1 512 14 14 (100352)
I0821 12:31:36.086534 14629 net.cpp:165] Memory required for data: 390770700
I0821 12:31:36.086536 14629 layer_factory.hpp:77] Creating layer rpn_cls_score
I0821 12:31:36.086551 14629 net.cpp:100] Creating Layer rpn_cls_score
I0821 12:31:36.086556 14629 net.cpp:444] rpn_cls_score <- rpn/output_rpn_relu/3x3_0_split_0
I0821 12:31:36.086563 14629 net.cpp:418] rpn_cls_score -> rpn_cls_score
I0821 12:31:36.088413 14629 net.cpp:150] Setting up rpn_cls_score
I0821 12:31:36.088428 14629 net.cpp:157] Top shape: 1 18 14 14 (3528)
I0821 12:31:36.088433 14629 net.cpp:165] Memory required for data: 390784812
I0821 12:31:36.088443 14629 layer_factory.hpp:77] Creating layer rpn_bbox_pred
I0821 12:31:36.088455 14629 net.cpp:100] Creating Layer rpn_bbox_pred
I0821 12:31:36.088461 14629 net.cpp:444] rpn_bbox_pred <- rpn/output_rpn_relu/3x3_0_split_1
I0821 12:31:36.088470 14629 net.cpp:418] rpn_bbox_pred -> rpn_bbox_pred
I0821 12:31:36.090476 14629 net.cpp:150] Setting up rpn_bbox_pred
I0821 12:31:36.090493 14629 net.cpp:157] Top shape: 1 36 14 14 (7056)
I0821 12:31:36.090498 14629 net.cpp:165] Memory required for data: 390813036
I0821 12:31:36.090507 14629 layer_factory.hpp:77] Creating layer rpn_cls_score_reshape
I0821 12:31:36.090520 14629 net.cpp:100] Creating Layer rpn_cls_score_reshape
I0821 12:31:36.090535 14629 net.cpp:444] rpn_cls_score_reshape <- rpn_cls_score
I0821 12:31:36.090543 14629 net.cpp:418] rpn_cls_score_reshape -> rpn_cls_score_reshape
I0821 12:31:36.090582 14629 net.cpp:150] Setting up rpn_cls_score_reshape
I0821 12:31:36.090590 14629 net.cpp:157] Top shape: 1 2 126 14 (3528)
I0821 12:31:36.090595 14629 net.cpp:165] Memory required for data: 390827148
I0821 12:31:36.090598 14629 layer_factory.hpp:77] Creating layer rpn_cls_prob
I0821 12:31:36.090605 14629 net.cpp:100] Creating Layer rpn_cls_prob
I0821 12:31:36.090610 14629 net.cpp:444] rpn_cls_prob <- rpn_cls_score_reshape
I0821 12:31:36.090618 14629 net.cpp:418] rpn_cls_prob -> rpn_cls_prob
I0821 12:31:36.091238 14629 net.cpp:150] Setting up rpn_cls_prob
I0821 12:31:36.091254 14629 net.cpp:157] Top shape: 1 2 126 14 (3528)
I0821 12:31:36.091259 14629 net.cpp:165] Memory required for data: 390841260
I0821 12:31:36.091262 14629 layer_factory.hpp:77] Creating layer rpn_cls_prob_reshape
I0821 12:31:36.091274 14629 net.cpp:100] Creating Layer rpn_cls_prob_reshape
I0821 12:31:36.091279 14629 net.cpp:444] rpn_cls_prob_reshape <- rpn_cls_prob
I0821 12:31:36.091287 14629 net.cpp:418] rpn_cls_prob_reshape -> rpn_cls_prob_reshape
I0821 12:31:36.091320 14629 net.cpp:150] Setting up rpn_cls_prob_reshape
I0821 12:31:36.091327 14629 net.cpp:157] Top shape: 1 18 14 14 (3528)
I0821 12:31:36.091331 14629 net.cpp:165] Memory required for data: 390855372
I0821 12:31:36.091334 14629 layer_factory.hpp:77] Creating layer proposal
I0821 12:31:36.092289 14629 net.cpp:100] Creating Layer proposal
I0821 12:31:36.092303 14629 net.cpp:444] proposal <- rpn_cls_prob_reshape
I0821 12:31:36.092310 14629 net.cpp:444] proposal <- rpn_bbox_pred
I0821 12:31:36.092316 14629 net.cpp:444] proposal <- im_info
I0821 12:31:36.092324 14629 net.cpp:418] proposal -> rois
I0821 12:31:36.093766 14629 net.cpp:150] Setting up proposal
I0821 12:31:36.093785 14629 net.cpp:157] Top shape: 1 5 (5)
I0821 12:31:36.093789 14629 net.cpp:165] Memory required for data: 390855392
I0821 12:31:36.093794 14629 layer_factory.hpp:77] Creating layer rois_proposal_0_split
I0821 12:31:36.093801 14629 net.cpp:100] Creating Layer rois_proposal_0_split
I0821 12:31:36.093806 14629 net.cpp:444] rois_proposal_0_split <- rois
I0821 12:31:36.093814 14629 net.cpp:418] rois_proposal_0_split -> rois_proposal_0_split_0
I0821 12:31:36.093823 14629 net.cpp:418] rois_proposal_0_split -> rois_proposal_0_split_1
I0821 12:31:36.093879 14629 net.cpp:150] Setting up rois_proposal_0_split
I0821 12:31:36.093888 14629 net.cpp:157] Top shape: 1 5 (5)
I0821 12:31:36.093892 14629 net.cpp:157] Top shape: 1 5 (5)
I0821 12:31:36.093895 14629 net.cpp:165] Memory required for data: 390855432
I0821 12:31:36.093899 14629 layer_factory.hpp:77] Creating layer conv_new_1
I0821 12:31:36.093909 14629 net.cpp:100] Creating Layer conv_new_1
I0821 12:31:36.093914 14629 net.cpp:444] conv_new_1 <- res5c
I0821 12:31:36.093922 14629 net.cpp:418] conv_new_1 -> conv_new_1
I0821 12:31:36.120609 14629 net.cpp:150] Setting up conv_new_1
I0821 12:31:36.120631 14629 net.cpp:157] Top shape: 1 1024 14 14 (200704)
I0821 12:31:36.120636 14629 net.cpp:165] Memory required for data: 391658248
I0821 12:31:36.120645 14629 layer_factory.hpp:77] Creating layer conv_new_1_relu
I0821 12:31:36.120656 14629 net.cpp:100] Creating Layer conv_new_1_relu
I0821 12:31:36.120661 14629 net.cpp:444] conv_new_1_relu <- conv_new_1
I0821 12:31:36.120666 14629 net.cpp:405] conv_new_1_relu -> conv_new_1 (in-place)
I0821 12:31:36.121243 14629 net.cpp:150] Setting up conv_new_1_relu
I0821 12:31:36.121258 14629 net.cpp:157] Top shape: 1 1024 14 14 (200704)
I0821 12:31:36.121263 14629 net.cpp:165] Memory required for data: 392461064
I0821 12:31:36.121266 14629 layer_factory.hpp:77] Creating layer conv_new_1_conv_new_1_relu_0_split
I0821 12:31:36.121276 14629 net.cpp:100] Creating Layer conv_new_1_conv_new_1_relu_0_split
I0821 12:31:36.121281 14629 net.cpp:444] conv_new_1_conv_new_1_relu_0_split <- conv_new_1
I0821 12:31:36.121297 14629 net.cpp:418] conv_new_1_conv_new_1_relu_0_split -> conv_new_1_conv_new_1_relu_0_split_0
I0821 12:31:36.121317 14629 net.cpp:418] conv_new_1_conv_new_1_relu_0_split -> conv_new_1_conv_new_1_relu_0_split_1
I0821 12:31:36.121379 14629 net.cpp:150] Setting up conv_new_1_conv_new_1_relu_0_split
I0821 12:31:36.121388 14629 net.cpp:157] Top shape: 1 1024 14 14 (200704)
I0821 12:31:36.121393 14629 net.cpp:157] Top shape: 1 1024 14 14 (200704)
I0821 12:31:36.121397 14629 net.cpp:165] Memory required for data: 394066696
I0821 12:31:36.121402 14629 layer_factory.hpp:77] Creating layer rfcn_cls_new_1
I0821 12:31:36.121413 14629 net.cpp:100] Creating Layer rfcn_cls_new_1
I0821 12:31:36.121418 14629 net.cpp:444] rfcn_cls_new_1 <- conv_new_1_conv_new_1_relu_0_split_0
I0821 12:31:36.121433 14629 net.cpp:418] rfcn_cls_new_1 -> rfcn_cls_new_1
I0821 12:31:36.124171 14629 net.cpp:150] Setting up rfcn_cls_new_1
I0821 12:31:36.124187 14629 net.cpp:157] Top shape: 1 98 14 14 (19208)
I0821 12:31:36.124191 14629 net.cpp:165] Memory required for data: 394143528
I0821 12:31:36.124199 14629 layer_factory.hpp:77] Creating layer rfcn_bbox
I0821 12:31:36.124213 14629 net.cpp:100] Creating Layer rfcn_bbox
I0821 12:31:36.124219 14629 net.cpp:444] rfcn_bbox <- conv_new_1_conv_new_1_relu_0_split_1
I0821 12:31:36.124228 14629 net.cpp:418] rfcn_bbox -> rfcn_bbox
I0821 12:31:36.130802 14629 net.cpp:150] Setting up rfcn_bbox
I0821 12:31:36.130821 14629 net.cpp:157] Top shape: 1 392 14 14 (76832)
I0821 12:31:36.130827 14629 net.cpp:165] Memory required for data: 394450856
I0821 12:31:36.130836 14629 layer_factory.hpp:77] Creating layer psroipooled_cls_rois
I0821 12:31:36.130844 14629 net.cpp:100] Creating Layer psroipooled_cls_rois
I0821 12:31:36.130849 14629 net.cpp:444] psroipooled_cls_rois <- rfcn_cls_new_1
I0821 12:31:36.130856 14629 net.cpp:444] psroipooled_cls_rois <- rois_proposal_0_split_0
I0821 12:31:36.130862 14629 net.cpp:418] psroipooled_cls_rois -> psroipooled_cls_rois
I0821 12:31:36.130874 14629 psroi_pooling_layer.cpp:26] Spatial scale: 0.0625
I0821 12:31:36.130936 14629 net.cpp:150] Setting up psroipooled_cls_rois
I0821 12:31:36.130944 14629 net.cpp:157] Top shape: 1 2 7 7 (98)
I0821 12:31:36.130947 14629 net.cpp:165] Memory required for data: 394451248
I0821 12:31:36.130954 14629 layer_factory.hpp:77] Creating layer ave_cls_score_rois
I0821 12:31:36.130964 14629 net.cpp:100] Creating Layer ave_cls_score_rois
I0821 12:31:36.130969 14629 net.cpp:444] ave_cls_score_rois <- psroipooled_cls_rois
I0821 12:31:36.130975 14629 net.cpp:418] ave_cls_score_rois -> cls_score
I0821 12:31:36.131568 14629 net.cpp:150] Setting up ave_cls_score_rois
I0821 12:31:36.131582 14629 net.cpp:157] Top shape: 1 2 1 1 (2)
I0821 12:31:36.131587 14629 net.cpp:165] Memory required for data: 394451256
I0821 12:31:36.131590 14629 layer_factory.hpp:77] Creating layer psroipooled_loc_rois
I0821 12:31:36.131600 14629 net.cpp:100] Creating Layer psroipooled_loc_rois
I0821 12:31:36.131605 14629 net.cpp:444] psroipooled_loc_rois <- rfcn_bbox
I0821 12:31:36.131611 14629 net.cpp:444] psroipooled_loc_rois <- rois_proposal_0_split_1
I0821 12:31:36.131618 14629 net.cpp:418] psroipooled_loc_rois -> psroipooled_loc_rois
I0821 12:31:36.131625 14629 psroi_pooling_layer.cpp:26] Spatial scale: 0.0625
I0821 12:31:36.131670 14629 net.cpp:150] Setting up psroipooled_loc_rois
I0821 12:31:36.131677 14629 net.cpp:157] Top shape: 1 8 7 7 (392)
I0821 12:31:36.131681 14629 net.cpp:165] Memory required for data: 394452824
I0821 12:31:36.131685 14629 layer_factory.hpp:77] Creating layer ave_bbox_pred_rois
I0821 12:31:36.131691 14629 net.cpp:100] Creating Layer ave_bbox_pred_rois
I0821 12:31:36.131695 14629 net.cpp:444] ave_bbox_pred_rois <- psroipooled_loc_rois
I0821 12:31:36.131703 14629 net.cpp:418] ave_bbox_pred_rois -> bbox_pred_pre
I0821 12:31:36.132256 14629 net.cpp:150] Setting up ave_bbox_pred_rois
I0821 12:31:36.132272 14629 net.cpp:157] Top shape: 1 8 1 1 (8)
I0821 12:31:36.132275 14629 net.cpp:165] Memory required for data: 394452856
I0821 12:31:36.132280 14629 layer_factory.hpp:77] Creating layer cls_prob
I0821 12:31:36.132295 14629 net.cpp:100] Creating Layer cls_prob
I0821 12:31:36.132302 14629 net.cpp:444] cls_prob <- cls_score
I0821 12:31:36.132309 14629 net.cpp:418] cls_prob -> cls_prob_pre
I0821 12:31:36.132678 14629 net.cpp:150] Setting up cls_prob
I0821 12:31:36.132689 14629 net.cpp:157] Top shape: 1 2 1 1 (2)
I0821 12:31:36.132694 14629 net.cpp:165] Memory required for data: 394452864
I0821 12:31:36.132697 14629 layer_factory.hpp:77] Creating layer cls_prob_reshape
I0821 12:31:36.132707 14629 net.cpp:100] Creating Layer cls_prob_reshape
I0821 12:31:36.132712 14629 net.cpp:444] cls_prob_reshape <- cls_prob_pre
I0821 12:31:36.132719 14629 net.cpp:418] cls_prob_reshape -> cls_prob
I0821 12:31:36.132750 14629 net.cpp:150] Setting up cls_prob_reshape
I0821 12:31:36.132758 14629 net.cpp:157] Top shape: 1 2 (2)
I0821 12:31:36.132761 14629 net.cpp:165] Memory required for data: 394452872
I0821 12:31:36.132766 14629 layer_factory.hpp:77] Creating layer bbox_pred_reshape
I0821 12:31:36.132772 14629 net.cpp:100] Creating Layer bbox_pred_reshape
I0821 12:31:36.132776 14629 net.cpp:444] bbox_pred_reshape <- bbox_pred_pre
I0821 12:31:36.132784 14629 net.cpp:418] bbox_pred_reshape -> bbox_pred
I0821 12:31:36.132810 14629 net.cpp:150] Setting up bbox_pred_reshape
I0821 12:31:36.132817 14629 net.cpp:157] Top shape: 1 8 (8)
I0821 12:31:36.132822 14629 net.cpp:165] Memory required for data: 394452904
I0821 12:31:36.132824 14629 net.cpp:228] bbox_pred_reshape does not need backward computation.
I0821 12:31:36.132828 14629 net.cpp:228] cls_prob_reshape does not need backward computation.
I0821 12:31:36.132833 14629 net.cpp:228] cls_prob does not need backward computation.
I0821 12:31:36.132836 14629 net.cpp:228] ave_bbox_pred_rois does not need backward computation.
…
