…
W0821 14:20:29.924860 21397 _caffe.cpp:123] Use this instead (with the named "weights" parameter):
W0821 14:20:29.924865 21397 _caffe.cpp:125] Net('./py-R-FCN/model/test_agonistic_face.prototxt', 1, weights='./py-R-FCN/model/resnet101_rfcn_ohem_iter_40000.caffemodel')
I0821 14:20:29.932237 21397 net.cpp:58] Initializing net from parameters: 
name: "ResNet-101"
state {
  phase: TEST
  level: 0
}
layer {
  name: "input"
  type: "Input"
  top: "data"
  top: "im_info"
  input_param {
    shape {
      dim: 1
      dim: 3
      dim: 224
      dim: 224
    }
    shape {
      dim: 1
      dim: 3
    }
  }
}
layer {
  name: "conv1"
  type: "Convolution"
  bottom: "data"
  top: "conv1"
  param {
    lr_mult: 0
  }
  convolution_param {
    num_output: 64
    bias_term: false
    pad: 3
    kernel_size: 7
    stride: 2
  }
}
layer {
  name: "bn_conv1"
  type: "BatchNorm"
  bottom: "conv1"
  top: "conv1"
  param {
    lr_mult: 0
    decay_mult: 0
  }
  param {
    lr_mult: 0
    decay_mult: 0
  }
  param {
    lr_mult: 0
    decay_mult: 0
  }
  batch_norm_param {
    use_global_stats: true
  }
}
layer {
  name: "scale_conv1"
  type: "Scale"
  bottom: "conv1"
  top: "conv1"
  param {
    lr_mult: 0
    decay_mult: 0
  }
  param {
    lr_mult: 0
    decay_mult: 0
  }
  scale_param {
    bias_term: true
  }
}
layer {
  name: "conv1_relu"
  type: "ReLU"
  bottom: "conv1"
  top: "conv1"
}
layer {
  name: "pool1"
  type: "Pooling"
  bottom: "conv1"
  top: "pool1"
  pooling_param {
    pool: MAX
    kernel_size: 3
    stride: 2
  }
}
layer {
  name: "res2a_branch1"
  type: "Convolution"
  bottom: "pool1"
  top: "res2a_branch1"
  param {
    lr_mult: 0
  }
  convolution_param {
    num_output: 256
    bias_term: false
    pad: 0
    kernel_size: 1
    stride: 1
  }
}
layer {
  name: "bn2a_branch1"
  type: "BatchNorm"
  bottom: "res2a_branch1"
  top: "res2a_branch1"
  param {
    lr_mult: 0
    decay_mult: 0
  }
  param {
    lr_mult: 0
    decay_mult: 0
  }
  param {
    lr_mult: 0
    decay_mult: 0
  }
  batch_norm_param {
    use_global_stats: true
  }
}
layer {
  name: "scale2a_branch1"
  type: "Scale"
  bottom: "res2a_branch1"
  top: "res2a_branch1"
  param {
    lr_mult: 0
    decay_mult: 0
  }
  param {
    lr_mult: 0
    decay_mult: 0
  }
  scale_param {
    bias_term: true
  }
}
layer {
  name: "res2a_branch2a"
  type: "Convolution"
  bottom: "pool1"
  top: "res2a_branch2a"
  param {
    lr_mult: 0
  }
  convolution_param {
    num_output: 64
    bias_term: false
    pad: 0
    kernel_size: 1
    stride: 1
  }
}
layer {
  name: "bn2a_branch2a"
  type: "BatchNorm"
  bottom: "res2a_branch2a"
  top: "res2a_branch2a"
  param {
    lr_mult: 0
    decay_mult: 0
  }
  param {
    lr_mult: 0
    decay_mult: 0
  }
  param {
    lr_mult: 0
    decay_mult: 0
  }
  batch_norm_param {
    use_global_stats: true
  }
}
layer {
  name: "scale2a_branch2a"
  type: "Scale"
  bottom: "res2a_branch2a"
  top: "res2a_branch2a"
  param {
    lr_mult: 0
    decay_mult: 0
  }
  param {
    lr_mult: 0
    decay_mult: 0
  }
  scale_param {
    bias_term: true
  }
}
layer {
  name: "res2a_branch2a_relu"
  type: "ReLU"
  bottom: "res2a_branch2a"
  top: "res2a_branch2a"
}
layer {
  name: "res2a_branch2b"
  type: "Convolution"
  bottom: "res2a_branch2a"
  top: "res2a_branch2b"
  param {
    lr_mult: 0
  }
  convolution_param {
    num_output: 64
    bias_term: false
    pad: 1
    kernel_size: 3
    stride: 1
  }
}
layer {
  name: "bn2a_branch2b"
  type: "BatchNorm"
  bottom: "res2a_branch2b"
  top: "res2a_branch2b"
  param {
    lr_mult: 0
    decay_mult: 0
  }
  param {
    lr_mult: 0
    decay_mult: 0
  }
  param {
    lr_mult: 0
    decay_mult: 0
  }
  batch_norm_param {
    use_global_stats: true
  }
}
layer {
  name: "scale2a_branch2b"
  type: "Scale"
  bottom: "res2a_branch2b"
  top: "res2a_branch2b"
  param {
    lr_mult: 0
    decay_mult: 0
  }
  param {
    lr_mult: 0
    decay_mult: 0
  }
  scale_param {
    bias_term: true
  }
}
layer {
  name: "res2a_branch2b_relu"
  type: "ReLU"
  bottom: "res2a_branch2b"
  top: "res2a_branch2b"
}
layer {
  name: "res2a_branch2c"
  type: "Convolution"
  bottom: "res2a_branch2b"
  top: "res2a_branch2c"
  param {
    lr_mult: 0
  }
  convolution_param {
    num_output: 256
    bias_term: false
    pad: 0
    kernel_size: 1
    stride: 1
  }
}
layer {
  name: "bn2a_branch2c"
  type: "BatchNorm"
  bottom: "res2a_branch2c"
  top: "res2a_branch2c"
  param {
    lr_mult: 0
    decay_mult: 0
  }
  param {
    lr_mult: 0
    decay_mult: 0
  }
  param {
    lr_mult: 0
    decay_mult: 0
  }
  batch_norm_param {
    use_global_stats: true
  }
}
layer {
  name: "scale2a_branch2c"
  type: "Scale"
  bottom: "res2a_branch2c"
  top: "res2a_branch2c"
  param {
    lr_mult: 0
    decay_mult: 0
  }
  param {
    lr_mult: 0
    decay_mult: 0
  }
  scale_param {
    bias_term: true
  }
}
layer {
  name: "res2a"
  type: "Eltwise"
  bottom: "res2a_branch1"
  bottom: "res2a_branch2c"
  top: "res2a"
}
layer {
  name: "res2a_relu"
  type: "ReLU"
  bottom: "res2a"
  top: "res2a"
}
layer {
  name: "res2b_branch2a"
  type: "Convolution"
  bottom: "res2a"
  top: "res2b_branch2a"
  param {
    lr_mult: 0
  }
  convolution_param {
    num_output: 64
    bias_term: false
    pad: 0
    kernel_size: 1
    stride: 1
  }
}
layer {
  name: "bn2b_branch2a"
  type: "BatchNorm"
  bottom: "res2b_branch2a"
  top: "res2b_branch2a"
  param {
    lr_mult: 0
    decay_mult: 0
  }
  param {
    lr_mult: 0
    decay_mult: 0
  }
  param {
    lr_mult: 0
    decay_mult: 0
  }
  batch_norm_param {
    use_global_stats: true
  }
}
layer {
  name: "scale2b_branch2a"
  type: "Scale"
  bottom: "res2b_branch2a"
  top: "res2b_branch2a"
  param {
    lr_mult: 0
    decay_mult: 0
  }
  param {
    lr_mult: 0
    decay_mult: 0
  }
  scale_param {
    bias_term: true
  }
}
layer {
  name: "res2b_branch2a_relu"
  type: "ReLU"
  bottom: "res2b_branch2a"
  top: "res2b_branch2a"
}
layer {
  name: "res2b_branch2b"
  type: "Convolution"
  bottom: "res2b_branch2a"
  top: "res2b_branch2b"
  param {
    lr_mult: 0
  }
  convolution_param {
    num_output: 64
    bias_term: false
    pad: 1
    kernel_size: 3
    stride: 1
  }
}
layer {
  name: "bn2b_branch2b"
  type: "BatchNorm"
  bottom: "res2b_branch2b"
  top: "res2b_branch2b"
  param {
    lr_mult: 0
    decay_mult: 0
  }
  param {
    lr_mult: 0
    decay_mult: 0
  }
  param {
    lr_mult: 0
    decay_mult: 0
  }
  batch_norm_param {
    use_global_stats: true
  }
}
layer {
  name: "scale2b_branch2b"
  type: "Scale"
  bottom: "res2b_branch2b"
  top: "res2b_branch2b"
  param {
    lr_mult: 0
    decay_mult: 0
  }
  param {
    lr_mult: 0
    decay_mult: 0
  }
  scale_param {
    bias_term: true
  }
}
layer {
  name: "res2b_branch2b_relu"
  type: "ReLU"
  bottom: "res2b_branch2b"
  top: "res2b_branch2b"
}
layer {
  name: "res2b_branch2c"
  type: "Convolution"
  bottom: "res2b_branch2b"
  top: "res2b_branch2c"
  param {
    lr_mult: 0
  }
  convolution_param {
    num_output: 256
    bias_term: false
    pad: 0
    kernel_size: 1
    stride: 1
  }
}
layer {
  name: "bn2b_branch2c"
  type: "BatchNorm"
  bottom: "res2b_branch2c"
  top: "res2b_branch2c"
  param {
    lr_mult: 0
    decay_mult: 0
  }
  param {
    lr_mult: 0
    decay_mult: 0
  }
  param {
    lr_mult: 0
    decay_mult: 0
  }
  batch_norm_param {
    use_global_stats: true
  }
}
layer {
  name: "scale2b_branch2c"
  type: "Scale"
  bottom: "res2b_branch2c"
  top: "res2b_branch2c"
  param {
    lr_mult: 0
    decay_mult: 0
  }
  param {
    lr_mult: 0
    decay_mult: 0
  }
  scale_param {
    bias_term: true
  }
}
layer {
  name: "res2b"
  type: "Eltwise"
  bottom: "res2a"
  bottom: "res2b_branch2c"
  top: "res2b"
}
layer {
  name: "res2b_relu"
  type: "ReLU"
  bottom: "res2b"
  top: "res2b"
}
layer {
  name: "res2c_branch2a"
  type: "Convolution"
  bottom: "res2b"
  top: "res2c_branch2a"
  param {
    lr_mult: 0
  }
  convolution_param {
    num_output: 64
    bias_term: false
    pad: 0
    kernel_size: 1
    stride: 1
  }
}
layer {
  name: "bn2c_branch2a"
  type: "BatchNorm"
  bottom: "res2c_branch2a"
  top: "res2c_branch2a"
  param {
    lr_mult: 0
    decay_mult: 0
  }
  param {
    lr_mult: 0
    decay_mult: 0
  }
  param {
    lr_mult: 0
    decay_mult: 0
  }
  batch_norm_param {
    use_global_stats: true
  }
}
layer {
  name: "scale2c_branch2a"
  type: "Scale"
  bottom: "res2c_branch2a"
  top: "res2c_branch2a"
  param {
    lr_mult: 0
    decay_mult: 0
  }
  param {
    lr_mult: 0
    decay_mult: 0
  }
  scale_param {
    bias_term: true
  }
}
layer {
  name: "res2c_branch2a_relu"
  type: "ReLU"
  bottom: "res2c_branch2a"
  top: "res2c_branch2a"
}
layer {
  name: "res2c_branch2b"
  type: "Convolution"
  bottom: "res2c_branch2a"
  top: "res2c_branch2b"
  param {
    lr_mult: 0
  }
  convolution_param {
    num_output: 64
    bias_term: false
    pad: 1
    kernel_size: 3
    stride: 1
  }
}
layer {
  name: "bn2c_branch2b"
  type: "BatchNorm"
  bottom: "res2c_branch2b"
  top: "res2c_branch2b"
  param {
    lr_mult: 0
    decay_mult: 0
  }
  param {
    lr_mult: 0
    decay_mult: 0
  }
  param {
    lr_mult: 0
    decay_mult: 0
  }
  batch_norm_param {
    use_global_stats: true
  }
}
layer {
  name: "scale2c_branch2b"
  type: "Scale"
  bottom: "res2c_branch2b"
  top: "res2c_branch2b"
  param {
    lr_mult: 0
    decay_mult: 0
  }
  param {
    lr_mult: 0
    decay_mult: 0
  }
  scale_param {
    bias_term: true
  }
}
layer {
  name: "res2c_branch2b_relu"
  type: "ReLU"
  bottom: "res2c_branch2b"
  top: "res2c_branch2b"
}
layer {
  name: "res2c_branch2c"
  type: "Convolution"
  bottom: "res2c_branch2b"
  top: "res2c_branch2c"
  param {
    lr_mult: 0
  }
  convolution_param {
    num_output: 256
    bias_term: false
    pad: 0
    kernel_size: 1
    stride: 1
  }
}
layer {
  name: "bn2c_branch2c"
  type: "BatchNorm"
  bottom: "res2c_branch2c"
  top: "res2c_branch2c"
  param {
    lr_mult: 0
    decay_mult: 0
  }
  param {
    lr_mult: 0
    decay_mult: 0
  }
  param {
    lr_mult: 0
    decay_mult: 0
  }
  batch_norm_param {
    use_global_stats: true
  }
}
layer {
  name: "scale2c_branch2c"
  type: "Scale"
  bottom: "res2c_branch2c"
  top: "res2c_branch2c"
  param {
    lr_mult: 0
    decay_mult: 0
  }
  param {
    lr_mult: 0
    decay_mult: 0
  }
  scale_param {
    bias_term: true
  }
}
layer {
  name: "res2c"
  type: "Eltwise"
  bottom: "res2b"
  bottom: "res2c_branch2c"
  top: "res2c"
}
layer {
  name: "res2c_relu"
  type: "ReLU"
  bottom: "res2c"
  top: "res2c"
}
layer {
  name: "res3a_branch1"
  type: "Convolution"
  bottom: "res2c"
  top: "res3a_branch1"
  param {
    lr_mult: 1
  }
  convolution_param {
    num_output: 512
    bias_term: false
    pad: 0
    kernel_size: 1
    stride: 2
  }
}
layer {
  name: "bn3a_branch1"
  type: "BatchNorm"
  bottom: "res3a_branch1"
  top: "res3a_branch1"
  param {
    lr_mult: 0
    decay_mult: 0
  }
  param {
    lr_mult: 0
    decay_mult: 0
  }
  param {
    lr_mult: 0
    decay_mult: 0
  }
  batch_norm_param {
    use_global_stats: true
  }
}
layer {
  name: "scale3a_branch1"
  type: "Scale"
  bottom: "res3a_branch1"
  top: "res3a_branch1"
  param {
    lr_mult: 0
    decay_mult: 0
  }
  param {
    lr_mult: 0
    decay_mult: 0
  }
  scale_param {
    bias_term: true
  }
}
layer {
  name: "res3a_branch2a"
  type: "Convolution"
  bottom: "res2c"
  top: "res3a_branch2a"
  param {
    lr_mult: 1
  }
  convolution_param {
    num_output: 128
    bias_term: false
    pad: 0
    kernel_size: 1
    stride: 2
  }
}
layer {
  name: "bn3a_branch2a"
  type: "BatchNorm"
  bottom: "res3a_branch2a"
  top: "res3a_branch2a"
  param {
    lr_mult: 0
    decay_mult: 0
  }
  param {
    lr_mult: 0
    decay_mult: 0
  }
  param {
    lr_mult: 0
    decay_mult: 0
  }
  batch_norm_param {
    use_global_stats: true
  }
}
layer {
  name: "scale3a_branch2a"
  type: "Scale"
  bottom: "res3a_branch2a"
  top: "res3a_branch2a"
  param {
    lr_mult: 0
    decay_mult: 0
  }
  param {
    lr_mult: 0
    decay_mult: 0
  }
  scale_param {
    bias_term: true
  }
}
layer {
  name: "res3a_branch2a_relu"
  type: "ReLU"
  bottom: "res3a_branch2a"
  top: "res3a_branch2a"
}
layer {
  name: "res3a_branch2b"
  type: "Convolution"
  bottom: "res3a_branch2a"
  top: "res3a_branch2b"
  param {
    lr_mult: 1
  }
  convolution_param {
    num_output: 128
    bias_term: false
    pad: 1
    kernel_size: 3
    stride: 1
  }
}
layer {
  name: "bn3a_branch2b"
  type: "BatchNorm"
  bottom: "res3a_branch2b"
  top: "res3a_branch2b"
  param {
    lr_mult: 0
    decay_mult: 0
  }
  param {
    lr_mult: 0
    decay_mult: 0
  }
  param {
    lr_mult: 0
    decay_mult: 0
  }
  batch_norm_param {
    use_global_stats: true
  }
}
layer {
  name: "scale3a_branch2b"
  type: "Scale"
  bottom: "res3a_branch2b"
  top: "res3a_branch2b"
  param {
    lr_mult: 0
    decay_mult: 0
  }
  param {
    lr_mult: 0
    decay_mult: 0
  }
  scale_param {
    bias_term: true
  }
}
layer {
  name: "res3a_branch2b_relu"
  type: "ReLU"
  bottom: "res3a_branch2b"
  top: "res3a_branch2b"
}
layer {
  name: "res3a_branch2c"
  type: "Convolution"
  bottom: "res3a_branch2b"
  top: "res3a_branch2c"
  param {
    lr_mult: 1
  }
  convolution_param {
    num_output: 512
    bias_term: false
    pad: 0
    kernel_size: 1
    stride: 1
  }
}
layer {
  name: "bn3a_branch2c"
  type: "BatchNorm"
  bottom: "res3a_branch2c"
  top: "res3a_branch2c"
  param {
    lr_mult: 0
    decay_mult: 0
  }
  param {
    lr_mult: 0
    decay_mult: 0
  }
  param {
    lr_mult: 0
    decay_mult: 0
  }
  batch_norm_param {
    use_global_stats: true
  }
}
layer {
  name: "scale3a_branch2c"
  type: "Scale"
  bottom: "res3a_branch2c"
  top: "res3a_branch2c"
  param {
    lr_mult: 0
    decay_mult: 0
  }
  param {
    lr_mult: 0
    decay_mult: 0
  }
  scale_param {
    bias_term: true
  }
}
layer {
  name: "res3a"
  type: "Eltwise"
  bottom: "res3a_branch1"
  bottom: "res3a_branch2c"
  top: "res3a"
}
layer {
  name: "res3a_relu"
  type: "ReLU"
  bottom: "res3a"
  top: "res3a"
}
layer {
  name: "res3b1_branch2a"
  type: "Convolution"
  bottom: "res3a"
  top: "res3b1_branch2a"
  param {
    lr_mult: 1
  }
  convolution_param {
    num_output: 128
    bias_term: false
    pad: 0
    kernel_size: 1
    stride: 1
  }
}
layer {
  name: "bn3b1_branch2a"
  type: "BatchNorm"
  bottom: "res3b1_branch2a"
  top: "res3b1_branch2a"
  param {
    lr_mult: 0
    decay_mult: 0
  }
  param {
    lr_mult: 0
    decay_mult: 0
  }
  param {
    lr_mult: 0
    decay_mult: 0
  }
  batch_norm_param {
    use_global_stats: true
  }
}
layer {
  name: "scale3b1_branch2a"
  type: "Scale"
  bottom: "res3b1_branch2a"
  top: "res3b1_branch2a"
  param {
    lr_mult: 0
    decay_mult: 0
  }
  param {
    lr_mult: 0
    decay_mult: 0
  }
  scale_param {
    bias_term: true
  }
}
layer {
  name: "res3b1_branch2a_relu"
  type: "ReLU"
  bottom: "res3b1_branch2a"
  top: "res3b1_branch2a"
}
layer {
  name: "res3b1_branch2b"
  type: "Convolution"
  bottom: "res3b1_branch2a"
  top: "res3b1_branch2b"
  param {
    lr_mult: 1
  }
  convolution_param {
    num_output: 128
    bias_term: false
    pad: 1
    kernel_size: 3
    stride: 1
  }
}
layer {
  name: "bn3b1_branch2b"
  type: "BatchNorm"
  bottom: "res3b1_branch2b"
  top: "res3b1_branch2b"
  param {
    lr_mult: 0
    decay_mult: 0
  }
  param {
    lr_mult: 0
    decay_mult: 0
  }
  param {
    lr_mult: 0
    decay_mult: 0
  }
  batch_norm_param {
    use_global_stats: true
  }
}
layer {
  name: "scale3b1_branch2b"
  type: "Scale"
  bottom: "res3b1_branch2b"
  top: "res3b1_branch2b"
  param {
    lr_mult: 0
    decay_mult: 0
  }
  param {
    lr_mult: 0
    decay_mult: 0
  }
  scale_param {
    bias_term: true
  }
}
layer {
  name: "res3b1_branch2b_relu"
  type: "ReLU"
  bottom: "res3b1_branch2b"
  top: "res3b1_branch2b"
}
layer {
  name: "res3b1_branch2c"
  type: "Convolution"
  bottom: "res3b1_branch2b"
  top: "res3b1_branch2c"
  param {
    lr_mult: 1
  }
  convolution_param {
    num_output: 512
    bias_term: false
    pad: 0
    kernel_size: 1
    stride: 1
  }
}
layer {
  name: "bn3b1_branch2c"
  type: "BatchNorm"
  bottom: "res3b1_branch2c"
  top: "res3b1_branch2c"
  param {
    lr_mult: 0
    decay_mult: 0
  }
  param {
    lr_mult: 0
    decay_mult: 0
  }
  param {
    lr_mult: 0
    decay_mult: 0
  }
  batch_norm_param {
    use_global_stats: true
  }
}
layer {
  name: "scale3b1_branch2c"
  type: "Scale"
  bottom: "res3b1_branch2c"
  top: "res3b1_branch2c"
  param {
    lr_mult: 0
    decay_mult: 0
  }
  param {
    lr_mult: 0
    decay_mult: 0
  }
  scale_param {
    bias_term: true
  }
}
layer {
  name: "res3b1"
  type: "Eltwise"
  bottom: "res3a"
  bottom: "res3b1_branch2c"
  top: "res3b1"
}
layer {
  name: "res3b1_relu"
  type: "ReLU"
  bottom: "res3b1"
  top: "res3b1"
}
layer {
  name: "res3b2_branch2a"
  type: "Convolution"
  bottom: "res3b1"
  top: "res3b2_branch2a"
  param {
    lr_mult: 1
  }
  convolution_param {
    num_output: 128
    bias_term: false
    pad: 0
    kernel_size: 1
    stride: 1
  }
}
layer {
  name: "bn3b2_branch2a"
  type: "BatchNorm"
  bottom: "res3b2_branch2a"
  top: "res3b2_branch2a"
  param {
    lr_mult: 0
    decay_mult: 0
  }
  param {
    lr_mult: 0
    decay_mult: 0
  }
  param {
    lr_mult: 0
    decay_mult: 0
  }
  batch_norm_param {
    use_global_stats: true
  }
}
layer {
  name: "scale3b2_branch2a"
  type: "Scale"
  bottom: "res3b2_branch2a"
  top: "res3b2_branch2a"
  param {
    lr_mult: 0
    decay_mult: 0
  }
  param {
    lr_mult: 0
    decay_mult: 0
  }
  scale_param {
    bias_term: true
  }
}
layer {
  name: "res3b2_branch2a_relu"
  type: "ReLU"
  bottom: "res3b2_branch2a"
  top: "res3b2_branch2a"
}
layer {
  name: "res3b2_branch2b"
  type: "Convolution"
  bottom: "res3b2_branch2a"
  top: "res3b2_branch2b"
  param {
    lr_mult: 1
  }
  convolution_param {
    num_output: 128
    bias_term: false
    pad: 1
    kernel_size: 3
    stride: 1
  }
}
layer {
  name: "bn3b2_branch2b"
  type: "BatchNorm"
  bottom: "res3b2_branch2b"
  top: "res3b2_branch2b"
  param {
    lr_mult: 0
    decay_mult: 0
  }
  param {
    lr_mult: 0
    decay_mult: 0
  }
  param {
    lr_mult: 0
    decay_mult: 0
  }
  batch_norm_param {
    use_global_stats: true
  }
}
layer {
  name: "scale3b2_branch2b"
  type: "Scale"
  bottom: "res3b2_branch2b"
  top: "res3b2_branch2b"
  param {
    lr_mult: 0
    decay_mult: 0
  }
  param {
    lr_mult: 0
    decay_mult: 0
  }
  scale_param {
    bias_term: true
  }
}
layer {
  name: "res3b2_branch2b_relu"
  type: "ReLU"
  bottom: "res3b2_branch2b"
  top: "res3b2_branch2b"
}
layer {
  name: "res3b2_branch2c"
  type: "Convolution"
  bottom: "res3b2_branch2b"
  top: "res3b2_branch2c"
  param {
    lr_mult: 1
  }
  convolution_param {
    num_output: 512
    bias_term: false
    pad: 0
    kernel_size: 1
    stride: 1
  }
}
layer {
  name: "bn3b2_branch2c"
  type: "BatchNorm"
  bottom: "res3b2_branch2c"
  top: "res3b2_branch2c"
  param {
    lr_mult: 0
    decay_mult: 0
  }
  param {
    lr_mult: 0
    decay_mult: 0
  }
  param {
    lr_mult: 0
    decay_mult: 0
  }
  batch_norm_param {
    use_global_stats: true
  }
}
layer {
  name: "scale3b2_branch2c"
  type: "Scale"
  bottom: "res3b2_branch2c"
  top: "res3b2_branch2c"
  param {
    lr_mult: 0
    decay_mult: 0
  }
  param {
    lr_mult: 0
    decay_mult: 0
  }
  scale_param {
    bias_term: true
  }
}
layer {
  name: "res3b2"
  type: "Eltwise"
  bottom: "res3b1"
  bottom: "res3b2_branch2c"
  top: "res3b2"
}
layer {
  name: "res3b2_relu"
  type: "ReLU"
  bottom: "res3b2"
  top: "res3b2"
}
layer {
  name: "res3b3_branch2a"
  type: "Convolution"
  bottom: "res3b2"
  top: "res3b3_branch2a"
  param {
    lr_mult: 1
  }
  convolution_param {
    num_output: 128
    bias_term: false
    pad: 0
    kernel_size: 1
    stride: 1
  }
}
layer {
  name: "bn3b3_branch2a"
  type: "BatchNorm"
  bottom: "res3b3_branch2a"
  top: "res3b3_branch2a"
  param {
    lr_mult: 0
    decay_mult: 0
  }
  param {
    lr_mult: 0
    decay_mult: 0
  }
  param {
    lr_mult: 0
    decay_mult: 0
  }
  batch_norm_param {
    use_global_stats: true
  }
}
layer {
  name: "scale3b3_branch2a"
  type: "Scale"
  bottom: "res3b3_branch2a"
  top: "res3b3_branch2a"
  param {
    lr_mult: 0
    decay_mult: 0
  }
  param {
    lr_mult: 0
    decay_mult: 0
  }
  scale_param {
    bias_term: true
  }
}
layer {
  name: "res3b3_branch2a_relu"
  type: "ReLU"
  bottom: "res3b3_branch2a"
  top: "res3b3_branch2a"
}
layer {
  name: "res3b3_branch2b"
  type: "Convolution"
  bottom: "res3b3_branch2a"
  top: "res3b3_branch2b"
  param {
    lr_mult: 1
  }
  convolution_param {
    num_output: 128
    bias_term: false
    pad: 1
    kernel_size: 3
    stride: 1
  }
}
layer {
  name: "bn3b3_branch2b"
  type: "BatchNorm"
  bottom: "res3b3_branch2b"
  top: "res3b3_branch2b"
  param {
    lr_mult: 0
    decay_mult: 0
  }
  param {
    lr_mult: 0
    decay_mult: 0
  }
  param {
    lr_mult: 0
    decay_mult: 0
  }
  batch_norm_param {
    use_global_stats: true
  }
}
layer {
  name: "scale3b3_branch2b"
  type: "Scale"
  bottom: "res3b3_branch2b"
  top: "res3b3_branch2b"
  param {
    lr_mult: 0
    decay_mult: 0
  }
  param {
    lr_mult: 0
    decay_mult: 0
  }
  scale_param {
    bias_term: true
  }
}
layer {
  name: "res3b3_branch2b_relu"
  type: "ReLU"
  bottom: "res3b3_branch2b"
  top: "res3b3_branch2b"
}
layer {
  name: "res3b3_branch2c"
  type: "Convolution"
  bottom: "res3b3_branch2b"
  top: "res3b3_branch2c"
  param {
    lr_mult: 1
  }
  convolution_param {
    num_output: 512
    bias_term: false
    pad: 0
    kernel_size: 1
    stride: 1
  }
}
layer {
  name: "bn3b3_branch2c"
  type: "BatchNorm"
  bottom: "res3b3_branch2c"
  top: "res3b3_branch2c"
  param {
    lr_mult: 0
    decay_mult: 0
  }
  param {
    lr_mult: 0
    decay_mult: 0
  }
  param {
    lr_mult: 0
    decay_mult: 0
  }
  batch_norm_param {
    use_global_stats: true
  }
}
layer {
  name: "scale3b3_branch2c"
  type: "Scale"
  bottom: "res3b3_branch2c"
  top: "res3b3_branch2c"
  param {
    lr_mult: 0
    decay_mult: 0
  }
  param {
    lr_mult: 0
    decay_mult: 0
  }
  scale_param {
    bias_term: true
  }
}
layer {
  name: "res3b3"
  type: "Eltwise"
  bottom: "res3b2"
  bottom: "res3b3_branch2c"
  top: "res3b3"
}
layer {
  name: "res3b3_relu"
  type: "ReLU"
  bottom: "res3b3"
  top: "res3b3"
}
layer {
  name: "res4a_branch1"
  type: "Convolution"
  bottom: "res3b3"
  top: "res4a_branch1"
  param {
    lr_mult: 1
  }
  convolution_param {
    num_output: 1024
    bias_term: false
    pad: 0
    kernel_size: 1
    stride: 2
  }
}
layer {
  name: "bn4a_branch1"
  type: "BatchNorm"
  bottom: "res4a_branch1"
  top: "res4a_branch1"
  param {
    lr_mult: 0
    decay_mult: 0
  }
  param {
    lr_mult: 0
    decay_mult: 0
  }
  param {
    lr_mult: 0
    decay_mult: 0
  }
  batch_norm_param {
    use_global_stats: true
  }
}
layer {
  name: "scale4a_branch1"
  type: "Scale"
  bottom: "res4a_branch1"
  top: "res4a_branch1"
  param {
    lr_mult: 0
    decay_mult: 0
  }
  param {
    lr_mult: 0
    decay_mult: 0
  }
  scale_param {
    bias_term: true
  }
}
layer {
  name: "res4a_branch2a"
  type: "Convolution"
  bottom: "res3b3"
  top: "res4a_branch2a"
  param {
    lr_mult: 1
  }
  convolution_param {
    num_output: 256
    bias_term: false
    pad: 0
    kernel_size: 1
    stride: 2
  }
}
layer {
  name: "bn4a_branch2a"
  type: "BatchNorm"
  bottom: "res4a_branch2a"
  top: "res4a_branch2a"
  param {
    lr_mult: 0
    decay_mult: 0
  }
  param {
    lr_mult: 0
    decay_mult: 0
  }
  param {
    lr_mult: 0
    decay_mult: 0
  }
  batch_norm_param {
    use_global_stats: true
  }
}
layer {
  name: "scale4a_branch2a"
  type: "Scale"
  bottom: "res4a_branch2a"
  top: "res4a_branch2a"
  param {
    lr_mult: 0
    decay_mult: 0
  }
  param {
    lr_mult: 0
    decay_mult: 0
  }
  scale_param {
    bias_term: true
  }
}
layer {
  name: "res4a_branch2a_relu"
  type: "ReLU"
  bottom: "res4a_branch2a"
  top: "res4a_branch2a"
}
layer {
  name: "res4a_branch2b"
  type: "Convolution"
  bottom: "res4a_branch2a"
  top: "res4a_branch2b"
  param {
    lr_mult: 1
  }
  convolution_param {
    num_output: 256
    bias_term: false
    pad: 1
    kernel_size: 3
    stride: 1
  }
}
layer {
  name: "bn4a_branch2b"
  type: "BatchNorm"
  bottom: "res4a_branch2b"
  top: "res4a_branch2b"
  param {
    lr_mult: 0
    decay_mult: 0
  }
  param {
    lr_mult: 0
    decay_mult: 0
  }
  param {
    lr_mult: 0
    decay_mult: 0
  }
  batch_norm_param {
    use_global_stats: true
  }
}
layer {
  name: "scale4a_branch2b"
  type: "Scale"
  bottom: "res4a_branch2b"
  top: "res4a_branch2b"
  param {
    lr_mult: 0
    decay_mult: 0
  }
  param {
    lr_mult: 0
    decay_mult: 0
  }
  scale_param {
    bias_term: true
  }
}
layer {
  name: "res4a_branch2b_relu"
  type: "ReLU"
  bottom: "res4a_branch2b"
  top: "res4a_branch2b"
}
layer {
  name: "res4a_branch2c"
  type: "Convolution"
  bottom: "res4a_branch2b"
  top: "res4a_branch2c"
  param {
    lr_mult: 1
  }
  convolution_param {
    num_output: 1024
    bias_term: false
    pad: 0
    kernel_size: 1
    stride: 1
  }
}
layer {
  name: "bn4a_branch2c"
  type: "BatchNorm"
  bottom: "res4a_branch2c"
  top: "res4a_branch2c"
  param {
    lr_mult: 0
    decay_mult: 0
  }
  param {
    lr_mult: 0
    decay_mult: 0
  }
  param {
    lr_mult: 0
    decay_mult: 0
  }
  batch_norm_param {
    use_global_stats: true
  }
}
layer {
  name: "scale4a_branch2c"
  type: "Scale"
  bottom: "res4a_branch2c"
  top: "res4a_branch2c"
  param {
    lr_mult: 0
    decay_mult: 0
  }
  param {
    lr_mult: 0
    decay_mult: 0
  }
  scale_param {
    bias_term: true
  }
}
layer {
  name: "res4a"
  type: "Eltwise"
  bottom: "res4a_branch1"
  bottom: "res4a_branch2c"
  top: "res4a"
}
layer {
  name: "res4a_relu"
  type: "ReLU"
  bottom: "res4a"
  top: "res4a"
}
layer {
  name: "res4b1_branch2a"
  type: "Convolution"
  bottom: "res4a"
  top: "res4b1_branch2a"
  param {
    lr_mult: 1
  }
  convolution_param {
    num_output: 256
    bias_term: false
    pad: 0
    kernel_size: 1
    stride: 1
  }
}
layer {
  name: "bn4b1_branch2a"
  type: "BatchNorm"
  bottom: "res4b1_branch2a"
  top: "res4b1_branch2a"
  param {
    lr_mult: 0
    decay_mult: 0
  }
  param {
    lr_mult: 0
    decay_mult: 0
  }
  param {
    lr_mult: 0
    decay_mult: 0
  }
  batch_norm_param {
    use_global_stats: true
  }
}
layer {
  name: "scale4b1_branch2a"
  type: "Scale"
  bottom: "res4b1_branch2a"
  top: "res4b1_branch2a"
  param {
    lr_mult: 0
    decay_mult: 0
  }
  param {
    lr_mult: 0
    decay_mult: 0
  }
  scale_param {
    bias_term: true
  }
}
layer {
  name: "res4b1_branch2a_relu"
  type: "ReLU"
  bottom: "res4b1_branch2a"
  top: "res4b1_branch2a"
}
layer {
  name: "res4b1_branch2b"
  type: "Convolution"
  bottom: "res4b1_branch2a"
  top: "res4b1_branch2b"
  param {
    lr_mult: 1
  }
  convolution_param {
    num_output: 256
    bias_term: false
    pad: 1
    kernel_size: 3
    stride: 1
  }
}
layer {
  name: "bn4b1_branch2b"
  type: "BatchNorm"
  bottom: "res4b1_branch2b"
  top: "res4b1_branch2b"
  param {
    lr_mult: 0
    decay_mult: 0
  }
  param {
    lr_mult: 0
    decay_mult: 0
  }
  param {
    lr_mult: 0
    decay_mult: 0
  }
  batch_norm_param {
    use_global_stats: true
  }
}
layer {
  name: "scale4b1_branch2b"
  type: "Scale"
  bottom: "res4b1_branch2b"
  top: "res4b1_branch2b"
  param {
    lr_mult: 0
    decay_mult: 0
  }
  param {
    lr_mult: 0
    decay_mult: 0
  }
  scale_param {
    bias_term: true
  }
}
layer {
  name: "res4b1_branch2b_relu"
  type: "ReLU"
  bottom: "res4b1_branch2b"
  top: "res4b1_branch2b"
}
layer {
  name: "res4b1_branch2c"
  type: "Convolution"
  bottom: "res4b1_branch2b"
  top: "res4b1_branch2c"
  param {
    lr_mult: 1
  }
  convolution_param {
    num_output: 1024
    bias_term: false
    pad: 0
    kernel_size: 1
    stride: 1
  }
}
layer {
  name: "bn4b1_branch2c"
  type: "BatchNorm"
  bottom: "res4b1_branch2c"
  top: "res4b1_branch2c"
  param {
    lr_mult: 0
    decay_mult: 0
  }
  param {
    lr_mult: 0
    decay_mult: 0
  }
  param {
    lr_mult: 0
    decay_mult: 0
  }
  batch_norm_param {
    use_global_stats: true
  }
}
layer {
  name: "scale4b1_branch2c"
  type: "Scale"
  bottom: "res4b1_branch2c"
  top: "res4b1_branch2c"
  param {
    lr_mult: 0
    decay_mult: 0
  }
  param {
    lr_mult: 0
    decay_mult: 0
  }
  scale_param {
    bias_term: true
  }
}
layer {
  name: "res4b1"
  type: "Eltwise"
  bottom: "res4a"
  bottom: "res4b1_branch2c"
  top: "res4b1"
}
layer {
  name: "res4b1_relu"
  type: "ReLU"
  bottom: "res4b1"
  top: "res4b1"
}
layer {
  name: "res4b2_branch2a"
  type: "Convolution"
  bottom: "res4b1"
  top: "res4b2_branch2a"
  param {
    lr_mult: 1
  }
  convolution_param {
    num_output: 256
    bias_term: false
    pad: 0
    kernel_size: 1
    stride: 1
  }
}
layer {
  name: "bn4b2_branch2a"
  type: "BatchNorm"
  bottom: "res4b2_branch2a"
  top: "res4b2_branch2a"
  param {
    lr_mult: 0
    decay_mult: 0
  }
  param {
    lr_mult: 0
    decay_mult: 0
  }
  param {
    lr_mult: 0
    decay_mult: 0
  }
  batch_norm_param {
    use_global_stats: true
  }
}
layer {
  name: "scale4b2_branch2a"
  type: "Scale"
  bottom: "res4b2_branch2a"
  top: "res4b2_branch2a"
  param {
    lr_mult: 0
    decay_mult: 0
  }
  param {
    lr_mult: 0
    decay_mult: 0
  }
  scale_param {
    bias_term: true
  }
}
layer {
  name: "res4b2_branch2a_relu"
  type: "ReLU"
  bottom: "res4b2_branch2a"
  top: "res4b2_branch2a"
}
layer {
  name: "res4b2_branch2b"
  type: "Convolution"
  bottom: "res4b2_branch2a"
  top: "res4b2_branch2b"
  param {
    lr_mult: 1
  }
  convolution_param {
    num_output: 256
    bias_term: false
    pad: 1
    kernel_size: 3
    stride: 1
  }
}
layer {
  name: "bn4b2_branch2b"
  type: "BatchNorm"
  bottom: "res4b2_branch2b"
  top: "res4b2_branch2b"
  param {
    lr_mult: 0
    decay_mult: 0
  }
  param {
    lr_mult: 0
    decay_mult: 0
  }
  param {
    lr_mult: 0
    decay_mult: 0
  }
  batch_norm_param {
    use_global_stats: true
  }
}
layer {
  name: "scale4b2_branch2b"
  type: "Scale"
  bottom: "res4b2_branch2b"
  top: "res4b2_branch2b"
  param {
    lr_mult: 0
    decay_mult: 0
  }
  par
I0821 14:20:29.933929 21397 layer_factory.hpp:77] Creating layer input
I0821 14:20:29.933946 21397 net.cpp:100] Creating Layer input
I0821 14:20:29.933953 21397 net.cpp:418] input -> data
I0821 14:20:29.933970 21397 net.cpp:418] input -> im_info
I0821 14:20:31.439944 21397 net.cpp:150] Setting up input
I0821 14:20:31.439996 21397 net.cpp:157] Top shape: 1 3 224 224 (150528)
I0821 14:20:31.440001 21397 net.cpp:157] Top shape: 1 3 (3)
I0821 14:20:31.440006 21397 net.cpp:165] Memory required for data: 602124
I0821 14:20:31.440016 21397 layer_factory.hpp:77] Creating layer conv1
I0821 14:20:31.440042 21397 net.cpp:100] Creating Layer conv1
I0821 14:20:31.440049 21397 net.cpp:444] conv1 <- data
I0821 14:20:31.440062 21397 net.cpp:418] conv1 -> conv1
I0821 14:20:31.766286 21397 net.cpp:150] Setting up conv1
I0821 14:20:31.766335 21397 net.cpp:157] Top shape: 1 64 112 112 (802816)
I0821 14:20:31.766340 21397 net.cpp:165] Memory required for data: 3813388
I0821 14:20:31.766360 21397 layer_factory.hpp:77] Creating layer bn_conv1
I0821 14:20:31.766376 21397 net.cpp:100] Creating Layer bn_conv1
I0821 14:20:31.766381 21397 net.cpp:444] bn_conv1 <- conv1
I0821 14:20:31.766389 21397 net.cpp:405] bn_conv1 -> conv1 (in-place)
I0821 14:20:31.766615 21397 net.cpp:150] Setting up bn_conv1
I0821 14:20:31.766623 21397 net.cpp:157] Top shape: 1 64 112 112 (802816)
I0821 14:20:31.766628 21397 net.cpp:165] Memory required for data: 7024652
I0821 14:20:31.766638 21397 layer_factory.hpp:77] Creating layer scale_conv1
I0821 14:20:31.766655 21397 net.cpp:100] Creating Layer scale_conv1
I0821 14:20:31.766660 21397 net.cpp:444] scale_conv1 <- conv1
I0821 14:20:31.766677 21397 net.cpp:405] scale_conv1 -> conv1 (in-place)
I0821 14:20:31.766726 21397 layer_factory.hpp:77] Creating layer scale_conv1
I0821 14:20:31.766856 21397 net.cpp:150] Setting up scale_conv1
I0821 14:20:31.766865 21397 net.cpp:157] Top shape: 1 64 112 112 (802816)
I0821 14:20:31.766868 21397 net.cpp:165] Memory required for data: 10235916
I0821 14:20:31.766876 21397 layer_factory.hpp:77] Creating layer conv1_relu
I0821 14:20:31.766885 21397 net.cpp:100] Creating Layer conv1_relu
I0821 14:20:31.766888 21397 net.cpp:444] conv1_relu <- conv1
I0821 14:20:31.766896 21397 net.cpp:405] conv1_relu -> conv1 (in-place)
I0821 14:20:31.767118 21397 net.cpp:150] Setting up conv1_relu
I0821 14:20:31.767129 21397 net.cpp:157] Top shape: 1 64 112 112 (802816)
I0821 14:20:31.767133 21397 net.cpp:165] Memory required for data: 13447180
I0821 14:20:31.767138 21397 layer_factory.hpp:77] Creating layer pool1
I0821 14:20:31.767145 21397 net.cpp:100] Creating Layer pool1
I0821 14:20:31.767149 21397 net.cpp:444] pool1 <- conv1
I0821 14:20:31.767155 21397 net.cpp:418] pool1 -> pool1
I0821 14:20:31.767208 21397 net.cpp:150] Setting up pool1
I0821 14:20:31.767215 21397 net.cpp:157] Top shape: 1 64 56 56 (200704)
I0821 14:20:31.767218 21397 net.cpp:165] Memory required for data: 14249996
I0821 14:20:31.767225 21397 layer_factory.hpp:77] Creating layer pool1_pool1_0_split
I0821 14:20:31.767240 21397 net.cpp:100] Creating Layer pool1_pool1_0_split
I0821 14:20:31.767243 21397 net.cpp:444] pool1_pool1_0_split <- pool1
I0821 14:20:31.767249 21397 net.cpp:418] pool1_pool1_0_split -> pool1_pool1_0_split_0
I0821 14:20:31.767257 21397 net.cpp:418] pool1_pool1_0_split -> pool1_pool1_0_split_1
I0821 14:20:31.767292 21397 net.cpp:150] Setting up pool1_pool1_0_split
I0821 14:20:31.767299 21397 net.cpp:157] Top shape: 1 64 56 56 (200704)
I0821 14:20:31.767303 21397 net.cpp:157] Top shape: 1 64 56 56 (200704)
I0821 14:20:31.767307 21397 net.cpp:165] Memory required for data: 15855628
I0821 14:20:31.767310 21397 layer_factory.hpp:77] Creating layer res2a_branch1
I0821 14:20:31.767321 21397 net.cpp:100] Creating Layer res2a_branch1
I0821 14:20:31.767325 21397 net.cpp:444] res2a_branch1 <- pool1_pool1_0_split_0
I0821 14:20:31.767330 21397 net.cpp:418] res2a_branch1 -> res2a_branch1
I0821 14:20:31.768817 21397 net.cpp:150] Setting up res2a_branch1
I0821 14:20:31.768844 21397 net.cpp:157] Top shape: 1 256 56 56 (802816)
I0821 14:20:31.768848 21397 net.cpp:165] Memory required for data: 19066892
I0821 14:20:31.768856 21397 layer_factory.hpp:77] Creating layer bn2a_branch1
I0821 14:20:31.768864 21397 net.cpp:100] Creating Layer bn2a_branch1
I0821 14:20:31.768868 21397 net.cpp:444] bn2a_branch1 <- res2a_branch1
I0821 14:20:31.768874 21397 net.cpp:405] bn2a_branch1 -> res2a_branch1 (in-place)
I0821 14:20:31.769870 21397 net.cpp:150] Setting up bn2a_branch1
I0821 14:20:31.769886 21397 net.cpp:157] Top shape: 1 256 56 56 (802816)
I0821 14:20:31.769889 21397 net.cpp:165] Memory required for data: 22278156
I0821 14:20:31.769903 21397 layer_factory.hpp:77] Creating layer scale2a_branch1
I0821 14:20:31.769912 21397 net.cpp:100] Creating Layer scale2a_branch1
I0821 14:20:31.769915 21397 net.cpp:444] scale2a_branch1 <- res2a_branch1
I0821 14:20:31.769922 21397 net.cpp:405] scale2a_branch1 -> res2a_branch1 (in-place)
I0821 14:20:31.769963 21397 layer_factory.hpp:77] Creating layer scale2a_branch1
I0821 14:20:31.770066 21397 net.cpp:150] Setting up scale2a_branch1
I0821 14:20:31.770074 21397 net.cpp:157] Top shape: 1 256 56 56 (802816)
I0821 14:20:31.770078 21397 net.cpp:165] Memory required for data: 25489420
I0821 14:20:31.770084 21397 layer_factory.hpp:77] Creating layer res2a_branch2a
I0821 14:20:31.770092 21397 net.cpp:100] Creating Layer res2a_branch2a
I0821 14:20:31.770097 21397 net.cpp:444] res2a_branch2a <- pool1_pool1_0_split_1
I0821 14:20:31.770102 21397 net.cpp:418] res2a_branch2a -> res2a_branch2a
I0821 14:20:31.771400 21397 net.cpp:150] Setting up res2a_branch2a
I0821 14:20:31.771416 21397 net.cpp:157] Top shape: 1 64 56 56 (200704)
I0821 14:20:31.771426 21397 net.cpp:165] Memory required for data: 26292236
I0821 14:20:31.771433 21397 layer_factory.hpp:77] Creating layer bn2a_branch2a
I0821 14:20:31.771441 21397 net.cpp:100] Creating Layer bn2a_branch2a
I0821 14:20:31.771445 21397 net.cpp:444] bn2a_branch2a <- res2a_branch2a
I0821 14:20:31.771451 21397 net.cpp:405] bn2a_branch2a -> res2a_branch2a (in-place)
I0821 14:20:31.771639 21397 net.cpp:150] Setting up bn2a_branch2a
I0821 14:20:31.771646 21397 net.cpp:157] Top shape: 1 64 56 56 (200704)
I0821 14:20:31.771651 21397 net.cpp:165] Memory required for data: 27095052
I0821 14:20:31.771657 21397 layer_factory.hpp:77] Creating layer scale2a_branch2a
I0821 14:20:31.771668 21397 net.cpp:100] Creating Layer scale2a_branch2a
I0821 14:20:31.771672 21397 net.cpp:444] scale2a_branch2a <- res2a_branch2a
I0821 14:20:31.771677 21397 net.cpp:405] scale2a_branch2a -> res2a_branch2a (in-place)
I0821 14:20:31.771715 21397 layer_factory.hpp:77] Creating layer scale2a_branch2a
I0821 14:20:31.771826 21397 net.cpp:150] Setting up scale2a_branch2a
I0821 14:20:31.771844 21397 net.cpp:157] Top shape: 1 64 56 56 (200704)
I0821 14:20:31.771847 21397 net.cpp:165] Memory required for data: 27897868
I0821 14:20:31.771857 21397 layer_factory.hpp:77] Creating layer res2a_branch2a_relu
I0821 14:20:31.771862 21397 net.cpp:100] Creating Layer res2a_branch2a_relu
I0821 14:20:31.771865 21397 net.cpp:444] res2a_branch2a_relu <- res2a_branch2a
I0821 14:20:31.771870 21397 net.cpp:405] res2a_branch2a_relu -> res2a_branch2a (in-place)
I0821 14:20:31.772076 21397 net.cpp:150] Setting up res2a_branch2a_relu
I0821 14:20:31.772087 21397 net.cpp:157] Top shape: 1 64 56 56 (200704)
I0821 14:20:31.772090 21397 net.cpp:165] Memory required for data: 28700684
I0821 14:20:31.772094 21397 layer_factory.hpp:77] Creating layer res2a_branch2b
I0821 14:20:31.772104 21397 net.cpp:100] Creating Layer res2a_branch2b
I0821 14:20:31.772107 21397 net.cpp:444] res2a_branch2b <- res2a_branch2a
I0821 14:20:31.772112 21397 net.cpp:418] res2a_branch2b -> res2a_branch2b
I0821 14:20:31.774308 21397 net.cpp:150] Setting up res2a_branch2b
I0821 14:20:31.774324 21397 net.cpp:157] Top shape: 1 64 56 56 (200704)
I0821 14:20:31.774329 21397 net.cpp:165] Memory required for data: 29503500
I0821 14:20:31.774335 21397 layer_factory.hpp:77] Creating layer bn2a_branch2b
I0821 14:20:31.774343 21397 net.cpp:100] Creating Layer bn2a_branch2b
I0821 14:20:31.774348 21397 net.cpp:444] bn2a_branch2b <- res2a_branch2b
I0821 14:20:31.774353 21397 net.cpp:405] bn2a_branch2b -> res2a_branch2b (in-place)
I0821 14:20:31.774544 21397 net.cpp:150] Setting up bn2a_branch2b
I0821 14:20:31.774550 21397 net.cpp:157] Top shape: 1 64 56 56 (200704)
I0821 14:20:31.774554 21397 net.cpp:165] Memory required for data: 30306316
I0821 14:20:31.774576 21397 layer_factory.hpp:77] Creating layer scale2a_branch2b
I0821 14:20:31.774586 21397 net.cpp:100] Creating Layer scale2a_branch2b
I0821 14:20:31.774590 21397 net.cpp:444] scale2a_branch2b <- res2a_branch2b
I0821 14:20:31.774596 21397 net.cpp:405] scale2a_branch2b -> res2a_branch2b (in-place)
I0821 14:20:31.774638 21397 layer_factory.hpp:77] Creating layer scale2a_branch2b
I0821 14:20:31.774751 21397 net.cpp:150] Setting up scale2a_branch2b
I0821 14:20:31.774760 21397 net.cpp:157] Top shape: 1 64 56 56 (200704)
I0821 14:20:31.774763 21397 net.cpp:165] Memory required for data: 31109132
I0821 14:20:31.774770 21397 layer_factory.hpp:77] Creating layer res2a_branch2b_relu
I0821 14:20:31.774775 21397 net.cpp:100] Creating Layer res2a_branch2b_relu
I0821 14:20:31.774780 21397 net.cpp:444] res2a_branch2b_relu <- res2a_branch2b
I0821 14:20:31.774785 21397 net.cpp:405] res2a_branch2b_relu -> res2a_branch2b (in-place)
I0821 14:20:31.775220 21397 net.cpp:150] Setting up res2a_branch2b_relu
I0821 14:20:31.775234 21397 net.cpp:157] Top shape: 1 64 56 56 (200704)
I0821 14:20:31.775238 21397 net.cpp:165] Memory required for data: 31911948
I0821 14:20:31.775243 21397 layer_factory.hpp:77] Creating layer res2a_branch2c
I0821 14:20:31.775251 21397 net.cpp:100] Creating Layer res2a_branch2c
I0821 14:20:31.775261 21397 net.cpp:444] res2a_branch2c <- res2a_branch2b
I0821 14:20:31.775269 21397 net.cpp:418] res2a_branch2c -> res2a_branch2c
I0821 14:20:31.776610 21397 net.cpp:150] Setting up res2a_branch2c
I0821 14:20:31.776625 21397 net.cpp:157] Top shape: 1 256 56 56 (802816)
I0821 14:20:31.776629 21397 net.cpp:165] Memory required for data: 35123212
I0821 14:20:31.776639 21397 layer_factory.hpp:77] Creating layer bn2a_branch2c
I0821 14:20:31.776648 21397 net.cpp:100] Creating Layer bn2a_branch2c
I0821 14:20:31.776652 21397 net.cpp:444] bn2a_branch2c <- res2a_branch2c
I0821 14:20:31.776659 21397 net.cpp:405] bn2a_branch2c -> res2a_branch2c (in-place)
I0821 14:20:31.776847 21397 net.cpp:150] Setting up bn2a_branch2c
I0821 14:20:31.776855 21397 net.cpp:157] Top shape: 1 256 56 56 (802816)
I0821 14:20:31.776859 21397 net.cpp:165] Memory required for data: 38334476
I0821 14:20:31.776866 21397 layer_factory.hpp:77] Creating layer scale2a_branch2c
I0821 14:20:31.776873 21397 net.cpp:100] Creating Layer scale2a_branch2c
I0821 14:20:31.776877 21397 net.cpp:444] scale2a_branch2c <- res2a_branch2c
I0821 14:20:31.776882 21397 net.cpp:405] scale2a_branch2c -> res2a_branch2c (in-place)
I0821 14:20:31.776921 21397 layer_factory.hpp:77] Creating layer scale2a_branch2c
I0821 14:20:31.777042 21397 net.cpp:150] Setting up scale2a_branch2c
I0821 14:20:31.777051 21397 net.cpp:157] Top shape: 1 256 56 56 (802816)
I0821 14:20:31.777055 21397 net.cpp:165] Memory required for data: 41545740
I0821 14:20:31.777061 21397 layer_factory.hpp:77] Creating layer res2a
I0821 14:20:31.777068 21397 net.cpp:100] Creating Layer res2a
I0821 14:20:31.777072 21397 net.cpp:444] res2a <- res2a_branch1
I0821 14:20:31.777077 21397 net.cpp:444] res2a <- res2a_branch2c
I0821 14:20:31.777082 21397 net.cpp:418] res2a -> res2a
I0821 14:20:31.777108 21397 net.cpp:150] Setting up res2a
I0821 14:20:31.777115 21397 net.cpp:157] Top shape: 1 256 56 56 (802816)
I0821 14:20:31.777118 21397 net.cpp:165] Memory required for data: 44757004
I0821 14:20:31.777122 21397 layer_factory.hpp:77] Creating layer res2a_relu
I0821 14:20:31.777127 21397 net.cpp:100] Creating Layer res2a_relu
I0821 14:20:31.777132 21397 net.cpp:444] res2a_relu <- res2a
I0821 14:20:31.777137 21397 net.cpp:405] res2a_relu -> res2a (in-place)
I0821 14:20:31.777379 21397 net.cpp:150] Setting up res2a_relu
I0821 14:20:31.777391 21397 net.cpp:157] Top shape: 1 256 56 56 (802816)
I0821 14:20:31.777395 21397 net.cpp:165] Memory required for data: 47968268
I0821 14:20:31.777401 21397 layer_factory.hpp:77] Creating layer res2a_res2a_relu_0_split
I0821 14:20:31.777407 21397 net.cpp:100] Creating Layer res2a_res2a_relu_0_split
I0821 14:20:31.777411 21397 net.cpp:444] res2a_res2a_relu_0_split <- res2a
I0821 14:20:31.777417 21397 net.cpp:418] res2a_res2a_relu_0_split -> res2a_res2a_relu_0_split_0
I0821 14:20:31.777424 21397 net.cpp:418] res2a_res2a_relu_0_split -> res2a_res2a_relu_0_split_1
I0821 14:20:31.777463 21397 net.cpp:150] Setting up res2a_res2a_relu_0_split
I0821 14:20:31.777470 21397 net.cpp:157] Top shape: 1 256 56 56 (802816)
I0821 14:20:31.777474 21397 net.cpp:157] Top shape: 1 256 56 56 (802816)
I0821 14:20:31.777477 21397 net.cpp:165] Memory required for data: 54390796
I0821 14:20:31.777482 21397 layer_factory.hpp:77] Creating layer res2b_branch2a
I0821 14:20:31.777489 21397 net.cpp:100] Creating Layer res2b_branch2a
I0821 14:20:31.777493 21397 net.cpp:444] res2b_branch2a <- res2a_res2a_relu_0_split_0
I0821 14:20:31.777499 21397 net.cpp:418] res2b_branch2a -> res2b_branch2a
I0821 14:20:31.778826 21397 net.cpp:150] Setting up res2b_branch2a
I0821 14:20:31.778841 21397 net.cpp:157] Top shape: 1 64 56 56 (200704)
I0821 14:20:31.778844 21397 net.cpp:165] Memory required for data: 55193612
I0821 14:20:31.778851 21397 layer_factory.hpp:77] Creating layer bn2b_branch2a
I0821 14:20:31.778857 21397 net.cpp:100] Creating Layer bn2b_branch2a
I0821 14:20:31.778861 21397 net.cpp:444] bn2b_branch2a <- res2b_branch2a
I0821 14:20:31.778867 21397 net.cpp:405] bn2b_branch2a -> res2b_branch2a (in-place)
I0821 14:20:31.779064 21397 net.cpp:150] Setting up bn2b_branch2a
I0821 14:20:31.779072 21397 net.cpp:157] Top shape: 1 64 56 56 (200704)
I0821 14:20:31.779075 21397 net.cpp:165] Memory required for data: 55996428
I0821 14:20:31.779086 21397 layer_factory.hpp:77] Creating layer scale2b_branch2a
I0821 14:20:31.779096 21397 net.cpp:100] Creating Layer scale2b_branch2a
I0821 14:20:31.779100 21397 net.cpp:444] scale2b_branch2a <- res2b_branch2a
I0821 14:20:31.779106 21397 net.cpp:405] scale2b_branch2a -> res2b_branch2a (in-place)
I0821 14:20:31.779146 21397 layer_factory.hpp:77] Creating layer scale2b_branch2a
I0821 14:20:31.779259 21397 net.cpp:150] Setting up scale2b_branch2a
I0821 14:20:31.779266 21397 net.cpp:157] Top shape: 1 64 56 56 (200704)
I0821 14:20:31.779270 21397 net.cpp:165] Memory required for data: 56799244
I0821 14:20:31.779276 21397 layer_factory.hpp:77] Creating layer res2b_branch2a_relu
I0821 14:20:31.779283 21397 net.cpp:100] Creating Layer res2b_branch2a_relu
I0821 14:20:31.779285 21397 net.cpp:444] res2b_branch2a_relu <- res2b_branch2a
I0821 14:20:31.779291 21397 net.cpp:405] res2b_branch2a_relu -> res2b_branch2a (in-place)
I0821 14:20:31.779516 21397 net.cpp:150] Setting up res2b_branch2a_relu
I0821 14:20:31.779527 21397 net.cpp:157] Top shape: 1 64 56 56 (200704)
I0821 14:20:31.779531 21397 net.cpp:165] Memory required for data: 57602060
I0821 14:20:31.779536 21397 layer_factory.hpp:77] Creating layer res2b_branch2b
I0821 14:20:31.779543 21397 net.cpp:100] Creating Layer res2b_branch2b
I0821 14:20:31.779547 21397 net.cpp:444] res2b_branch2b <- res2b_branch2a
I0821 14:20:31.779553 21397 net.cpp:418] res2b_branch2b -> res2b_branch2b
I0821 14:20:31.781162 21397 net.cpp:150] Setting up res2b_branch2b
I0821 14:20:31.781188 21397 net.cpp:157] Top shape: 1 64 56 56 (200704)
I0821 14:20:31.781193 21397 net.cpp:165] Memory required for data: 58404876
I0821 14:20:31.781199 21397 layer_factory.hpp:77] Creating layer bn2b_branch2b
I0821 14:20:31.781208 21397 net.cpp:100] Creating Layer bn2b_branch2b
I0821 14:20:31.781213 21397 net.cpp:444] bn2b_branch2b <- res2b_branch2b
I0821 14:20:31.781217 21397 net.cpp:405] bn2b_branch2b -> res2b_branch2b (in-place)
I0821 14:20:31.781435 21397 net.cpp:150] Setting up bn2b_branch2b
I0821 14:20:31.781445 21397 net.cpp:157] Top shape: 1 64 56 56 (200704)
I0821 14:20:31.781448 21397 net.cpp:165] Memory required for data: 59207692
I0821 14:20:31.781458 21397 layer_factory.hpp:77] Creating layer scale2b_branch2b
I0821 14:20:31.781466 21397 net.cpp:100] Creating Layer scale2b_branch2b
I0821 14:20:31.781471 21397 net.cpp:444] scale2b_branch2b <- res2b_branch2b
I0821 14:20:31.781476 21397 net.cpp:405] scale2b_branch2b -> res2b_branch2b (in-place)
I0821 14:20:31.781527 21397 layer_factory.hpp:77] Creating layer scale2b_branch2b
I0821 14:20:31.781642 21397 net.cpp:150] Setting up scale2b_branch2b
I0821 14:20:31.781651 21397 net.cpp:157] Top shape: 1 64 56 56 (200704)
I0821 14:20:31.781653 21397 net.cpp:165] Memory required for data: 60010508
I0821 14:20:31.781661 21397 layer_factory.hpp:77] Creating layer res2b_branch2b_relu
I0821 14:20:31.781666 21397 net.cpp:100] Creating Layer res2b_branch2b_relu
I0821 14:20:31.781669 21397 net.cpp:444] res2b_branch2b_relu <- res2b_branch2b
I0821 14:20:31.781674 21397 net.cpp:405] res2b_branch2b_relu -> res2b_branch2b (in-place)
I0821 14:20:31.782140 21397 net.cpp:150] Setting up res2b_branch2b_relu
I0821 14:20:31.782153 21397 net.cpp:157] Top shape: 1 64 56 56 (200704)
I0821 14:20:31.782157 21397 net.cpp:165] Memory required for data: 60813324
I0821 14:20:31.782160 21397 layer_factory.hpp:77] Creating layer res2b_branch2c
I0821 14:20:31.782171 21397 net.cpp:100] Creating Layer res2b_branch2c
I0821 14:20:31.782176 21397 net.cpp:444] res2b_branch2c <- res2b_branch2b
I0821 14:20:31.782181 21397 net.cpp:418] res2b_branch2c -> res2b_branch2c
I0821 14:20:31.783687 21397 net.cpp:150] Setting up res2b_branch2c
I0821 14:20:31.783704 21397 net.cpp:157] Top shape: 1 256 56 56 (802816)
I0821 14:20:31.783707 21397 net.cpp:165] Memory required for data: 64024588
I0821 14:20:31.783722 21397 layer_factory.hpp:77] Creating layer bn2b_branch2c
I0821 14:20:31.783730 21397 net.cpp:100] Creating Layer bn2b_branch2c
I0821 14:20:31.783735 21397 net.cpp:444] bn2b_branch2c <- res2b_branch2c
I0821 14:20:31.783740 21397 net.cpp:405] bn2b_branch2c -> res2b_branch2c (in-place)
I0821 14:20:31.783931 21397 net.cpp:150] Setting up bn2b_branch2c
I0821 14:20:31.783939 21397 net.cpp:157] Top shape: 1 256 56 56 (802816)
I0821 14:20:31.783942 21397 net.cpp:165] Memory required for data: 67235852
I0821 14:20:31.783951 21397 layer_factory.hpp:77] Creating layer scale2b_branch2c
I0821 14:20:31.783958 21397 net.cpp:100] Creating Layer scale2b_branch2c
I0821 14:20:31.783962 21397 net.cpp:444] scale2b_branch2c <- res2b_branch2c
I0821 14:20:31.783968 21397 net.cpp:405] scale2b_branch2c -> res2b_branch2c (in-place)
I0821 14:20:31.784006 21397 layer_factory.hpp:77] Creating layer scale2b_branch2c
I0821 14:20:31.784124 21397 net.cpp:150] Setting up scale2b_branch2c
I0821 14:20:31.784132 21397 net.cpp:157] Top shape: 1 256 56 56 (802816)
I0821 14:20:31.784137 21397 net.cpp:165] Memory required for data: 70447116
I0821 14:20:31.784142 21397 layer_factory.hpp:77] Creating layer res2b
I0821 14:20:31.784147 21397 net.cpp:100] Creating Layer res2b
I0821 14:20:31.784152 21397 net.cpp:444] res2b <- res2a_res2a_relu_0_split_1
I0821 14:20:31.784157 21397 net.cpp:444] res2b <- res2b_branch2c
I0821 14:20:31.784162 21397 net.cpp:418] res2b -> res2b
I0821 14:20:31.784188 21397 net.cpp:150] Setting up res2b
I0821 14:20:31.784193 21397 net.cpp:157] Top shape: 1 256 56 56 (802816)
I0821 14:20:31.784198 21397 net.cpp:165] Memory required for data: 73658380
I0821 14:20:31.784201 21397 layer_factory.hpp:77] Creating layer res2b_relu
I0821 14:20:31.784206 21397 net.cpp:100] Creating Layer res2b_relu
I0821 14:20:31.784210 21397 net.cpp:444] res2b_relu <- res2b
I0821 14:20:31.784214 21397 net.cpp:405] res2b_relu -> res2b (in-place)
I0821 14:20:31.784433 21397 net.cpp:150] Setting up res2b_relu
I0821 14:20:31.784445 21397 net.cpp:157] Top shape: 1 256 56 56 (802816)
I0821 14:20:31.784448 21397 net.cpp:165] Memory required for data: 76869644
I0821 14:20:31.784454 21397 layer_factory.hpp:77] Creating layer res2b_res2b_relu_0_split
I0821 14:20:31.784461 21397 net.cpp:100] Creating Layer res2b_res2b_relu_0_split
I0821 14:20:31.784464 21397 net.cpp:444] res2b_res2b_relu_0_split <- res2b
I0821 14:20:31.784471 21397 net.cpp:418] res2b_res2b_relu_0_split -> res2b_res2b_relu_0_split_0
I0821 14:20:31.784477 21397 net.cpp:418] res2b_res2b_relu_0_split -> res2b_res2b_relu_0_split_1
I0821 14:20:31.784518 21397 net.cpp:150] Setting up res2b_res2b_relu_0_split
I0821 14:20:31.784524 21397 net.cpp:157] Top shape: 1 256 56 56 (802816)
I0821 14:20:31.784528 21397 net.cpp:157] Top shape: 1 256 56 56 (802816)
I0821 14:20:31.784533 21397 net.cpp:165] Memory required for data: 83292172
I0821 14:20:31.784535 21397 layer_factory.hpp:77] Creating layer res2c_branch2a
I0821 14:20:31.784543 21397 net.cpp:100] Creating Layer res2c_branch2a
I0821 14:20:31.784548 21397 net.cpp:444] res2c_branch2a <- res2b_res2b_relu_0_split_0
I0821 14:20:31.784554 21397 net.cpp:418] res2c_branch2a -> res2c_branch2a
I0821 14:20:31.785821 21397 net.cpp:150] Setting up res2c_branch2a
I0821 14:20:31.785836 21397 net.cpp:157] Top shape: 1 64 56 56 (200704)
I0821 14:20:31.785840 21397 net.cpp:165] Memory required for data: 84094988
I0821 14:20:31.785846 21397 layer_factory.hpp:77] Creating layer bn2c_branch2a
I0821 14:20:31.785854 21397 net.cpp:100] Creating Layer bn2c_branch2a
I0821 14:20:31.785859 21397 net.cpp:444] bn2c_branch2a <- res2c_branch2a
I0821 14:20:31.785864 21397 net.cpp:405] bn2c_branch2a -> res2c_branch2a (in-place)
I0821 14:20:31.786059 21397 net.cpp:150] Setting up bn2c_branch2a
I0821 14:20:31.786067 21397 net.cpp:157] Top shape: 1 64 56 56 (200704)
I0821 14:20:31.786070 21397 net.cpp:165] Memory required for data: 84897804
I0821 14:20:31.786077 21397 layer_factory.hpp:77] Creating layer scale2c_branch2a
I0821 14:20:31.786087 21397 net.cpp:100] Creating Layer scale2c_branch2a
I0821 14:20:31.786098 21397 net.cpp:444] scale2c_branch2a <- res2c_branch2a
I0821 14:20:31.786103 21397 net.cpp:405] scale2c_branch2a -> res2c_branch2a (in-place)
I0821 14:20:31.786144 21397 layer_factory.hpp:77] Creating layer scale2c_branch2a
I0821 14:20:31.786259 21397 net.cpp:150] Setting up scale2c_branch2a
I0821 14:20:31.786267 21397 net.cpp:157] Top shape: 1 64 56 56 (200704)
I0821 14:20:31.786270 21397 net.cpp:165] Memory required for data: 85700620
I0821 14:20:31.786276 21397 layer_factory.hpp:77] Creating layer res2c_branch2a_relu
I0821 14:20:31.786283 21397 net.cpp:100] Creating Layer res2c_branch2a_relu
I0821 14:20:31.786298 21397 net.cpp:444] res2c_branch2a_relu <- res2c_branch2a
I0821 14:20:31.786303 21397 net.cpp:405] res2c_branch2a_relu -> res2c_branch2a (in-place)
I0821 14:20:31.786526 21397 net.cpp:150] Setting up res2c_branch2a_relu
I0821 14:20:31.786538 21397 net.cpp:157] Top shape: 1 64 56 56 (200704)
I0821 14:20:31.786542 21397 net.cpp:165] Memory required for data: 86503436
I0821 14:20:31.786546 21397 layer_factory.hpp:77] Creating layer res2c_branch2b
I0821 14:20:31.786556 21397 net.cpp:100] Creating Layer res2c_branch2b
I0821 14:20:31.786559 21397 net.cpp:444] res2c_branch2b <- res2c_branch2a
I0821 14:20:31.786566 21397 net.cpp:418] res2c_branch2b -> res2c_branch2b
I0821 14:20:31.788131 21397 net.cpp:150] Setting up res2c_branch2b
I0821 14:20:31.788146 21397 net.cpp:157] Top shape: 1 64 56 56 (200704)
I0821 14:20:31.788151 21397 net.cpp:165] Memory required for data: 87306252
I0821 14:20:31.788157 21397 layer_factory.hpp:77] Creating layer bn2c_branch2b
I0821 14:20:31.788164 21397 net.cpp:100] Creating Layer bn2c_branch2b
I0821 14:20:31.788169 21397 net.cpp:444] bn2c_branch2b <- res2c_branch2b
I0821 14:20:31.788174 21397 net.cpp:405] bn2c_branch2b -> res2c_branch2b (in-place)
I0821 14:20:31.788374 21397 net.cpp:150] Setting up bn2c_branch2b
I0821 14:20:31.788383 21397 net.cpp:157] Top shape: 1 64 56 56 (200704)
I0821 14:20:31.788385 21397 net.cpp:165] Memory required for data: 88109068
I0821 14:20:31.788395 21397 layer_factory.hpp:77] Creating layer scale2c_branch2b
I0821 14:20:31.788403 21397 net.cpp:100] Creating Layer scale2c_branch2b
I0821 14:20:31.788406 21397 net.cpp:444] scale2c_branch2b <- res2c_branch2b
I0821 14:20:31.788413 21397 net.cpp:405] scale2c_branch2b -> res2c_branch2b (in-place)
I0821 14:20:31.788453 21397 layer_factory.hpp:77] Creating layer scale2c_branch2b
I0821 14:20:31.788570 21397 net.cpp:150] Setting up scale2c_branch2b
I0821 14:20:31.788578 21397 net.cpp:157] Top shape: 1 64 56 56 (200704)
I0821 14:20:31.788583 21397 net.cpp:165] Memory required for data: 88911884
I0821 14:20:31.788589 21397 layer_factory.hpp:77] Creating layer res2c_branch2b_relu
I0821 14:20:31.788594 21397 net.cpp:100] Creating Layer res2c_branch2b_relu
I0821 14:20:31.788599 21397 net.cpp:444] res2c_branch2b_relu <- res2c_branch2b
I0821 14:20:31.788604 21397 net.cpp:405] res2c_branch2b_relu -> res2c_branch2b (in-place)
I0821 14:20:31.789039 21397 net.cpp:150] Setting up res2c_branch2b_relu
I0821 14:20:31.789054 21397 net.cpp:157] Top shape: 1 64 56 56 (200704)
I0821 14:20:31.789058 21397 net.cpp:165] Memory required for data: 89714700
I0821 14:20:31.789063 21397 layer_factory.hpp:77] Creating layer res2c_branch2c
I0821 14:20:31.789072 21397 net.cpp:100] Creating Layer res2c_branch2c
I0821 14:20:31.789077 21397 net.cpp:444] res2c_branch2c <- res2c_branch2b
I0821 14:20:31.789083 21397 net.cpp:418] res2c_branch2c -> res2c_branch2c
I0821 14:20:31.790385 21397 net.cpp:150] Setting up res2c_branch2c
I0821 14:20:31.790400 21397 net.cpp:157] Top shape: 1 256 56 56 (802816)
I0821 14:20:31.790403 21397 net.cpp:165] Memory required for data: 92925964
I0821 14:20:31.790410 21397 layer_factory.hpp:77] Creating layer bn2c_branch2c
I0821 14:20:31.790419 21397 net.cpp:100] Creating Layer bn2c_branch2c
I0821 14:20:31.790424 21397 net.cpp:444] bn2c_branch2c <- res2c_branch2c
I0821 14:20:31.790431 21397 net.cpp:405] bn2c_branch2c -> res2c_branch2c (in-place)
I0821 14:20:31.790638 21397 net.cpp:150] Setting up bn2c_branch2c
I0821 14:20:31.790652 21397 net.cpp:157] Top shape: 1 256 56 56 (802816)
I0821 14:20:31.790655 21397 net.cpp:165] Memory required for data: 96137228
I0821 14:20:31.790663 21397 layer_factory.hpp:77] Creating layer scale2c_branch2c
I0821 14:20:31.790671 21397 net.cpp:100] Creating Layer scale2c_branch2c
I0821 14:20:31.790675 21397 net.cpp:444] scale2c_branch2c <- res2c_branch2c
I0821 14:20:31.790681 21397 net.cpp:405] scale2c_branch2c -> res2c_branch2c (in-place)
I0821 14:20:31.790724 21397 layer_factory.hpp:77] Creating layer scale2c_branch2c
I0821 14:20:31.790838 21397 net.cpp:150] Setting up scale2c_branch2c
I0821 14:20:31.790845 21397 net.cpp:157] Top shape: 1 256 56 56 (802816)
I0821 14:20:31.790849 21397 net.cpp:165] Memory required for data: 99348492
I0821 14:20:31.790859 21397 layer_factory.hpp:77] Creating layer res2c
I0821 14:20:31.790865 21397 net.cpp:100] Creating Layer res2c
I0821 14:20:31.790870 21397 net.cpp:444] res2c <- res2b_res2b_relu_0_split_1
I0821 14:20:31.790874 21397 net.cpp:444] res2c <- res2c_branch2c
I0821 14:20:31.790880 21397 net.cpp:418] res2c -> res2c
I0821 14:20:31.790906 21397 net.cpp:150] Setting up res2c
I0821 14:20:31.790913 21397 net.cpp:157] Top shape: 1 256 56 56 (802816)
I0821 14:20:31.790916 21397 net.cpp:165] Memory required for data: 102559756
I0821 14:20:31.790920 21397 layer_factory.hpp:77] Creating layer res2c_relu
I0821 14:20:31.790925 21397 net.cpp:100] Creating Layer res2c_relu
I0821 14:20:31.790930 21397 net.cpp:444] res2c_relu <- res2c
I0821 14:20:31.790935 21397 net.cpp:405] res2c_relu -> res2c (in-place)
I0821 14:20:31.791148 21397 net.cpp:150] Setting up res2c_relu
I0821 14:20:31.791159 21397 net.cpp:157] Top shape: 1 256 56 56 (802816)
I0821 14:20:31.791162 21397 net.cpp:165] Memory required for data: 105771020
I0821 14:20:31.791168 21397 layer_factory.hpp:77] Creating layer res2c_res2c_relu_0_split
I0821 14:20:31.791175 21397 net.cpp:100] Creating Layer res2c_res2c_relu_0_split
I0821 14:20:31.791179 21397 net.cpp:444] res2c_res2c_relu_0_split <- res2c
I0821 14:20:31.791185 21397 net.cpp:418] res2c_res2c_relu_0_split -> res2c_res2c_relu_0_split_0
I0821 14:20:31.791193 21397 net.cpp:418] res2c_res2c_relu_0_split -> res2c_res2c_relu_0_split_1
I0821 14:20:31.791234 21397 net.cpp:150] Setting up res2c_res2c_relu_0_split
I0821 14:20:31.791241 21397 net.cpp:157] Top shape: 1 256 56 56 (802816)
I0821 14:20:31.791245 21397 net.cpp:157] Top shape: 1 256 56 56 (802816)
I0821 14:20:31.791249 21397 net.cpp:165] Memory required for data: 112193548
I0821 14:20:31.791252 21397 layer_factory.hpp:77] Creating layer res3a_branch1
I0821 14:20:31.791260 21397 net.cpp:100] Creating Layer res3a_branch1
I0821 14:20:31.791265 21397 net.cpp:444] res3a_branch1 <- res2c_res2c_relu_0_split_0
I0821 14:20:31.791270 21397 net.cpp:418] res3a_branch1 -> res3a_branch1
I0821 14:20:31.793366 21397 net.cpp:150] Setting up res3a_branch1
I0821 14:20:31.793381 21397 net.cpp:157] Top shape: 1 512 28 28 (401408)
I0821 14:20:31.793386 21397 net.cpp:165] Memory required for data: 113799180
I0821 14:20:31.793392 21397 layer_factory.hpp:77] Creating layer bn3a_branch1
I0821 14:20:31.793401 21397 net.cpp:100] Creating Layer bn3a_branch1
I0821 14:20:31.793404 21397 net.cpp:444] bn3a_branch1 <- res3a_branch1
I0821 14:20:31.793411 21397 net.cpp:405] bn3a_branch1 -> res3a_branch1 (in-place)
I0821 14:20:31.794364 21397 net.cpp:150] Setting up bn3a_branch1
I0821 14:20:31.794379 21397 net.cpp:157] Top shape: 1 512 28 28 (401408)
I0821 14:20:31.794384 21397 net.cpp:165] Memory required for data: 115404812
I0821 14:20:31.794395 21397 layer_factory.hpp:77] Creating layer scale3a_branch1
I0821 14:20:31.794404 21397 net.cpp:100] Creating Layer scale3a_branch1
I0821 14:20:31.794409 21397 net.cpp:444] scale3a_branch1 <- res3a_branch1
I0821 14:20:31.794415 21397 net.cpp:405] scale3a_branch1 -> res3a_branch1 (in-place)
I0821 14:20:31.794461 21397 layer_factory.hpp:77] Creating layer scale3a_branch1
I0821 14:20:31.794569 21397 net.cpp:150] Setting up scale3a_branch1
I0821 14:20:31.794576 21397 net.cpp:157] Top shape: 1 512 28 28 (401408)
I0821 14:20:31.794586 21397 net.cpp:165] Memory required for data: 117010444
I0821 14:20:31.794594 21397 layer_factory.hpp:77] Creating layer res3a_branch2a
I0821 14:20:31.794601 21397 net.cpp:100] Creating Layer res3a_branch2a
I0821 14:20:31.794606 21397 net.cpp:444] res3a_branch2a <- res2c_res2c_relu_0_split_1
I0821 14:20:31.794612 21397 net.cpp:418] res3a_branch2a -> res3a_branch2a
I0821 14:20:31.795933 21397 net.cpp:150] Setting up res3a_branch2a
I0821 14:20:31.795949 21397 net.cpp:157] Top shape: 1 128 28 28 (100352)
I0821 14:20:31.795953 21397 net.cpp:165] Memory required for data: 117411852
I0821 14:20:31.795960 21397 layer_factory.hpp:77] Creating layer bn3a_branch2a
I0821 14:20:31.795984 21397 net.cpp:100] Creating Layer bn3a_branch2a
I0821 14:20:31.795989 21397 net.cpp:444] bn3a_branch2a <- res3a_branch2a
I0821 14:20:31.795995 21397 net.cpp:405] bn3a_branch2a -> res3a_branch2a (in-place)
I0821 14:20:31.796193 21397 net.cpp:150] Setting up bn3a_branch2a
I0821 14:20:31.796200 21397 net.cpp:157] Top shape: 1 128 28 28 (100352)
I0821 14:20:31.796205 21397 net.cpp:165] Memory required for data: 117813260
I0821 14:20:31.796211 21397 layer_factory.hpp:77] Creating layer scale3a_branch2a
I0821 14:20:31.796221 21397 net.cpp:100] Creating Layer scale3a_branch2a
I0821 14:20:31.796226 21397 net.cpp:444] scale3a_branch2a <- res3a_branch2a
I0821 14:20:31.796232 21397 net.cpp:405] scale3a_branch2a -> res3a_branch2a (in-place)
I0821 14:20:31.796284 21397 layer_factory.hpp:77] Creating layer scale3a_branch2a
I0821 14:20:31.796391 21397 net.cpp:150] Setting up scale3a_branch2a
I0821 14:20:31.796399 21397 net.cpp:157] Top shape: 1 128 28 28 (100352)
I0821 14:20:31.796402 21397 net.cpp:165] Memory required for data: 118214668
I0821 14:20:31.796408 21397 layer_factory.hpp:77] Creating layer res3a_branch2a_relu
I0821 14:20:31.796414 21397 net.cpp:100] Creating Layer res3a_branch2a_relu
I0821 14:20:31.796418 21397 net.cpp:444] res3a_branch2a_relu <- res3a_branch2a
I0821 14:20:31.796423 21397 net.cpp:405] res3a_branch2a_relu -> res3a_branch2a (in-place)
I0821 14:20:31.796644 21397 net.cpp:150] Setting up res3a_branch2a_relu
I0821 14:20:31.796655 21397 net.cpp:157] Top shape: 1 128 28 28 (100352)
I0821 14:20:31.796659 21397 net.cpp:165] Memory required for data: 118616076
I0821 14:20:31.796663 21397 layer_factory.hpp:77] Creating layer res3a_branch2b
I0821 14:20:31.796672 21397 net.cpp:100] Creating Layer res3a_branch2b
I0821 14:20:31.796676 21397 net.cpp:444] res3a_branch2b <- res3a_branch2a
I0821 14:20:31.796684 21397 net.cpp:418] res3a_branch2b -> res3a_branch2b
I0821 14:20:31.799037 21397 net.cpp:150] Setting up res3a_branch2b
I0821 14:20:31.799053 21397 net.cpp:157] Top shape: 1 128 28 28 (100352)
I0821 14:20:31.799057 21397 net.cpp:165] Memory required for data: 119017484
I0821 14:20:31.799064 21397 layer_factory.hpp:77] Creating layer bn3a_branch2b
I0821 14:20:31.799073 21397 net.cpp:100] Creating Layer bn3a_branch2b
I0821 14:20:31.799077 21397 net.cpp:444] bn3a_branch2b <- res3a_branch2b
I0821 14:20:31.799083 21397 net.cpp:405] bn3a_branch2b -> res3a_branch2b (in-place)
I0821 14:20:31.799298 21397 net.cpp:150] Setting up bn3a_branch2b
I0821 14:20:31.799306 21397 net.cpp:157] Top shape: 1 128 28 28 (100352)
I0821 14:20:31.799309 21397 net.cpp:165] Memory required for data: 119418892
I0821 14:20:31.799320 21397 layer_factory.hpp:77] Creating layer scale3a_branch2b
I0821 14:20:31.799329 21397 net.cpp:100] Creating Layer scale3a_branch2b
I0821 14:20:31.799332 21397 net.cpp:444] scale3a_branch2b <- res3a_branch2b
I0821 14:20:31.799338 21397 net.cpp:405] scale3a_branch2b -> res3a_branch2b (in-place)
I0821 14:20:31.799382 21397 layer_factory.hpp:77] Creating layer scale3a_branch2b
I0821 14:20:31.799499 21397 net.cpp:150] Setting up scale3a_branch2b
I0821 14:20:31.799506 21397 net.cpp:157] Top shape: 1 128 28 28 (100352)
I0821 14:20:31.799510 21397 net.cpp:165] Memory required for data: 119820300
I0821 14:20:31.799516 21397 layer_factory.hpp:77] Creating layer res3a_branch2b_relu
I0821 14:20:31.799523 21397 net.cpp:100] Creating Layer res3a_branch2b_relu
I0821 14:20:31.799533 21397 net.cpp:444] res3a_branch2b_relu <- res3a_branch2b
I0821 14:20:31.799540 21397 net.cpp:405] res3a_branch2b_relu -> res3a_branch2b (in-place)
I0821 14:20:31.799983 21397 net.cpp:150] Setting up res3a_branch2b_relu
I0821 14:20:31.799998 21397 net.cpp:157] Top shape: 1 128 28 28 (100352)
I0821 14:20:31.800001 21397 net.cpp:165] Memory required for data: 120221708
I0821 14:20:31.800005 21397 layer_factory.hpp:77] Creating layer res3a_branch2c
I0821 14:20:31.800014 21397 net.cpp:100] Creating Layer res3a_branch2c
I0821 14:20:31.800019 21397 net.cpp:444] res3a_branch2c <- res3a_branch2b
I0821 14:20:31.800026 21397 net.cpp:418] res3a_branch2c -> res3a_branch2c
I0821 14:20:31.801221 21397 net.cpp:150] Setting up res3a_branch2c
I0821 14:20:31.801237 21397 net.cpp:157] Top shape: 1 512 28 28 (401408)
I0821 14:20:31.801242 21397 net.cpp:165] Memory required for data: 121827340
I0821 14:20:31.801249 21397 layer_factory.hpp:77] Creating layer bn3a_branch2c
I0821 14:20:31.801261 21397 net.cpp:100] Creating Layer bn3a_branch2c
I0821 14:20:31.801266 21397 net.cpp:444] bn3a_branch2c <- res3a_branch2c
I0821 14:20:31.801273 21397 net.cpp:405] bn3a_branch2c -> res3a_branch2c (in-place)
I0821 14:20:31.801540 21397 net.cpp:150] Setting up bn3a_branch2c
I0821 14:20:31.801550 21397 net.cpp:157] Top shape: 1 512 28 28 (401408)
I0821 14:20:31.801554 21397 net.cpp:165] Memory required for data: 123432972
I0821 14:20:31.801565 21397 layer_factory.hpp:77] Creating layer scale3a_branch2c
I0821 14:20:31.801573 21397 net.cpp:100] Creating Layer scale3a_branch2c
I0821 14:20:31.801578 21397 net.cpp:444] scale3a_branch2c <- res3a_branch2c
I0821 14:20:31.801584 21397 net.cpp:405] scale3a_branch2c -> res3a_branch2c (in-place)
I0821 14:20:31.801641 21397 layer_factory.hpp:77] Creating layer scale3a_branch2c
I0821 14:20:31.801771 21397 net.cpp:150] Setting up scale3a_branch2c
I0821 14:20:31.801779 21397 net.cpp:157] Top shape: 1 512 28 28 (401408)
I0821 14:20:31.801784 21397 net.cpp:165] Memory required for data: 125038604
I0821 14:20:31.801800 21397 layer_factory.hpp:77] Creating layer res3a
I0821 14:20:31.801807 21397 net.cpp:100] Creating Layer res3a
I0821 14:20:31.801811 21397 net.cpp:444] res3a <- res3a_branch1
I0821 14:20:31.801815 21397 net.cpp:444] res3a <- res3a_branch2c
I0821 14:20:31.801821 21397 net.cpp:418] res3a -> res3a
I0821 14:20:31.801858 21397 net.cpp:150] Setting up res3a
I0821 14:20:31.801865 21397 net.cpp:157] Top shape: 1 512 28 28 (401408)
I0821 14:20:31.801868 21397 net.cpp:165] Memory required for data: 126644236
I0821 14:20:31.801872 21397 layer_factory.hpp:77] Creating layer res3a_relu
I0821 14:20:31.801878 21397 net.cpp:100] Creating Layer res3a_relu
I0821 14:20:31.801882 21397 net.cpp:444] res3a_relu <- res3a
I0821 14:20:31.801887 21397 net.cpp:405] res3a_relu -> res3a (in-place)
I0821 14:20:31.802554 21397 net.cpp:150] Setting up res3a_relu
I0821 14:20:31.802568 21397 net.cpp:157] Top shape: 1 512 28 28 (401408)
I0821 14:20:31.802572 21397 net.cpp:165] Memory required for data: 128249868
I0821 14:20:31.802579 21397 layer_factory.hpp:77] Creating layer res3a_res3a_relu_0_split
I0821 14:20:31.802587 21397 net.cpp:100] Creating Layer res3a_res3a_relu_0_split
I0821 14:20:31.802592 21397 net.cpp:444] res3a_res3a_relu_0_split <- res3a
I0821 14:20:31.802599 21397 net.cpp:418] res3a_res3a_relu_0_split -> res3a_res3a_relu_0_split_0
I0821 14:20:31.802608 21397 net.cpp:418] res3a_res3a_relu_0_split -> res3a_res3a_relu_0_split_1
I0821 14:20:31.802661 21397 net.cpp:150] Setting up res3a_res3a_relu_0_split
I0821 14:20:31.802670 21397 net.cpp:157] Top shape: 1 512 28 28 (401408)
I0821 14:20:31.802673 21397 net.cpp:157] Top shape: 1 512 28 28 (401408)
I0821 14:20:31.802677 21397 net.cpp:165] Memory required for data: 131461132
I0821 14:20:31.802680 21397 layer_factory.hpp:77] Creating layer res3b1_branch2a
I0821 14:20:31.802690 21397 net.cpp:100] Creating Layer res3b1_branch2a
I0821 14:20:31.802693 21397 net.cpp:444] res3b1_branch2a <- res3a_res3a_relu_0_split_0
I0821 14:20:31.802706 21397 net.cpp:418] res3b1_branch2a -> res3b1_branch2a
I0821 14:20:31.804795 21397 net.cpp:150] Setting up res3b1_branch2a
I0821 14:20:31.804811 21397 net.cpp:157] Top shape: 1 128 28 28 (100352)
I0821 14:20:31.804816 21397 net.cpp:165] Memory required for data: 131862540
I0821 14:20:31.804823 21397 layer_factory.hpp:77] Creating layer bn3b1_branch2a
I0821 14:20:31.804832 21397 net.cpp:100] Creating Layer bn3b1_branch2a
I0821 14:20:31.804836 21397 net.cpp:444] bn3b1_branch2a <- res3b1_branch2a
I0821 14:20:31.804843 21397 net.cpp:405] bn3b1_branch2a -> res3b1_branch2a (in-place)
I0821 14:20:31.805071 21397 net.cpp:150] Setting up bn3b1_branch2a
I0821 14:20:31.805079 21397 net.cpp:157] Top shape: 1 128 28 28 (100352)
I0821 14:20:31.805083 21397 net.cpp:165] Memory required for data: 132263948
I0821 14:20:31.805091 21397 layer_factory.hpp:77] Creating layer scale3b1_branch2a
I0821 14:20:31.805102 21397 net.cpp:100] Creating Layer scale3b1_branch2a
I0821 14:20:31.805106 21397 net.cpp:444] scale3b1_branch2a <- res3b1_branch2a
I0821 14:20:31.805112 21397 net.cpp:405] scale3b1_branch2a -> res3b1_branch2a (in-place)
I0821 14:20:31.805158 21397 layer_factory.hpp:77] Creating layer scale3b1_branch2a
I0821 14:20:31.805289 21397 net.cpp:150] Setting up scale3b1_branch2a
I0821 14:20:31.805306 21397 net.cpp:157] Top shape: 1 128 28 28 (100352)
I0821 14:20:31.805310 21397 net.cpp:165] Memory required for data: 132665356
I0821 14:20:31.805316 21397 layer_factory.hpp:77] Creating layer res3b1_branch2a_relu
I0821 14:20:31.805323 21397 net.cpp:100] Creating Layer res3b1_branch2a_relu
I0821 14:20:31.805327 21397 net.cpp:444] res3b1_branch2a_relu <- res3b1_branch2a
I0821 14:20:31.805332 21397 net.cpp:405] res3b1_branch2a_relu -> res3b1_branch2a (in-place)
I0821 14:20:31.805546 21397 net.cpp:150] Setting up res3b1_branch2a_relu
I0821 14:20:31.805557 21397 net.cpp:157] Top shape: 1 128 28 28 (100352)
I0821 14:20:31.805560 21397 net.cpp:165] Memory required for data: 133066764
I0821 14:20:31.805564 21397 layer_factory.hpp:77] Creating layer res3b1_branch2b
I0821 14:20:31.805573 21397 net.cpp:100] Creating Layer res3b1_branch2b
I0821 14:20:31.805577 21397 net.cpp:444] res3b1_branch2b <- res3b1_branch2a
I0821 14:20:31.805584 21397 net.cpp:418] res3b1_branch2b -> res3b1_branch2b
I0821 14:20:31.807904 21397 net.cpp:150] Setting up res3b1_branch2b
I0821 14:20:31.807919 21397 net.cpp:157] Top shape: 1 128 28 28 (100352)
I0821 14:20:31.807924 21397 net.cpp:165] Memory required for data: 133468172
I0821 14:20:31.807930 21397 layer_factory.hpp:77] Creating layer bn3b1_branch2b
I0821 14:20:31.807938 21397 net.cpp:100] Creating Layer bn3b1_branch2b
I0821 14:20:31.807943 21397 net.cpp:444] bn3b1_branch2b <- res3b1_branch2b
I0821 14:20:31.807950 21397 net.cpp:405] bn3b1_branch2b -> res3b1_branch2b (in-place)
I0821 14:20:31.808177 21397 net.cpp:150] Setting up bn3b1_branch2b
I0821 14:20:31.808187 21397 net.cpp:157] Top shape: 1 128 28 28 (100352)
I0821 14:20:31.808189 21397 net.cpp:165] Memory required for data: 133869580
I0821 14:20:31.808202 21397 layer_factory.hpp:77] Creating layer scale3b1_branch2b
I0821 14:20:31.808210 21397 net.cpp:100] Creating Layer scale3b1_branch2b
I0821 14:20:31.808214 21397 net.cpp:444] scale3b1_branch2b <- res3b1_branch2b
I0821 14:20:31.808220 21397 net.cpp:405] scale3b1_branch2b -> res3b1_branch2b (in-place)
I0821 14:20:31.808266 21397 layer_factory.hpp:77] Creating layer scale3b1_branch2b
I0821 14:20:31.808388 21397 net.cpp:150] Setting up scale3b1_branch2b
I0821 14:20:31.808398 21397 net.cpp:157] Top shape: 1 128 28 28 (100352)
I0821 14:20:31.808400 21397 net.cpp:165] Memory required for data: 134270988
I0821 14:20:31.808408 21397 layer_factory.hpp:77] Creating layer res3b1_branch2b_relu
I0821 14:20:31.808414 21397 net.cpp:100] Creating Layer res3b1_branch2b_relu
I0821 14:20:31.808418 21397 net.cpp:444] res3b1_branch2b_relu <- res3b1_branch2b
I0821 14:20:31.808424 21397 net.cpp:405] res3b1_branch2b_relu -> res3b1_branch2b (in-place)
I0821 14:20:31.808868 21397 net.cpp:150] Setting up res3b1_branch2b_relu
I0821 14:20:31.808888 21397 net.cpp:157] Top shape: 1 128 28 28 (100352)
I0821 14:20:31.808892 21397 net.cpp:165] Memory required for data: 134672396
I0821 14:20:31.808897 21397 layer_factory.hpp:77] Creating layer res3b1_branch2c
I0821 14:20:31.808905 21397 net.cpp:100] Creating Layer res3b1_branch2c
I0821 14:20:31.808910 21397 net.cpp:444] res3b1_branch2c <- res3b1_branch2b
I0821 14:20:31.808917 21397 net.cpp:418] res3b1_branch2c -> res3b1_branch2c
I0821 14:20:31.810101 21397 net.cpp:150] Setting up res3b1_branch2c
I0821 14:20:31.810117 21397 net.cpp:157] Top shape: 1 512 28 28 (401408)
I0821 14:20:31.810120 21397 net.cpp:165] Memory required for data: 136278028
I0821 14:20:31.810127 21397 layer_factory.hpp:77] Creating layer bn3b1_branch2c
I0821 14:20:31.810137 21397 net.cpp:100] Creating Layer bn3b1_branch2c
I0821 14:20:31.810142 21397 net.cpp:444] bn3b1_branch2c <- res3b1_branch2c
I0821 14:20:31.810148 21397 net.cpp:405] bn3b1_branch2c -> res3b1_branch2c (in-place)
I0821 14:20:31.810355 21397 net.cpp:150] Setting up bn3b1_branch2c
I0821 14:20:31.810364 21397 net.cpp:157] Top shape: 1 512 28 28 (401408)
I0821 14:20:31.810366 21397 net.cpp:165] Memory required for data: 137883660
I0821 14:20:31.810374 21397 layer_factory.hpp:77] Creating layer scale3b1_branch2c
I0821 14:20:31.810382 21397 net.cpp:100] Creating Layer scale3b1_branch2c
I0821 14:20:31.810386 21397 net.cpp:444] scale3b1_branch2c <- res3b1_branch2c
I0821 14:20:31.810392 21397 net.cpp:405] scale3b1_branch2c -> res3b1_branch2c (in-place)
I0821 14:20:31.810436 21397 layer_factory.hpp:77] Creating layer scale3b1_branch2c
I0821 14:20:31.810549 21397 net.cpp:150] Setting up scale3b1_branch2c
I0821 14:20:31.810559 21397 net.cpp:157] Top shape: 1 512 28 28 (401408)
I0821 14:20:31.810562 21397 net.cpp:165] Memory required for data: 139489292
I0821 14:20:31.810569 21397 layer_factory.hpp:77] Creating layer res3b1
I0821 14:20:31.810575 21397 net.cpp:100] Creating Layer res3b1
I0821 14:20:31.810578 21397 net.cpp:444] res3b1 <- res3a_res3a_relu_0_split_1
I0821 14:20:31.810583 21397 net.cpp:444] res3b1 <- res3b1_branch2c
I0821 14:20:31.810590 21397 net.cpp:418] res3b1 -> res3b1
I0821 14:20:31.810617 21397 net.cpp:150] Setting up res3b1
I0821 14:20:31.810624 21397 net.cpp:157] Top shape: 1 512 28 28 (401408)
I0821 14:20:31.810627 21397 net.cpp:165] Memory required for data: 141094924
I0821 14:20:31.810631 21397 layer_factory.hpp:77] Creating layer res3b1_relu
I0821 14:20:31.810636 21397 net.cpp:100] Creating Layer res3b1_relu
I0821 14:20:31.810640 21397 net.cpp:444] res3b1_relu <- res3b1
I0821 14:20:31.810647 21397 net.cpp:405] res3b1_relu -> res3b1 (in-place)
I0821 14:20:31.811092 21397 net.cpp:150] Setting up res3b1_relu
I0821 14:20:31.811107 21397 net.cpp:157] Top shape: 1 512 28 28 (401408)
I0821 14:20:31.811111 21397 net.cpp:165] Memory required for data: 142700556
I0821 14:20:31.811118 21397 layer_factory.hpp:77] Creating layer res3b1_res3b1_relu_0_split
I0821 14:20:31.811125 21397 net.cpp:100] Creating Layer res3b1_res3b1_relu_0_split
I0821 14:20:31.811131 21397 net.cpp:444] res3b1_res3b1_relu_0_split <- res3b1
I0821 14:20:31.811136 21397 net.cpp:418] res3b1_res3b1_relu_0_split -> res3b1_res3b1_relu_0_split_0
I0821 14:20:31.811146 21397 net.cpp:418] res3b1_res3b1_relu_0_split -> res3b1_res3b1_relu_0_split_1
I0821 14:20:31.811195 21397 net.cpp:150] Setting up res3b1_res3b1_relu_0_split
I0821 14:20:31.811203 21397 net.cpp:157] Top shape: 1 512 28 28 (401408)
I0821 14:20:31.811206 21397 net.cpp:157] Top shape: 1 512 28 28 (401408)
I0821 14:20:31.811210 21397 net.cpp:165] Memory required for data: 145911820
I0821 14:20:31.811213 21397 layer_factory.hpp:77] Creating layer res3b2_branch2a
I0821 14:20:31.811223 21397 net.cpp:100] Creating Layer res3b2_branch2a
I0821 14:20:31.811228 21397 net.cpp:444] res3b2_branch2a <- res3b1_res3b1_relu_0_split_0
I0821 14:20:31.811234 21397 net.cpp:418] res3b2_branch2a -> res3b2_branch2a
I0821 14:20:31.812644 21397 net.cpp:150] Setting up res3b2_branch2a
I0821 14:20:31.812657 21397 net.cpp:157] Top shape: 1 128 28 28 (100352)
I0821 14:20:31.812661 21397 net.cpp:165] Memory required for data: 146313228
I0821 14:20:31.812674 21397 layer_factory.hpp:77] Creating layer bn3b2_branch2a
I0821 14:20:31.812682 21397 net.cpp:100] Creating Layer bn3b2_branch2a
I0821 14:20:31.812687 21397 net.cpp:444] bn3b2_branch2a <- res3b2_branch2a
I0821 14:20:31.812693 21397 net.cpp:405] bn3b2_branch2a -> res3b2_branch2a (in-place)
I0821 14:20:31.812904 21397 net.cpp:150] Setting up bn3b2_branch2a
I0821 14:20:31.812912 21397 net.cpp:157] Top shape: 1 128 28 28 (100352)
I0821 14:20:31.812916 21397 net.cpp:165] Memory required for data: 146714636
I0821 14:20:31.812923 21397 layer_factory.hpp:77] Creating layer scale3b2_branch2a
I0821 14:20:31.812933 21397 net.cpp:100] Creating Layer scale3b2_branch2a
I0821 14:20:31.812937 21397 net.cpp:444] scale3b2_branch2a <- res3b2_branch2a
I0821 14:20:31.812943 21397 net.cpp:405] scale3b2_branch2a -> res3b2_branch2a (in-place)
I0821 14:20:31.812988 21397 layer_factory.hpp:77] Creating layer scale3b2_branch2a
I0821 14:20:31.813105 21397 net.cpp:150] Setting up scale3b2_branch2a
I0821 14:20:31.813113 21397 net.cpp:157] Top shape: 1 128 28 28 (100352)
I0821 14:20:31.813117 21397 net.cpp:165] Memory required for data: 147116044
I0821 14:20:31.813123 21397 layer_factory.hpp:77] Creating layer res3b2_branch2a_relu
I0821 14:20:31.813130 21397 net.cpp:100] Creating Layer res3b2_branch2a_relu
I0821 14:20:31.813134 21397 net.cpp:444] res3b2_branch2a_relu <- res3b2_branch2a
I0821 14:20:31.813139 21397 net.cpp:405] res3b2_branch2a_relu -> res3b2_branch2a (in-place)
I0821 14:20:31.813380 21397 net.cpp:150] Setting up res3b2_branch2a_relu
I0821 14:20:31.813391 21397 net.cpp:157] Top shape: 1 128 28 28 (100352)
I0821 14:20:31.813395 21397 net.cpp:165] Memory required for data: 147517452
I0821 14:20:31.813400 21397 layer_factory.hpp:77] Creating layer res3b2_branch2b
I0821 14:20:31.813414 21397 net.cpp:100] Creating Layer res3b2_branch2b
I0821 14:20:31.813418 21397 net.cpp:444] res3b2_branch2b <- res3b2_branch2a
I0821 14:20:31.813426 21397 net.cpp:418] res3b2_branch2b -> res3b2_branch2b
I0821 14:20:31.815779 21397 net.cpp:150] Setting up res3b2_branch2b
I0821 14:20:31.815794 21397 net.cpp:157] Top shape: 1 128 28 28 (100352)
I0821 14:20:31.815799 21397 net.cpp:165] Memory required for data: 147918860
I0821 14:20:31.815805 21397 layer_factory.hpp:77] Creating layer bn3b2_branch2b
I0821 14:20:31.815814 21397 net.cpp:100] Creating Layer bn3b2_branch2b
I0821 14:20:31.815819 21397 net.cpp:444] bn3b2_branch2b <- res3b2_branch2b
I0821 14:20:31.815825 21397 net.cpp:405] bn3b2_branch2b -> res3b2_branch2b (in-place)
I0821 14:20:31.816043 21397 net.cpp:150] Setting up bn3b2_branch2b
I0821 14:20:31.816051 21397 net.cpp:157] Top shape: 1 128 28 28 (100352)
I0821 14:20:31.816054 21397 net.cpp:165] Memory required for data: 148320268
I0821 14:20:31.816066 21397 layer_factory.hpp:77] Creating layer scale3b2_branch2b
I0821 14:20:31.816074 21397 net.cpp:100] Creating Layer scale3b2_branch2b
I0821 14:20:31.816078 21397 net.cpp:444] scale3b2_branch2b <- res3b2_branch2b
I0821 14:20:31.816084 21397 net.cpp:405] scale3b2_branch2b -> res3b2_branch2b (in-place)
I0821 14:20:31.816129 21397 layer_factory.hpp:77] Creating layer scale3b2_branch2b
I0821 14:20:31.816248 21397 net.cpp:150] Setting up scale3b2_branch2b
I0821 14:20:31.816256 21397 net.cpp:157] Top shape: 1 128 28 28 (100352)
I0821 14:20:31.816260 21397 net.cpp:165] Memory required for data: 148721676
I0821 14:20:31.816267 21397 layer_factory.hpp:77] Creating layer res3b2_branch2b_relu
I0821 14:20:31.816272 21397 net.cpp:100] Creating Layer res3b2_branch2b_relu
I0821 14:20:31.816277 21397 net.cpp:444] res3b2_branch2b_relu <- res3b2_branch2b
I0821 14:20:31.816282 21397 net.cpp:405] res3b2_branch2b_relu -> res3b2_branch2b (in-place)
I0821 14:20:31.816738 21397 net.cpp:150] Setting up res3b2_branch2b_relu
I0821 14:20:31.816753 21397 net.cpp:157] Top shape: 1 128 28 28 (100352)
I0821 14:20:31.816757 21397 net.cpp:165] Memory required for data: 149123084
I0821 14:20:31.816761 21397 layer_factory.hpp:77] Creating layer res3b2_branch2c
I0821 14:20:31.816778 21397 net.cpp:100] Creating Layer res3b2_branch2c
I0821 14:20:31.816783 21397 net.cpp:444] res3b2_branch2c <- res3b2_branch2b
I0821 14:20:31.816790 21397 net.cpp:418] res3b2_branch2c -> res3b2_branch2c
I0821 14:20:31.817988 21397 net.cpp:150] Setting up res3b2_branch2c
I0821 14:20:31.818004 21397 net.cpp:157] Top shape: 1 512 28 28 (401408)
I0821 14:20:31.818008 21397 net.cpp:165] Memory required for data: 150728716
I0821 14:20:31.818014 21397 layer_factory.hpp:77] Creating layer bn3b2_branch2c
I0821 14:20:31.818025 21397 net.cpp:100] Creating Layer bn3b2_branch2c
I0821 14:20:31.818030 21397 net.cpp:444] bn3b2_branch2c <- res3b2_branch2c
I0821 14:20:31.818037 21397 net.cpp:405] bn3b2_branch2c -> res3b2_branch2c (in-place)
I0821 14:20:31.818265 21397 net.cpp:150] Setting up bn3b2_branch2c
I0821 14:20:31.818274 21397 net.cpp:157] Top shape: 1 512 28 28 (401408)
I0821 14:20:31.818277 21397 net.cpp:165] Memory required for data: 152334348
I0821 14:20:31.818285 21397 layer_factory.hpp:77] Creating layer scale3b2_branch2c
I0821 14:20:31.818294 21397 net.cpp:100] Creating Layer scale3b2_branch2c
I0821 14:20:31.818297 21397 net.cpp:444] scale3b2_branch2c <- res3b2_branch2c
I0821 14:20:31.818302 21397 net.cpp:405] scale3b2_branch2c -> res3b2_branch2c (in-place)
I0821 14:20:31.818349 21397 layer_factory.hpp:77] Creating layer scale3b2_branch2c
I0821 14:20:31.818473 21397 net.cpp:150] Setting up scale3b2_branch2c
I0821 14:20:31.818492 21397 net.cpp:157] Top shape: 1 512 28 28 (401408)
I0821 14:20:31.818496 21397 net.cpp:165] Memory required for data: 153939980
I0821 14:20:31.818502 21397 layer_factory.hpp:77] Creating layer res3b2
I0821 14:20:31.818509 21397 net.cpp:100] Creating Layer res3b2
I0821 14:20:31.818513 21397 net.cpp:444] res3b2 <- res3b1_res3b1_relu_0_split_1
I0821 14:20:31.818518 21397 net.cpp:444] res3b2 <- res3b2_branch2c
I0821 14:20:31.818524 21397 net.cpp:418] res3b2 -> res3b2
I0821 14:20:31.818552 21397 net.cpp:150] Setting up res3b2
I0821 14:20:31.818559 21397 net.cpp:157] Top shape: 1 512 28 28 (401408)
I0821 14:20:31.818563 21397 net.cpp:165] Memory required for data: 155545612
I0821 14:20:31.818567 21397 layer_factory.hpp:77] Creating layer res3b2_relu
I0821 14:20:31.818572 21397 net.cpp:100] Creating Layer res3b2_relu
I0821 14:20:31.818576 21397 net.cpp:444] res3b2_relu <- res3b2
I0821 14:20:31.818581 21397 net.cpp:405] res3b2_relu -> res3b2 (in-place)
I0821 14:20:31.819021 21397 net.cpp:150] Setting up res3b2_relu
I0821 14:20:31.819036 21397 net.cpp:157] Top shape: 1 512 28 28 (401408)
I0821 14:20:31.819039 21397 net.cpp:165] Memory required for data: 157151244
I0821 14:20:31.819046 21397 layer_factory.hpp:77] Creating layer res3b2_res3b2_relu_0_split
I0821 14:20:31.819053 21397 net.cpp:100] Creating Layer res3b2_res3b2_relu_0_split
I0821 14:20:31.819057 21397 net.cpp:444] res3b2_res3b2_relu_0_split <- res3b2
I0821 14:20:31.819064 21397 net.cpp:418] res3b2_res3b2_relu_0_split -> res3b2_res3b2_relu_0_split_0
I0821 14:20:31.819073 21397 net.cpp:418] res3b2_res3b2_relu_0_split -> res3b2_res3b2_relu_0_split_1
I0821 14:20:31.819124 21397 net.cpp:150] Setting up res3b2_res3b2_relu_0_split
I0821 14:20:31.819131 21397 net.cpp:157] Top shape: 1 512 28 28 (401408)
I0821 14:20:31.819135 21397 net.cpp:157] Top shape: 1 512 28 28 (401408)
I0821 14:20:31.819139 21397 net.cpp:165] Memory required for data: 160362508
I0821 14:20:31.819142 21397 layer_factory.hpp:77] Creating layer res3b3_branch2a
I0821 14:20:31.819151 21397 net.cpp:100] Creating Layer res3b3_branch2a
I0821 14:20:31.819155 21397 net.cpp:444] res3b3_branch2a <- res3b2_res3b2_relu_0_split_0
I0821 14:20:31.819162 21397 net.cpp:418] res3b3_branch2a -> res3b3_branch2a
I0821 14:20:31.821264 21397 net.cpp:150] Setting up res3b3_branch2a
I0821 14:20:31.821280 21397 net.cpp:157] Top shape: 1 128 28 28 (100352)
I0821 14:20:31.821285 21397 net.cpp:165] Memory required for data: 160763916
I0821 14:20:31.821306 21397 layer_factory.hpp:77] Creating layer bn3b3_branch2a
I0821 14:20:31.821317 21397 net.cpp:100] Creating Layer bn3b3_branch2a
I0821 14:20:31.821328 21397 net.cpp:444] bn3b3_branch2a <- res3b3_branch2a
I0821 14:20:31.821336 21397 net.cpp:405] bn3b3_branch2a -> res3b3_branch2a (in-place)
I0821 14:20:31.821561 21397 net.cpp:150] Setting up bn3b3_branch2a
I0821 14:20:31.821569 21397 net.cpp:157] Top shape: 1 128 28 28 (100352)
I0821 14:20:31.821573 21397 net.cpp:165] Memory required for data: 161165324
I0821 14:20:31.821588 21397 layer_factory.hpp:77] Creating layer scale3b3_branch2a
I0821 14:20:31.821601 21397 net.cpp:100] Creating Layer scale3b3_branch2a
I0821 14:20:31.821605 21397 net.cpp:444] scale3b3_branch2a <- res3b3_branch2a
I0821 14:20:31.821612 21397 net.cpp:405] scale3b3_branch2a -> res3b3_branch2a (in-place)
I0821 14:20:31.821661 21397 layer_factory.hpp:77] Creating layer scale3b3_branch2a
I0821 14:20:31.821801 21397 net.cpp:150] Setting up scale3b3_branch2a
I0821 14:20:31.821810 21397 net.cpp:157] Top shape: 1 128 28 28 (100352)
I0821 14:20:31.821815 21397 net.cpp:165] Memory required for data: 161566732
I0821 14:20:31.821820 21397 layer_factory.hpp:77] Creating layer res3b3_branch2a_relu
I0821 14:20:31.821827 21397 net.cpp:100] Creating Layer res3b3_branch2a_relu
I0821 14:20:31.821831 21397 net.cpp:444] res3b3_branch2a_relu <- res3b3_branch2a
I0821 14:20:31.821837 21397 net.cpp:405] res3b3_branch2a_relu -> res3b3_branch2a (in-place)
I0821 14:20:31.822084 21397 net.cpp:150] Setting up res3b3_branch2a_relu
I0821 14:20:31.822098 21397 net.cpp:157] Top shape: 1 128 28 28 (100352)
I0821 14:20:31.822101 21397 net.cpp:165] Memory required for data: 161968140
I0821 14:20:31.822105 21397 layer_factory.hpp:77] Creating layer res3b3_branch2b
I0821 14:20:31.822115 21397 net.cpp:100] Creating Layer res3b3_branch2b
I0821 14:20:31.822120 21397 net.cpp:444] res3b3_branch2b <- res3b3_branch2a
I0821 14:20:31.822127 21397 net.cpp:418] res3b3_branch2b -> res3b3_branch2b
I0821 14:20:31.824841 21397 net.cpp:150] Setting up res3b3_branch2b
I0821 14:20:31.824857 21397 net.cpp:157] Top shape: 1 128 28 28 (100352)
I0821 14:20:31.824862 21397 net.cpp:165] Memory required for data: 162369548
I0821 14:20:31.824868 21397 layer_factory.hpp:77] Creating layer bn3b3_branch2b
I0821 14:20:31.824877 21397 net.cpp:100] Creating Layer bn3b3_branch2b
I0821 14:20:31.824882 21397 net.cpp:444] bn3b3_branch2b <- res3b3_branch2b
I0821 14:20:31.824889 21397 net.cpp:405] bn3b3_branch2b -> res3b3_branch2b (in-place)
I0821 14:20:31.825143 21397 net.cpp:150] Setting up bn3b3_branch2b
I0821 14:20:31.825152 21397 net.cpp:157] Top shape: 1 128 28 28 (100352)
I0821 14:20:31.825155 21397 net.cpp:165] Memory required for data: 162770956
I0821 14:20:31.825167 21397 layer_factory.hpp:77] Creating layer scale3b3_branch2b
I0821 14:20:31.825176 21397 net.cpp:100] Creating Layer scale3b3_branch2b
I0821 14:20:31.825181 21397 net.cpp:444] scale3b3_branch2b <- res3b3_branch2b
I0821 14:20:31.825186 21397 net.cpp:405] scale3b3_branch2b -> res3b3_branch2b (in-place)
I0821 14:20:31.825235 21397 layer_factory.hpp:77] Creating layer scale3b3_branch2b
I0821 14:20:31.825393 21397 net.cpp:150] Setting up scale3b3_branch2b
I0821 14:20:31.825404 21397 net.cpp:157] Top shape: 1 128 28 28 (100352)
I0821 14:20:31.825408 21397 net.cpp:165] Memory required for data: 163172364
I0821 14:20:31.825414 21397 layer_factory.hpp:77] Creating layer res3b3_branch2b_relu
I0821 14:20:31.825422 21397 net.cpp:100] Creating Layer res3b3_branch2b_relu
I0821 14:20:31.825425 21397 net.cpp:444] res3b3_branch2b_relu <- res3b3_branch2b
I0821 14:20:31.825431 21397 net.cpp:405] res3b3_branch2b_relu -> res3b3_branch2b (in-place)
I0821 14:20:31.825886 21397 net.cpp:150] Setting up res3b3_branch2b_relu
I0821 14:20:31.825901 21397 net.cpp:157] Top shape: 1 128 28 28 (100352)
I0821 14:20:31.825906 21397 net.cpp:165] Memory required for data: 163573772
I0821 14:20:31.825909 21397 layer_factory.hpp:77] Creating layer res3b3_branch2c
I0821 14:20:31.825919 21397 net.cpp:100] Creating Layer res3b3_branch2c
I0821 14:20:31.825924 21397 net.cpp:444] res3b3_branch2c <- res3b3_branch2b
I0821 14:20:31.825932 21397 net.cpp:418] res3b3_branch2c -> res3b3_branch2c
I0821 14:20:31.827188 21397 net.cpp:150] Setting up res3b3_branch2c
I0821 14:20:31.827205 21397 net.cpp:157] Top shape: 1 512 28 28 (401408)
I0821 14:20:31.827209 21397 net.cpp:165] Memory required for data: 165179404
I0821 14:20:31.827216 21397 layer_factory.hpp:77] Creating layer bn3b3_branch2c
I0821 14:20:31.827229 21397 net.cpp:100] Creating Layer bn3b3_branch2c
I0821 14:20:31.827234 21397 net.cpp:444] bn3b3_branch2c <- res3b3_branch2c
I0821 14:20:31.827241 21397 net.cpp:405] bn3b3_branch2c -> res3b3_branch2c (in-place)
I0821 14:20:31.827500 21397 net.cpp:150] Setting up bn3b3_branch2c
I0821 14:20:31.827508 21397 net.cpp:157] Top shape: 1 512 28 28 (401408)
I0821 14:20:31.827512 21397 net.cpp:165] Memory required for data: 166785036
I0821 14:20:31.827520 21397 layer_factory.hpp:77] Creating layer scale3b3_branch2c
I0821 14:20:31.827528 21397 net.cpp:100] Creating Layer scale3b3_branch2c
I0821 14:20:31.827533 21397 net.cpp:444] scale3b3_branch2c <- res3b3_branch2c
I0821 14:20:31.827540 21397 net.cpp:405] scale3b3_branch2c -> res3b3_branch2c (in-place)
I0821 14:20:31.827589 21397 layer_factory.hpp:77] Creating layer scale3b3_branch2c
I0821 14:20:31.827736 21397 net.cpp:150] Setting up scale3b3_branch2c
I0821 14:20:31.827745 21397 net.cpp:157] Top shape: 1 512 28 28 (401408)
I0821 14:20:31.827749 21397 net.cpp:165] Memory required for data: 168390668
I0821 14:20:31.827755 21397 layer_factory.hpp:77] Creating layer res3b3
I0821 14:20:31.827762 21397 net.cpp:100] Creating Layer res3b3
I0821 14:20:31.827766 21397 net.cpp:444] res3b3 <- res3b2_res3b2_relu_0_split_1
I0821 14:20:31.827771 21397 net.cpp:444] res3b3 <- res3b3_branch2c
I0821 14:20:31.827777 21397 net.cpp:418] res3b3 -> res3b3
I0821 14:20:31.827807 21397 net.cpp:150] Setting up res3b3
I0821 14:20:31.827814 21397 net.cpp:157] Top shape: 1 512 28 28 (401408)
I0821 14:20:31.827818 21397 net.cpp:165] Memory required for data: 169996300
I0821 14:20:31.827822 21397 layer_factory.hpp:77] Creating layer res3b3_relu
I0821 14:20:31.827828 21397 net.cpp:100] Creating Layer res3b3_relu
I0821 14:20:31.827832 21397 net.cpp:444] res3b3_relu <- res3b3
I0821 14:20:31.827837 21397 net.cpp:405] res3b3_relu -> res3b3 (in-place)
I0821 14:20:31.828284 21397 net.cpp:150] Setting up res3b3_relu
I0821 14:20:31.828299 21397 net.cpp:157] Top shape: 1 512 28 28 (401408)
I0821 14:20:31.828302 21397 net.cpp:165] Memory required for data: 171601932
I0821 14:20:31.828308 21397 layer_factory.hpp:77] Creating layer res3b3_res3b3_relu_0_split
I0821 14:20:31.828316 21397 net.cpp:100] Creating Layer res3b3_res3b3_relu_0_split
I0821 14:20:31.828321 21397 net.cpp:444] res3b3_res3b3_relu_0_split <- res3b3
I0821 14:20:31.828328 21397 net.cpp:418] res3b3_res3b3_relu_0_split -> res3b3_res3b3_relu_0_split_0
I0821 14:20:31.828336 21397 net.cpp:418] res3b3_res3b3_relu_0_split -> res3b3_res3b3_relu_0_split_1
I0821 14:20:31.828389 21397 net.cpp:150] Setting up res3b3_res3b3_relu_0_split
I0821 14:20:31.828397 21397 net.cpp:157] Top shape: 1 512 28 28 (401408)
I0821 14:20:31.828402 21397 net.cpp:157] Top shape: 1 512 28 28 (401408)
I0821 14:20:31.828404 21397 net.cpp:165] Memory required for data: 174813196
I0821 14:20:31.828408 21397 layer_factory.hpp:77] Creating layer res4a_branch1
I0821 14:20:31.828418 21397 net.cpp:100] Creating Layer res4a_branch1
I0821 14:20:31.828423 21397 net.cpp:444] res4a_branch1 <- res3b3_res3b3_relu_0_split_0
I0821 14:20:31.828429 21397 net.cpp:418] res4a_branch1 -> res4a_branch1
I0821 14:20:31.831369 21397 net.cpp:150] Setting up res4a_branch1
I0821 14:20:31.831398 21397 net.cpp:157] Top shape: 1 1024 14 14 (200704)
I0821 14:20:31.831403 21397 net.cpp:165] Memory required for data: 175616012
I0821 14:20:31.831408 21397 layer_factory.hpp:77] Creating layer bn4a_branch1
I0821 14:20:31.831418 21397 net.cpp:100] Creating Layer bn4a_branch1
I0821 14:20:31.831423 21397 net.cpp:444] bn4a_branch1 <- res4a_branch1
I0821 14:20:31.831429 21397 net.cpp:405] bn4a_branch1 -> res4a_branch1 (in-place)
I0821 14:20:31.831688 21397 net.cpp:150] Setting up bn4a_branch1
I0821 14:20:31.831697 21397 net.cpp:157] Top shape: 1 1024 14 14 (200704)
I0821 14:20:31.831707 21397 net.cpp:165] Memory required for data: 176418828
I0821 14:20:31.831719 21397 layer_factory.hpp:77] Creating layer scale4a_branch1
I0821 14:20:31.831727 21397 net.cpp:100] Creating Layer scale4a_branch1
I0821 14:20:31.831732 21397 net.cpp:444] scale4a_branch1 <- res4a_branch1
I0821 14:20:31.831738 21397 net.cpp:405] scale4a_branch1 -> res4a_branch1 (in-place)
I0821 14:20:31.831795 21397 layer_factory.hpp:77] Creating layer scale4a_branch1
I0821 14:20:31.831933 21397 net.cpp:150] Setting up scale4a_branch1
I0821 14:20:31.831954 21397 net.cpp:157] Top shape: 1 1024 14 14 (200704)
I0821 14:20:31.831957 21397 net.cpp:165] Memory required for data: 177221644
I0821 14:20:31.831964 21397 layer_factory.hpp:77] Creating layer res4a_branch2a
I0821 14:20:31.831974 21397 net.cpp:100] Creating Layer res4a_branch2a
I0821 14:20:31.831979 21397 net.cpp:444] res4a_branch2a <- res3b3_res3b3_relu_0_split_1
I0821 14:20:31.831985 21397 net.cpp:418] res4a_branch2a -> res4a_branch2a
I0821 14:20:31.833283 21397 net.cpp:150] Setting up res4a_branch2a
I0821 14:20:31.833307 21397 net.cpp:157] Top shape: 1 256 14 14 (50176)
I0821 14:20:31.833310 21397 net.cpp:165] Memory required for data: 177422348
I0821 14:20:31.833317 21397 layer_factory.hpp:77] Creating layer bn4a_branch2a
I0821 14:20:31.833325 21397 net.cpp:100] Creating Layer bn4a_branch2a
I0821 14:20:31.833329 21397 net.cpp:444] bn4a_branch2a <- res4a_branch2a
I0821 14:20:31.833336 21397 net.cpp:405] bn4a_branch2a -> res4a_branch2a (in-place)
I0821 14:20:31.833560 21397 net.cpp:150] Setting up bn4a_branch2a
I0821 14:20:31.833568 21397 net.cpp:157] Top shape: 1 256 14 14 (50176)
I0821 14:20:31.833571 21397 net.cpp:165] Memory required for data: 177623052
I0821 14:20:31.833580 21397 layer_factory.hpp:77] Creating layer scale4a_branch2a
I0821 14:20:31.833588 21397 net.cpp:100] Creating Layer scale4a_branch2a
I0821 14:20:31.833593 21397 net.cpp:444] scale4a_branch2a <- res4a_branch2a
I0821 14:20:31.833600 21397 net.cpp:405] scale4a_branch2a -> res4a_branch2a (in-place)
I0821 14:20:31.833645 21397 layer_factory.hpp:77] Creating layer scale4a_branch2a
I0821 14:20:31.833787 21397 net.cpp:150] Setting up scale4a_branch2a
I0821 14:20:31.833796 21397 net.cpp:157] Top shape: 1 256 14 14 (50176)
I0821 14:20:31.833801 21397 net.cpp:165] Memory required for data: 177823756
I0821 14:20:31.833806 21397 layer_factory.hpp:77] Creating layer res4a_branch2a_relu
I0821 14:20:31.833813 21397 net.cpp:100] Creating Layer res4a_branch2a_relu
I0821 14:20:31.833817 21397 net.cpp:444] res4a_branch2a_relu <- res4a_branch2a
I0821 14:20:31.833824 21397 net.cpp:405] res4a_branch2a_relu -> res4a_branch2a (in-place)
I0821 14:20:31.834372 21397 net.cpp:150] Setting up res4a_branch2a_relu
I0821 14:20:31.834385 21397 net.cpp:157] Top shape: 1 256 14 14 (50176)
I0821 14:20:31.834389 21397 net.cpp:165] Memory required for data: 178024460
I0821 14:20:31.834394 21397 layer_factory.hpp:77] Creating layer res4a_branch2b
I0821 14:20:31.834404 21397 net.cpp:100] Creating Layer res4a_branch2b
I0821 14:20:31.834408 21397 net.cpp:444] res4a_branch2b <- res4a_branch2a
I0821 14:20:31.834415 21397 net.cpp:418] res4a_branch2b -> res4a_branch2b
I0821 14:20:31.837671 21397 net.cpp:150] Setting up res4a_branch2b
I0821 14:20:31.837688 21397 net.cpp:157] Top shape: 1 256 14 14 (50176)
I0821 14:20:31.837693 21397 net.cpp:165] Memory required for data: 178225164
I0821 14:20:31.837700 21397 layer_factory.hpp:77] Creating layer bn4a_branch2b
I0821 14:20:31.837720 21397 net.cpp:100] Creating Layer bn4a_branch2b
I0821 14:20:31.837724 21397 net.cpp:444] bn4a_branch2b <- res4a_branch2b
I0821 14:20:31.837731 21397 net.cpp:405] bn4a_branch2b -> res4a_branch2b (in-place)
I0821 14:20:31.837980 21397 net.cpp:150] Setting up bn4a_branch2b
I0821 14:20:31.837988 21397 net.cpp:157] Top shape: 1 256 14 14 (50176)
I0821 14:20:31.837992 21397 net.cpp:165] Memory required for data: 178425868
I0821 14:20:31.838001 21397 layer_factory.hpp:77] Creating layer scale4a_branch2b
I0821 14:20:31.838011 21397 net.cpp:100] Creating Layer scale4a_branch2b
I0821 14:20:31.838022 21397 net.cpp:444] scale4a_branch2b <- res4a_branch2b
I0821 14:20:31.838028 21397 net.cpp:405] scale4a_branch2b -> res4a_branch2b (in-place)
I0821 14:20:31.838078 21397 layer_factory.hpp:77] Creating layer scale4a_branch2b
I0821 14:20:31.838208 21397 net.cpp:150] Setting up scale4a_branch2b
I0821 14:20:31.838217 21397 net.cpp:157] Top shape: 1 256 14 14 (50176)
I0821 14:20:31.838220 21397 net.cpp:165] Memory required for data: 178626572
I0821 14:20:31.838227 21397 layer_factory.hpp:77] Creating layer res4a_branch2b_relu
I0821 14:20:31.838233 21397 net.cpp:100] Creating Layer res4a_branch2b_relu
I0821 14:20:31.838238 21397 net.cpp:444] res4a_branch2b_relu <- res4a_branch2b
I0821 14:20:31.838243 21397 net.cpp:405] res4a_branch2b_relu -> res4a_branch2b (in-place)
I0821 14:20:31.838469 21397 net.cpp:150] Setting up res4a_branch2b_relu
I0821 14:20:31.838480 21397 net.cpp:157] Top shape: 1 256 14 14 (50176)
I0821 14:20:31.838485 21397 net.cpp:165] Memory required for data: 178827276
I0821 14:20:31.838488 21397 layer_factory.hpp:77] Creating layer res4a_branch2c
I0821 14:20:31.838497 21397 net.cpp:100] Creating Layer res4a_branch2c
I0821 14:20:31.838501 21397 net.cpp:444] res4a_branch2c <- res4a_branch2b
I0821 14:20:31.838508 21397 net.cpp:418] res4a_branch2c -> res4a_branch2c
I0821 14:20:31.840776 21397 net.cpp:150] Setting up res4a_branch2c
I0821 14:20:31.840791 21397 net.cpp:157] Top shape: 1 1024 14 14 (200704)
I0821 14:20:31.840795 21397 net.cpp:165] Memory required for data: 179630092
I0821 14:20:31.840802 21397 layer_factory.hpp:77] Creating layer bn4a_branch2c
I0821 14:20:31.840811 21397 net.cpp:100] Creating Layer bn4a_branch2c
I0821 14:20:31.840816 21397 net.cpp:444] bn4a_branch2c <- res4a_branch2c
I0821 14:20:31.840823 21397 net.cpp:405] bn4a_branch2c -> res4a_branch2c (in-place)
I0821 14:20:31.841068 21397 net.cpp:150] Setting up bn4a_branch2c
I0821 14:20:31.841075 21397 net.cpp:157] Top shape: 1 1024 14 14 (200704)
I0821 14:20:31.841078 21397 net.cpp:165] Memory required for data: 180432908
I0821 14:20:31.841089 21397 layer_factory.hpp:77] Creating layer scale4a_branch2c
I0821 14:20:31.841099 21397 net.cpp:100] Creating Layer scale4a_branch2c
I0821 14:20:31.841102 21397 net.cpp:444] scale4a_branch2c <- res4a_branch2c
I0821 14:20:31.841109 21397 net.cpp:405] scale4a_branch2c -> res4a_branch2c (in-place)
I0821 14:20:31.841154 21397 layer_factory.hpp:77] Creating layer scale4a_branch2c
I0821 14:20:31.841326 21397 net.cpp:150] Setting up scale4a_branch2c
I0821 14:20:31.841337 21397 net.cpp:157] Top shape: 1 1024 14 14 (200704)
I0821 14:20:31.841341 21397 net.cpp:165] Memory required for data: 181235724
I0821 14:20:31.841347 21397 layer_factory.hpp:77] Creating layer res4a
I0821 14:20:31.841354 21397 net.cpp:100] Creating Layer res4a
I0821 14:20:31.841358 21397 net.cpp:444] res4a <- res4a_branch1
I0821 14:20:31.841363 21397 net.cpp:444] res4a <- res4a_branch2c
I0821 14:20:31.841369 21397 net.cpp:418] res4a -> res4a
I0821 14:20:31.841400 21397 net.cpp:150] Setting up res4a
I0821 14:20:31.841408 21397 net.cpp:157] Top shape: 1 1024 14 14 (200704)
I0821 14:20:31.841411 21397 net.cpp:165] Memory required for data: 182038540
I0821 14:20:31.841414 21397 layer_factory.hpp:77] Creating layer res4a_relu
I0821 14:20:31.841420 21397 net.cpp:100] Creating Layer res4a_relu
I0821 14:20:31.841425 21397 net.cpp:444] res4a_relu <- res4a
I0821 14:20:31.841431 21397 net.cpp:405] res4a_relu -> res4a (in-place)
I0821 14:20:31.841876 21397 net.cpp:150] Setting up res4a_relu
I0821 14:20:31.841890 21397 net.cpp:157] Top shape: 1 1024 14 14 (200704)
I0821 14:20:31.841894 21397 net.cpp:165] Memory required for data: 182841356
I0821 14:20:31.841898 21397 layer_factory.hpp:77] Creating layer res4a_res4a_relu_0_split
I0821 14:20:31.841908 21397 net.cpp:100] Creating Layer res4a_res4a_relu_0_split
I0821 14:20:31.841912 21397 net.cpp:444] res4a_res4a_relu_0_split <- res4a
I0821 14:20:31.841920 21397 net.cpp:418] res4a_res4a_relu_0_split -> res4a_res4a_relu_0_split_0
I0821 14:20:31.841928 21397 net.cpp:418] res4a_res4a_relu_0_split -> res4a_res4a_relu_0_split_1
I0821 14:20:31.841990 21397 net.cpp:150] Setting up res4a_res4a_relu_0_split
I0821 14:20:31.841998 21397 net.cpp:157] Top shape: 1 1024 14 14 (200704)
I0821 14:20:31.842002 21397 net.cpp:157] Top shape: 1 1024 14 14 (200704)
I0821 14:20:31.842006 21397 net.cpp:165] Memory required for data: 184446988
I0821 14:20:31.842010 21397 layer_factory.hpp:77] Creating layer res4b1_branch2a
I0821 14:20:31.842036 21397 net.cpp:100] Creating Layer res4b1_branch2a
I0821 14:20:31.842041 21397 net.cpp:444] res4b1_branch2a <- res4a_res4a_relu_0_split_0
I0821 14:20:31.842047 21397 net.cpp:418] res4b1_branch2a -> res4b1_branch2a
I0821 14:20:31.844099 21397 net.cpp:150] Setting up res4b1_branch2a
I0821 14:20:31.844125 21397 net.cpp:157] Top shape: 1 256 14 14 (50176)
I0821 14:20:31.844130 21397 net.cpp:165] Memory required for data: 184647692
I0821 14:20:31.844136 21397 layer_factory.hpp:77] Creating layer bn4b1_branch2a
I0821 14:20:31.844144 21397 net.cpp:100] Creating Layer bn4b1_branch2a
I0821 14:20:31.844149 21397 net.cpp:444] bn4b1_branch2a <- res4b1_branch2a
I0821 14:20:31.844156 21397 net.cpp:405] bn4b1_branch2a -> res4b1_branch2a (in-place)
I0821 14:20:31.844388 21397 net.cpp:150] Setting up bn4b1_branch2a
I0821 14:20:31.844396 21397 net.cpp:157] Top shape: 1 256 14 14 (50176)
I0821 14:20:31.844399 21397 net.cpp:165] Memory required for data: 184848396
I0821 14:20:31.844408 21397 layer_factory.hpp:77] Creating layer scale4b1_branch2a
I0821 14:20:31.844415 21397 net.cpp:100] Creating Layer scale4b1_branch2a
I0821 14:20:31.844420 21397 net.cpp:444] scale4b1_branch2a <- res4b1_branch2a
I0821 14:20:31.844425 21397 net.cpp:405] scale4b1_branch2a -> res4b1_branch2a (in-place)
I0821 14:20:31.844472 21397 layer_factory.hpp:77] Creating layer scale4b1_branch2a
I0821 14:20:31.844609 21397 net.cpp:150] Setting up scale4b1_branch2a
I0821 14:20:31.844617 21397 net.cpp:157] Top shape: 1 256 14 14 (50176)
I0821 14:20:31.844621 21397 net.cpp:165] Memory required for data: 185049100
I0821 14:20:31.844631 21397 layer_factory.hpp:77] Creating layer res4b1_branch2a_relu
I0821 14:20:31.844638 21397 net.cpp:100] Creating Layer res4b1_branch2a_relu
I0821 14:20:31.844642 21397 net.cpp:444] res4b1_branch2a_relu <- res4b1_branch2a
I0821 14:20:31.844648 21397 net.cpp:405] res4b1_branch2a_relu -> res4b1_branch2a (in-place)
I0821 14:20:31.845106 21397 net.cpp:150] Setting up res4b1_branch2a_relu
I0821 14:20:31.845121 21397 net.cpp:157] Top shape: 1 256 14 14 (50176)
I0821 14:20:31.845125 21397 net.cpp:165] Memory required for data: 185249804
I0821 14:20:31.845129 21397 layer_factory.hpp:77] Creating layer res4b1_branch2b
I0821 14:20:31.845139 21397 net.cpp:100] Creating Layer res4b1_branch2b
I0821 14:20:31.845144 21397 net.cpp:444] res4b1_branch2b <- res4b1_branch2a
I0821 14:20:31.845155 21397 net.cpp:418] res4b1_branch2b -> res4b1_branch2b
I0821 14:20:31.848480 21397 net.cpp:150] Setting up res4b1_branch2b
I0821 14:20:31.848496 21397 net.cpp:157] Top shape: 1 256 14 14 (50176)
I0821 14:20:31.848500 21397 net.cpp:165] Memory required for data: 185450508
I0821 14:20:31.848507 21397 layer_factory.hpp:77] Creating layer bn4b1_branch2b
I0821 14:20:31.848515 21397 net.cpp:100] Creating Layer bn4b1_branch2b
I0821 14:20:31.848520 21397 net.cpp:444] bn4b1_branch2b <- res4b1_branch2b
I0821 14:20:31.848526 21397 net.cpp:405] bn4b1_branch2b -> res4b1_branch2b (in-place)
I0821 14:20:31.848765 21397 net.cpp:150] Setting up bn4b1_branch2b
I0821 14:20:31.848773 21397 net.cpp:157] Top shape: 1 256 14 14 (50176)
I0821 14:20:31.848776 21397 net.cpp:165] Memory required for data: 185651212
I0821 14:20:31.848799 21397 layer_factory.hpp:77] Creating layer scale4b1_branch2b
I0821 14:20:31.848807 21397 net.cpp:100] Creating Layer scale4b1_branch2b
I0821 14:20:31.848812 21397 net.cpp:444] scale4b1_branch2b <- res4b1_branch2b
I0821 14:20:31.848819 21397 net.cpp:405] scale4b1_branch2b -> res4b1_branch2b (in-place)
I0821 14:20:31.848871 21397 layer_factory.hpp:77] Creating layer scale4b1_branch2b
I0821 14:20:31.849014 21397 net.cpp:150] Setting up scale4b1_branch2b
I0821 14:20:31.849030 21397 net.cpp:157] Top shape: 1 256 14 14 (50176)
I0821 14:20:31.849033 21397 net.cpp:165] Memory required for data: 185851916
I0821 14:20:31.849040 21397 layer_factory.hpp:77] Creating layer res4b1_branch2b_relu
I0821 14:20:31.849045 21397 net.cpp:100] Creating Layer res4b1_branch2b_relu
I0821 14:20:31.849050 21397 net.cpp:444] res4b1_branch2b_relu <- res4b1_branch2b
I0821 14:20:31.849056 21397 net.cpp:405] res4b1_branch2b_relu -> res4b1_branch2b (in-place)
I0821 14:20:31.849298 21397 net.cpp:150] Setting up res4b1_branch2b_relu
I0821 14:20:31.849311 21397 net.cpp:157] Top shape: 1 256 14 14 (50176)
I0821 14:20:31.849315 21397 net.cpp:165] Memory required for data: 186052620
I0821 14:20:31.849319 21397 layer_factory.hpp:77] Creating layer res4b1_branch2c
I0821 14:20:31.849329 21397 net.cpp:100] Creating Layer res4b1_branch2c
I0821 14:20:31.849334 21397 net.cpp:444] res4b1_branch2c <- res4b1_branch2b
I0821 14:20:31.849341 21397 net.cpp:418] res4b1_branch2c -> res4b1_branch2c
I0821 14:20:31.851841 21397 net.cpp:150] Setting up res4b1_branch2c
I0821 14:20:31.851858 21397 net.cpp:157] Top shape: 1 1024 14 14 (200704)
I0821 14:20:31.851862 21397 net.cpp:165] Memory required for data: 186855436
I0821 14:20:31.851869 21397 layer_factory.hpp:77] Creating layer bn4b1_branch2c
I0821 14:20:31.851881 21397 net.cpp:100] Creating Layer bn4b1_branch2c
I0821 14:20:31.851887 21397 net.cpp:444] bn4b1_branch2c <- res4b1_branch2c
I0821 14:20:31.851905 21397 net.cpp:405] bn4b1_branch2c -> res4b1_branch2c (in-place)
I0821 14:20:31.852164 21397 net.cpp:150] Setting up bn4b1_branch2c
I0821 14:20:31.852171 21397 net.cpp:157] Top shape: 1 1024 14 14 (200704)
I0821 14:20:31.852174 21397 net.cpp:165] Memory required for data: 187658252
I0821 14:20:31.852182 21397 layer_factory.hpp:77] Creating layer scale4b1_branch2c
I0821 14:20:31.852190 21397 net.cpp:100] Creating Layer scale4b1_branch2c
I0821 14:20:31.852195 21397 net.cpp:444] scale4b1_branch2c <- res4b1_branch2c
I0821 14:20:31.852200 21397 net.cpp:405] scale4b1_branch2c -> res4b1_branch2c (in-place)
I0821 14:20:31.852257 21397 layer_factory.hpp:77] Creating layer scale4b1_branch2c
I0821 14:20:31.852408 21397 net.cpp:150] Setting up scale4b1_branch2c
I0821 14:20:31.852416 21397 net.cpp:157] Top shape: 1 1024 14 14 (200704)
I0821 14:20:31.852421 21397 net.cpp:165] Memory required for data: 188461068
I0821 14:20:31.852427 21397 layer_factory.hpp:77] Creating layer res4b1
I0821 14:20:31.852433 21397 net.cpp:100] Creating Layer res4b1
I0821 14:20:31.852438 21397 net.cpp:444] res4b1 <- res4a_res4a_relu_0_split_1
I0821 14:20:31.852443 21397 net.cpp:444] res4b1 <- res4b1_branch2c
I0821 14:20:31.852449 21397 net.cpp:418] res4b1 -> res4b1
I0821 14:20:31.852481 21397 net.cpp:150] Setting up res4b1
I0821 14:20:31.852489 21397 net.cpp:157] Top shape: 1 1024 14 14 (200704)
I0821 14:20:31.852493 21397 net.cpp:165] Memory required for data: 189263884
I0821 14:20:31.852496 21397 layer_factory.hpp:77] Creating layer res4b1_relu
I0821 14:20:31.852504 21397 net.cpp:100] Creating Layer res4b1_relu
I0821 14:20:31.852507 21397 net.cpp:444] res4b1_relu <- res4b1
I0821 14:20:31.852514 21397 net.cpp:405] res4b1_relu -> res4b1 (in-place)
I0821 14:20:31.852998 21397 net.cpp:150] Setting up res4b1_relu
I0821 14:20:31.853013 21397 net.cpp:157] Top shape: 1 1024 14 14 (200704)
I0821 14:20:31.853018 21397 net.cpp:165] Memory required for data: 190066700
I0821 14:20:31.853024 21397 layer_factory.hpp:77] Creating layer res4b1_res4b1_relu_0_split
I0821 14:20:31.853044 21397 net.cpp:100] Creating Layer res4b1_res4b1_relu_0_split
I0821 14:20:31.853047 21397 net.cpp:444] res4b1_res4b1_relu_0_split <- res4b1
I0821 14:20:31.853055 21397 net.cpp:418] res4b1_res4b1_relu_0_split -> res4b1_res4b1_relu_0_split_0
I0821 14:20:31.853065 21397 net.cpp:418] res4b1_res4b1_relu_0_split -> res4b1_res4b1_relu_0_split_1
I0821 14:20:31.853119 21397 net.cpp:150] Setting up res4b1_res4b1_relu_0_split
I0821 14:20:31.853127 21397 net.cpp:157] Top shape: 1 1024 14 14 (200704)
I0821 14:20:31.853137 21397 net.cpp:157] Top shape: 1 1024 14 14 (200704)
I0821 14:20:31.853142 21397 net.cpp:165] Memory required for data: 191672332
I0821 14:20:31.853145 21397 layer_factory.hpp:77] Creating layer res4b2_branch2a
I0821 14:20:31.853154 21397 net.cpp:100] Creating Layer res4b2_branch2a
I0821 14:20:31.853158 21397 net.cpp:444] res4b2_branch2a <- res4b1_res4b1_relu_0_split_0
I0821 14:20:31.853165 21397 net.cpp:418] res4b2_branch2a -> res4b2_branch2a
I0821 14:20:31.855269 21397 net.cpp:150] Setting up res4b2_branch2a
I0821 14:20:31.855285 21397 net.cpp:157] Top shape: 1 256 14 14 (50176)
I0821 14:20:31.855289 21397 net.cpp:165] Memory required for data: 191873036
I0821 14:20:31.855296 21397 layer_factory.hpp:77] Creating layer bn4b2_branch2a
I0821 14:20:31.855309 21397 net.cpp:100] Creating Layer bn4b2_branch2a
I0821 14:20:31.855314 21397 net.cpp:444] bn4b2_branch2a <- res4b2_branch2a
I0821 14:20:31.855321 21397 net.cpp:405] bn4b2_branch2a -> res4b2_branch2a (in-place)
I0821 14:20:31.855562 21397 net.cpp:150] Setting up bn4b2_branch2a
I0821 14:20:31.855571 21397 net.cpp:157] Top shape: 1 256 14 14 (50176)
I0821 14:20:31.855573 21397 net.cpp:165] Memory required for data: 192073740
I0821 14:20:31.855581 21397 layer_factory.hpp:77] Creating layer scale4b2_branch2a
I0821 14:20:31.855589 21397 net.cpp:100] Creating Layer scale4b2_branch2a
I0821 14:20:31.855593 21397 net.cpp:444] scale4b2_branch2a <- res4b2_branch2a
I0821 14:20:31.855598 21397 net.cpp:405] scale4b2_branch2a -> res4b2_branch2a (in-place)
I0821 14:20:31.855653 21397 layer_factory.hpp:77] Creating layer scale4b2_branch2a
I0821 14:20:31.855808 21397 net.cpp:150] Setting up scale4b2_branch2a
I0821 14:20:31.855816 21397 net.cpp:157] Top shape: 1 256 14 14 (50176)
I0821 14:20:31.855820 21397 net.cpp:165] Memory required for data: 192274444
I0821 14:20:31.855829 21397 layer_factory.hpp:77] Creating layer res4b2_branch2a_relu
I0821 14:20:31.855836 21397 net.cpp:100] Creating Layer res4b2_branch2a_relu
I0821 14:20:31.855840 21397 net.cpp:444] res4b2_branch2a_relu <- res4b2_branch2a
I0821 14:20:31.855845 21397 net.cpp:405] res4b2_branch2a_relu -> res4b2_branch2a (in-place)
I0821 14:20:31.856331 21397 net.cpp:150] Setting up res4b2_branch2a_relu
I0821 14:20:31.856345 21397 net.cpp:157] Top shape: 1 256 14 14 (50176)
I0821 14:20:31.856349 21397 net.cpp:165] Memory required for data: 192475148
I0821 14:20:31.856353 21397 layer_factory.hpp:77] Creating layer res4b2_branch2b
I0821 14:20:31.856364 21397 net.cpp:100] Creating Layer res4b2_branch2b
I0821 14:20:31.856369 21397 net.cpp:444] res4b2_branch2b <- res4b2_branch2a
I0821 14:20:31.856377 21397 net.cpp:418] res4b2_branch2b -> res4b2_branch2b
I0821 14:20:31.859779 21397 net.cpp:150] Setting up res4b2_branch2b
I0821 14:20:31.859798 21397 net.cpp:157] Top shape: 1 256 14 14 (50176)
I0821 14:20:31.859802 21397 net.cpp:165] Memory required for data: 192675852
I0821 14:20:31.859809 21397 layer_factory.hpp:77] Creating layer bn4b2_branch2b
I0821 14:20:31.859819 21397 net.cpp:100] Creating Layer bn4b2_branch2b
I0821 14:20:31.859823 21397 net.cpp:444] bn4b2_branch2b <- res4b2_branch2b
I0821 14:20:31.859829 21397 net.cpp:405] bn4b2_branch2b -> res4b2_branch2b (in-place)
I0821 14:20:31.860080 21397 net.cpp:150] Setting up bn4b2_branch2b
I0821 14:20:31.860090 21397 net.cpp:157] Top shape: 1 256 14 14 (50176)
I0821 14:20:31.860092 21397 net.cpp:165] Memory required for data: 192876556
I0821 14:20:31.860102 21397 layer_factory.hpp:77] Creating layer scale4b2_branch2b
I0821 14:20:31.860111 21397 net.cpp:100] Creating Layer scale4b2_branch2b
I0821 14:20:31.860116 21397 net.cpp:444] scale4b2_branch2b <- res4b2_branch2b
I0821 14:20:31.860121 21397 net.cpp:405] scale4b2_branch2b -> res4b2_branch2b (in-place)
I0821 14:20:31.860174 21397 layer_factory.hpp:77] Creating layer scale4b2_branch2b
I0821 14:20:31.860317 21397 net.cpp:150] Setting up scale4b2_branch2b
I0821 14:20:31.860325 21397 net.cpp:157] Top shape: 1 256 14 14 (50176)
I0821 14:20:31.860328 21397 net.cpp:165] Memory required for data: 193077260
I0821 14:20:31.860335 21397 layer_factory.hpp:77] Creating layer res4b2_branch2b_relu
I0821 14:20:31.860347 21397 net.cpp:100] Creating Layer res4b2_branch2b_relu
I0821 14:20:31.860350 21397 net.cpp:444] res4b2_branch2b_relu <- res4b2_branch2b
I0821 14:20:31.860358 21397 net.cpp:405] res4b2_branch2b_relu -> res4b2_branch2b (in-place)
I0821 14:20:31.860612 21397 net.cpp:150] Setting up res4b2_branch2b_relu
I0821 14:20:31.860625 21397 net.cpp:157] Top shape: 1 256 14 14 (50176)
I0821 14:20:31.860630 21397 net.cpp:165] Memory required for data: 193277964
I0821 14:20:31.860633 21397 layer_factory.hpp:77] Creating layer res4b2_branch2c
I0821 14:20:31.860641 21397 net.cpp:100] Creating Layer res4b2_branch2c
I0821 14:20:31.860646 21397 net.cpp:444] res4b2_branch2c <- res4b2_branch2b
I0821 14:20:31.860656 21397 net.cpp:418] res4b2_branch2c -> res4b2_branch2c
I0821 14:20:31.863039 21397 net.cpp:150] Setting up res4b2_branch2c
I0821 14:20:31.863055 21397 net.cpp:157] Top shape: 1 1024 14 14 (200704)
I0821 14:20:31.863059 21397 net.cpp:165] Memory required for data: 194080780
I0821 14:20:31.863066 21397 layer_factory.hpp:77] Creating layer bn4b2_branch2c
I0821 14:20:31.863075 21397 net.cpp:100] Creating Layer bn4b2_branch2c
I0821 14:20:31.863080 21397 net.cpp:444] bn4b2_branch2c <- res4b2_branch2c
I0821 14:20:31.863088 21397 net.cpp:405] bn4b2_branch2c -> res4b2_branch2c (in-place)
I0821 14:20:31.863366 21397 net.cpp:150] Setting up bn4b2_branch2c
I0821 14:20:31.863375 21397 net.cpp:157] Top shape: 1 1024 14 14 (200704)
I0821 14:20:31.863379 21397 net.cpp:165] Memory required for data: 194883596
I0821 14:20:31.863387 21397 layer_factory.hpp:77] Creating layer scale4b2_branch2c
I0821 14:20:31.863394 21397 net.cpp:100] Creating Layer scale4b2_branch2c
I0821 14:20:31.863399 21397 net.cpp:444] scale4b2_branch2c <- res4b2_branch2c
I0821 14:20:31.863405 21397 net.cpp:405] scale4b2_branch2c -> res4b2_branch2c (in-place)
I0821 14:20:31.863452 21397 layer_factory.hpp:77] Creating layer scale4b2_branch2c
I0821 14:20:31.863606 21397 net.cpp:150] Setting up scale4b2_branch2c
I0821 14:20:31.863615 21397 net.cpp:157] Top shape: 1 1024 14 14 (200704)
I0821 14:20:31.863618 21397 net.cpp:165] Memory required for data: 195686412
I0821 14:20:31.863625 21397 layer_factory.hpp:77] Creating layer res4b2
I0821 14:20:31.863631 21397 net.cpp:100] Creating Layer res4b2
I0821 14:20:31.863634 21397 net.cpp:444] res4b2 <- res4b1_res4b1_relu_0_split_1
I0821 14:20:31.863639 21397 net.cpp:444] res4b2 <- res4b2_branch2c
I0821 14:20:31.863646 21397 net.cpp:418] res4b2 -> res4b2
I0821 14:20:31.863678 21397 net.cpp:150] Setting up res4b2
I0821 14:20:31.863687 21397 net.cpp:157] Top shape: 1 1024 14 14 (200704)
I0821 14:20:31.863692 21397 net.cpp:165] Memory required for data: 196489228
I0821 14:20:31.863695 21397 layer_factory.hpp:77] Creating layer res4b2_relu
I0821 14:20:31.863700 21397 net.cpp:100] Creating Layer res4b2_relu
I0821 14:20:31.863704 21397 net.cpp:444] res4b2_relu <- res4b2
I0821 14:20:31.863709 21397 net.cpp:405] res4b2_relu -> res4b2 (in-place)
I0821 14:20:31.864195 21397 net.cpp:150] Setting up res4b2_relu
I0821 14:20:31.864209 21397 net.cpp:157] Top shape: 1 1024 14 14 (200704)
I0821 14:20:31.864213 21397 net.cpp:165] Memory required for data: 197292044
I0821 14:20:31.864219 21397 layer_factory.hpp:77] Creating layer res4b2_res4b2_relu_0_split
I0821 14:20:31.864228 21397 net.cpp:100] Creating Layer res4b2_res4b2_relu_0_split
I0821 14:20:31.864233 21397 net.cpp:444] res4b2_res4b2_relu_0_split <- res4b2
I0821 14:20:31.864238 21397 net.cpp:418] res4b2_res4b2_relu_0_split -> res4b2_res4b2_relu_0_split_0
I0821 14:20:31.864246 21397 net.cpp:418] res4b2_res4b2_relu_0_split -> res4b2_res4b2_relu_0_split_1
I0821 14:20:31.864306 21397 net.cpp:150] Setting up res4b2_res4b2_relu_0_split
I0821 14:20:31.864313 21397 net.cpp:157] Top shape: 1 1024 14 14 (200704)
I0821 14:20:31.864317 21397 net.cpp:157] Top shape: 1 1024 14 14 (200704)
I0821 14:20:31.864320 21397 net.cpp:165] Memory required for data: 198897676
I0821 14:20:31.864325 21397 layer_factory.hpp:77] Creating layer res4b3_branch2a
I0821 14:20:31.864341 21397 net.cpp:100] Creating Layer res4b3_branch2a
I0821 14:20:31.864346 21397 net.cpp:444] res4b3_branch2a <- res4b2_res4b2_relu_0_split_0
I0821 14:20:31.864354 21397 net.cpp:418] res4b3_branch2a -> res4b3_branch2a
I0821 14:20:31.866497 21397 net.cpp:150] Setting up res4b3_branch2a
I0821 14:20:31.866514 21397 net.cpp:157] Top shape: 1 256 14 14 (50176)
I0821 14:20:31.866518 21397 net.cpp:165] Memory required for data: 199098380
I0821 14:20:31.866525 21397 layer_factory.hpp:77] Creating layer bn4b3_branch2a
I0821 14:20:31.866533 21397 net.cpp:100] Creating Layer bn4b3_branch2a
I0821 14:20:31.866538 21397 net.cpp:444] bn4b3_branch2a <- res4b3_branch2a
I0821 14:20:31.866545 21397 net.cpp:405] bn4b3_branch2a -> res4b3_branch2a (in-place)
I0821 14:20:31.866814 21397 net.cpp:150] Setting up bn4b3_branch2a
I0821 14:20:31.866822 21397 net.cpp:157] Top shape: 1 256 14 14 (50176)
I0821 14:20:31.866825 21397 net.cpp:165] Memory required for data: 199299084
I0821 14:20:31.866833 21397 layer_factory.hpp:77] Creating layer scale4b3_branch2a
I0821 14:20:31.866840 21397 net.cpp:100] Creating Layer scale4b3_branch2a
I0821 14:20:31.866844 21397 net.cpp:444] scale4b3_branch2a <- res4b3_branch2a
I0821 14:20:31.866852 21397 net.cpp:405] scale4b3_branch2a -> res4b3_branch2a (in-place)
I0821 14:20:31.866901 21397 layer_factory.hpp:77] Creating layer scale4b3_branch2a
I0821 14:20:31.867048 21397 net.cpp:150] Setting up scale4b3_branch2a
I0821 14:20:31.867056 21397 net.cpp:157] Top shape: 1 256 14 14 (50176)
I0821 14:20:31.867060 21397 net.cpp:165] Memory required for data: 199499788
I0821 14:20:31.867069 21397 layer_factory.hpp:77] Creating layer res4b3_branch2a_relu
I0821 14:20:31.867074 21397 net.cpp:100] Creating Layer res4b3_branch2a_relu
I0821 14:20:31.867077 21397 net.cpp:444] res4b3_branch2a_relu <- res4b3_branch2a
I0821 14:20:31.867082 21397 net.cpp:405] res4b3_branch2a_relu -> res4b3_branch2a (in-place)
I0821 14:20:31.867534 21397 net.cpp:150] Setting up res4b3_branch2a_relu
I0821 14:20:31.867548 21397 net.cpp:157] Top shape: 1 256 14 14 (50176)
I0821 14:20:31.867552 21397 net.cpp:165] Memory required for data: 199700492
I0821 14:20:31.867557 21397 layer_factory.hpp:77] Creating layer res4b3_branch2b
I0821 14:20:31.867568 21397 net.cpp:100] Creating Layer res4b3_branch2b
I0821 14:20:31.867573 21397 net.cpp:444] res4b3_branch2b <- res4b3_branch2a
I0821 14:20:31.867580 21397 net.cpp:418] res4b3_branch2b -> res4b3_branch2b
I0821 14:20:31.871058 21397 net.cpp:150] Setting up res4b3_branch2b
I0821 14:20:31.871076 21397 net.cpp:157] Top shape: 1 256 14 14 (50176)
I0821 14:20:31.871081 21397 net.cpp:165] Memory required for data: 199901196
I0821 14:20:31.871089 21397 layer_factory.hpp:77] Creating layer bn4b3_branch2b
I0821 14:20:31.871099 21397 net.cpp:100] Creating Layer bn4b3_branch2b
I0821 14:20:31.871104 21397 net.cpp:444] bn4b3_branch2b <- res4b3_branch2b
I0821 14:20:31.871109 21397 net.cpp:405] bn4b3_branch2b -> res4b3_branch2b (in-place)
I0821 14:20:31.871384 21397 net.cpp:150] Setting up bn4b3_branch2b
I0821 14:20:31.871392 21397 net.cpp:157] Top shape: 1 256 14 14 (50176)
I0821 14:20:31.871397 21397 net.cpp:165] Memory required for data: 200101900
I0821 14:20:31.871404 21397 layer_factory.hpp:77] Creating layer scale4b3_branch2b
I0821 14:20:31.871415 21397 net.cpp:100] Creating Layer scale4b3_branch2b
I0821 14:20:31.871419 21397 net.cpp:444] scale4b3_branch2b <- res4b3_branch2b
I0821 14:20:31.871425 21397 net.cpp:405] scale4b3_branch2b -> res4b3_branch2b (in-place)
I0821 14:20:31.871484 21397 layer_factory.hpp:77] Creating layer scale4b3_branch2b
I0821 14:20:31.871634 21397 net.cpp:150] Setting up scale4b3_branch2b
I0821 14:20:31.871644 21397 net.cpp:157] Top shape: 1 256 14 14 (50176)
I0821 14:20:31.871646 21397 net.cpp:165] Memory required for data: 200302604
I0821 14:20:31.871652 21397 layer_factory.hpp:77] Creating layer res4b3_branch2b_relu
I0821 14:20:31.871659 21397 net.cpp:100] Creating Layer res4b3_branch2b_relu
I0821 14:20:31.871664 21397 net.cpp:444] res4b3_branch2b_relu <- res4b3_branch2b
I0821 14:20:31.871676 21397 net.cpp:405] res4b3_branch2b_relu -> res4b3_branch2b (in-place)
I0821 14:20:31.871937 21397 net.cpp:150] Setting up res4b3_branch2b_relu
I0821 14:20:31.871950 21397 net.cpp:157] Top shape: 1 256 14 14 (50176)
I0821 14:20:31.871954 21397 net.cpp:165] Memory required for data: 200503308
I0821 14:20:31.871958 21397 layer_factory.hpp:77] Creating layer res4b3_branch2c
I0821 14:20:31.871966 21397 net.cpp:100] Creating Layer res4b3_branch2c
I0821 14:20:31.871970 21397 net.cpp:444] res4b3_branch2c <- res4b3_branch2b
I0821 14:20:31.871979 21397 net.cpp:418] res4b3_branch2c -> res4b3_branch2c
I0821 14:20:31.874398 21397 net.cpp:150] Setting up res4b3_branch2c
I0821 14:20:31.874413 21397 net.cpp:157] Top shape: 1 1024 14 14 (200704)
I0821 14:20:31.874418 21397 net.cpp:165] Memory required for data: 201306124
I0821 14:20:31.874424 21397 layer_factory.hpp:77] Creating layer bn4b3_branch2c
I0821 14:20:31.874431 21397 net.cpp:100] Creating Layer bn4b3_branch2c
I0821 14:20:31.874435 21397 net.cpp:444] bn4b3_branch2c <- res4b3_branch2c
I0821 14:20:31.874444 21397 net.cpp:405] bn4b3_branch2c -> res4b3_branch2c (in-place)
I0821 14:20:31.874722 21397 net.cpp:150] Setting up bn4b3_branch2c
I0821 14:20:31.874729 21397 net.cpp:157] Top shape: 1 1024 14 14 (200704)
I0821 14:20:31.874733 21397 net.cpp:165] Memory required for data: 202108940
I0821 14:20:31.874743 21397 layer_factory.hpp:77] Creating layer scale4b3_branch2c
I0821 14:20:31.874750 21397 net.cpp:100] Creating Layer scale4b3_branch2c
I0821 14:20:31.874755 21397 net.cpp:444] scale4b3_branch2c <- res4b3_branch2c
I0821 14:20:31.874763 21397 net.cpp:405] scale4b3_branch2c -> res4b3_branch2c (in-place)
I0821 14:20:31.874814 21397 layer_factory.hpp:77] Creating layer scale4b3_branch2c
I0821 14:20:31.874976 21397 net.cpp:150] Setting up scale4b3_branch2c
I0821 14:20:31.874985 21397 net.cpp:157] Top shape: 1 1024 14 14 (200704)
I0821 14:20:31.874989 21397 net.cpp:165] Memory required for data: 202911756
I0821 14:20:31.874995 21397 layer_factory.hpp:77] Creating layer res4b3
I0821 14:20:31.875001 21397 net.cpp:100] Creating Layer res4b3
I0821 14:20:31.875006 21397 net.cpp:444] res4b3 <- res4b2_res4b2_relu_0_split_1
I0821 14:20:31.875010 21397 net.cpp:444] res4b3 <- res4b3_branch2c
I0821 14:20:31.875018 21397 net.cpp:418] res4b3 -> res4b3
I0821 14:20:31.875052 21397 net.cpp:150] Setting up res4b3
I0821 14:20:31.875062 21397 net.cpp:157] Top shape: 1 1024 14 14 (200704)
I0821 14:20:31.875066 21397 net.cpp:165] Memory required for data: 203714572
I0821 14:20:31.875069 21397 layer_factory.hpp:77] Creating layer res4b3_relu
I0821 14:20:31.875075 21397 net.cpp:100] Creating Layer res4b3_relu
I0821 14:20:31.875079 21397 net.cpp:444] res4b3_relu <- res4b3
I0821 14:20:31.875084 21397 net.cpp:405] res4b3_relu -> res4b3 (in-place)
I0821 14:20:31.875566 21397 net.cpp:150] Setting up res4b3_relu
I0821 14:20:31.875579 21397 net.cpp:157] Top shape: 1 1024 14 14 (200704)
I0821 14:20:31.875583 21397 net.cpp:165] Memory required for data: 204517388
I0821 14:20:31.875588 21397 layer_factory.hpp:77] Creating layer res4b3_res4b3_relu_0_split
I0821 14:20:31.875597 21397 net.cpp:100] Creating Layer res4b3_res4b3_relu_0_split
I0821 14:20:31.875602 21397 net.cpp:444] res4b3_res4b3_relu_0_split <- res4b3
I0821 14:20:31.875608 21397 net.cpp:418] res4b3_res4b3_relu_0_split -> res4b3_res4b3_relu_0_split_0
I0821 14:20:31.875617 21397 net.cpp:418] res4b3_res4b3_relu_0_split -> res4b3_res4b3_relu_0_split_1
I0821 14:20:31.875679 21397 net.cpp:150] Setting up res4b3_res4b3_relu_0_split
I0821 14:20:31.875685 21397 net.cpp:157] Top shape: 1 1024 14 14 (200704)
I0821 14:20:31.875689 21397 net.cpp:157] Top shape: 1 1024 14 14 (200704)
I0821 14:20:31.875692 21397 net.cpp:165] Memory required for data: 206123020
I0821 14:20:31.875696 21397 layer_factory.hpp:77] Creating layer res4b4_branch2a
I0821 14:20:31.875706 21397 net.cpp:100] Creating Layer res4b4_branch2a
I0821 14:20:31.875710 21397 net.cpp:444] res4b4_branch2a <- res4b3_res4b3_relu_0_split_0
I0821 14:20:31.875718 21397 net.cpp:418] res4b4_branch2a -> res4b4_branch2a
I0821 14:20:31.877868 21397 net.cpp:150] Setting up res4b4_branch2a
I0821 14:20:31.877898 21397 net.cpp:157] Top shape: 1 256 14 14 (50176)
I0821 14:20:31.877902 21397 net.cpp:165] Memory required for data: 206323724
I0821 14:20:31.877909 21397 layer_factory.hpp:77] Creating layer bn4b4_branch2a
I0821 14:20:31.877916 21397 net.cpp:100] Creating Layer bn4b4_branch2a
I0821 14:20:31.877921 21397 net.cpp:444] bn4b4_branch2a <- res4b4_branch2a
I0821 14:20:31.877928 21397 net.cpp:405] bn4b4_branch2a -> res4b4_branch2a (in-place)
I0821 14:20:31.878206 21397 net.cpp:150] Setting up bn4b4_branch2a
I0821 14:20:31.878214 21397 net.cpp:157] Top shape: 1 256 14 14 (50176)
I0821 14:20:31.878218 21397 net.cpp:165] Memory required for data: 206524428
I0821 14:20:31.878226 21397 layer_factory.hpp:77] Creating layer scale4b4_branch2a
I0821 14:20:31.878234 21397 net.cpp:100] Creating Layer scale4b4_branch2a
I0821 14:20:31.878238 21397 net.cpp:444] scale4b4_branch2a <- res4b4_branch2a
I0821 14:20:31.878257 21397 net.cpp:405] scale4b4_branch2a -> res4b4_branch2a (in-place)
I0821 14:20:31.878322 21397 layer_factory.hpp:77] Creating layer scale4b4_branch2a
I0821 14:20:31.878474 21397 net.cpp:150] Setting up scale4b4_branch2a
I0821 14:20:31.878484 21397 net.cpp:157] Top shape: 1 256 14 14 (50176)
I0821 14:20:31.878486 21397 net.cpp:165] Memory required for data: 206725132
I0821 14:20:31.878494 21397 layer_factory.hpp:77] Creating layer res4b4_branch2a_relu
I0821 14:20:31.878501 21397 net.cpp:100] Creating Layer res4b4_branch2a_relu
I0821 14:20:31.878505 21397 net.cpp:444] res4b4_branch2a_relu <- res4b4_branch2a
I0821 14:20:31.878510 21397 net.cpp:405] res4b4_branch2a_relu -> res4b4_branch2a (in-place)
I0821 14:20:31.878978 21397 net.cpp:150] Setting up res4b4_branch2a_relu
I0821 14:20:31.878993 21397 net.cpp:157] Top shape: 1 256 14 14 (50176)
I0821 14:20:31.878995 21397 net.cpp:165] Memory required for data: 206925836
I0821 14:20:31.878999 21397 layer_factory.hpp:77] Creating layer res4b4_branch2b
I0821 14:20:31.879010 21397 net.cpp:100] Creating Layer res4b4_branch2b
I0821 14:20:31.879015 21397 net.cpp:444] res4b4_branch2b <- res4b4_branch2a
I0821 14:20:31.879024 21397 net.cpp:418] res4b4_branch2b -> res4b4_branch2b
I0821 14:20:31.882664 21397 net.cpp:150] Setting up res4b4_branch2b
I0821 14:20:31.882681 21397 net.cpp:157] Top shape: 1 256 14 14 (50176)
I0821 14:20:31.882685 21397 net.cpp:165] Memory required for data: 207126540
I0821 14:20:31.882692 21397 layer_factory.hpp:77] Creating layer bn4b4_branch2b
I0821 14:20:31.882702 21397 net.cpp:100] Creating Layer bn4b4_branch2b
I0821 14:20:31.882706 21397 net.cpp:444] bn4b4_branch2b <- res4b4_branch2b
I0821 14:20:31.882712 21397 net.cpp:405] bn4b4_branch2b -> res4b4_branch2b (in-place)
I0821 14:20:31.882998 21397 net.cpp:150] Setting up bn4b4_branch2b
I0821 14:20:31.883007 21397 net.cpp:157] Top shape: 1 256 14 14 (50176)
I0821 14:20:31.883010 21397 net.cpp:165] Memory required for data: 207327244
I0821 14:20:31.883019 21397 layer_factory.hpp:77] Creating layer scale4b4_branch2b
I0821 14:20:31.883026 21397 net.cpp:100] Creating Layer scale4b4_branch2b
I0821 14:20:31.883030 21397 net.cpp:444] scale4b4_branch2b <- res4b4_branch2b
I0821 14:20:31.883035 21397 net.cpp:405] scale4b4_branch2b -> res4b4_branch2b (in-place)
I0821 14:20:31.883105 21397 layer_factory.hpp:77] Creating layer scale4b4_branch2b
I0821 14:20:31.883260 21397 net.cpp:150] Setting up scale4b4_branch2b
I0821 14:20:31.883268 21397 net.cpp:157] Top shape: 1 256 14 14 (50176)
I0821 14:20:31.883271 21397 net.cpp:165] Memory required for data: 207527948
I0821 14:20:31.883278 21397 layer_factory.hpp:77] Creating layer res4b4_branch2b_relu
I0821 14:20:31.883286 21397 net.cpp:100] Creating Layer res4b4_branch2b_relu
I0821 14:20:31.883291 21397 net.cpp:444] res4b4_branch2b_relu <- res4b4_branch2b
I0821 14:20:31.883296 21397 net.cpp:405] res4b4_branch2b_relu -> res4b4_branch2b (in-place)
I0821 14:20:31.883581 21397 net.cpp:150] Setting up res4b4_branch2b_relu
I0821 14:20:31.883594 21397 net.cpp:157] Top shape: 1 256 14 14 (50176)
I0821 14:20:31.883602 21397 net.cpp:165] Memory required for data: 207728652
I0821 14:20:31.883607 21397 layer_factory.hpp:77] Creating layer res4b4_branch2c
I0821 14:20:31.883617 21397 net.cpp:100] Creating Layer res4b4_branch2c
I0821 14:20:31.883621 21397 net.cpp:444] res4b4_branch2c <- res4b4_branch2b
I0821 14:20:31.883630 21397 net.cpp:418] res4b4_branch2c -> res4b4_branch2c
I0821 14:20:31.886096 21397 net.cpp:150] Setting up res4b4_branch2c
I0821 14:20:31.886112 21397 net.cpp:157] Top shape: 1 1024 14 14 (200704)
I0821 14:20:31.886116 21397 net.cpp:165] Memory required for data: 208531468
I0821 14:20:31.886123 21397 layer_factory.hpp:77] Creating layer bn4b4_branch2c
I0821 14:20:31.886132 21397 net.cpp:100] Creating Layer bn4b4_branch2c
I0821 14:20:31.886137 21397 net.cpp:444] bn4b4_branch2c <- res4b4_branch2c
I0821 14:20:31.886145 21397 net.cpp:405] bn4b4_branch2c -> res4b4_branch2c (in-place)
I0821 14:20:31.886421 21397 net.cpp:150] Setting up bn4b4_branch2c
I0821 14:20:31.886430 21397 net.cpp:157] Top shape: 1 1024 14 14 (200704)
I0821 14:20:31.886433 21397 net.cpp:165] Memory required for data: 209334284
I0821 14:20:31.886443 21397 layer_factory.hpp:77] Creating layer scale4b4_branch2c
I0821 14:20:31.886451 21397 net.cpp:100] Creating Layer scale4b4_branch2c
I0821 14:20:31.886456 21397 net.cpp:444] scale4b4_branch2c <- res4b4_branch2c
I0821 14:20:31.886463 21397 net.cpp:405] scale4b4_branch2c -> res4b4_branch2c (in-place)
I0821 14:20:31.886526 21397 layer_factory.hpp:77] Creating layer scale4b4_branch2c
I0821 14:20:31.886699 21397 net.cpp:150] Setting up scale4b4_branch2c
I0821 14:20:31.886708 21397 net.cpp:157] Top shape: 1 1024 14 14 (200704)
I0821 14:20:31.886711 21397 net.cpp:165] Memory required for data: 210137100
I0821 14:20:31.886718 21397 layer_factory.hpp:77] Creating layer res4b4
I0821 14:20:31.886724 21397 net.cpp:100] Creating Layer res4b4
I0821 14:20:31.886729 21397 net.cpp:444] res4b4 <- res4b3_res4b3_relu_0_split_1
I0821 14:20:31.886734 21397 net.cpp:444] res4b4 <- res4b4_branch2c
I0821 14:20:31.886746 21397 net.cpp:418] res4b4 -> res4b4
I0821 14:20:31.886785 21397 net.cpp:150] Setting up res4b4
I0821 14:20:31.886793 21397 net.cpp:157] Top shape: 1 1024 14 14 (200704)
I0821 14:20:31.886797 21397 net.cpp:165] Memory required for data: 210939916
I0821 14:20:31.886801 21397 layer_factory.hpp:77] Creating layer res4b4_relu
I0821 14:20:31.886806 21397 net.cpp:100] Creating Layer res4b4_relu
I0821 14:20:31.886811 21397 net.cpp:444] res4b4_relu <- res4b4
I0821 14:20:31.886818 21397 net.cpp:405] res4b4_relu -> res4b4 (in-place)
I0821 14:20:31.887336 21397 net.cpp:150] Setting up res4b4_relu
I0821 14:20:31.887351 21397 net.cpp:157] Top shape: 1 1024 14 14 (200704)
I0821 14:20:31.887356 21397 net.cpp:165] Memory required for data: 211742732
I0821 14:20:31.887362 21397 layer_factory.hpp:77] Creating layer res4b4_res4b4_relu_0_split
I0821 14:20:31.887368 21397 net.cpp:100] Creating Layer res4b4_res4b4_relu_0_split
I0821 14:20:31.887372 21397 net.cpp:444] res4b4_res4b4_relu_0_split <- res4b4
I0821 14:20:31.887378 21397 net.cpp:418] res4b4_res4b4_relu_0_split -> res4b4_res4b4_relu_0_split_0
I0821 14:20:31.887389 21397 net.cpp:418] res4b4_res4b4_relu_0_split -> res4b4_res4b4_relu_0_split_1
I0821 14:20:31.887450 21397 net.cpp:150] Setting up res4b4_res4b4_relu_0_split
I0821 14:20:31.887457 21397 net.cpp:157] Top shape: 1 1024 14 14 (200704)
I0821 14:20:31.887461 21397 net.cpp:157] Top shape: 1 1024 14 14 (200704)
I0821 14:20:31.887465 21397 net.cpp:165] Memory required for data: 213348364
I0821 14:20:31.887468 21397 layer_factory.hpp:77] Creating layer res4b5_branch2a
I0821 14:20:31.887478 21397 net.cpp:100] Creating Layer res4b5_branch2a
I0821 14:20:31.887482 21397 net.cpp:444] res4b5_branch2a <- res4b4_res4b4_relu_0_split_0
I0821 14:20:31.887490 21397 net.cpp:418] res4b5_branch2a -> res4b5_branch2a
I0821 14:20:31.889669 21397 net.cpp:150] Setting up res4b5_branch2a
I0821 14:20:31.889685 21397 net.cpp:157] Top shape: 1 256 14 14 (50176)
I0821 14:20:31.889689 21397 net.cpp:165] Memory required for data: 213549068
I0821 14:20:31.889703 21397 layer_factory.hpp:77] Creating layer bn4b5_branch2a
I0821 14:20:31.889726 21397 net.cpp:100] Creating Layer bn4b5_branch2a
I0821 14:20:31.889732 21397 net.cpp:444] bn4b5_branch2a <- res4b5_branch2a
I0821 14:20:31.889739 21397 net.cpp:405] bn4b5_branch2a -> res4b5_branch2a (in-place)
I0821 14:20:31.890071 21397 net.cpp:150] Setting up bn4b5_branch2a
I0821 14:20:31.890080 21397 net.cpp:157] Top shape: 1 256 14 14 (50176)
I0821 14:20:31.890084 21397 net.cpp:165] Memory required for data: 213749772
I0821 14:20:31.890091 21397 layer_factory.hpp:77] Creating layer scale4b5_branch2a
I0821 14:20:31.890100 21397 net.cpp:100] Creating Layer scale4b5_branch2a
I0821 14:20:31.890105 21397 net.cpp:444] scale4b5_branch2a <- res4b5_branch2a
I0821 14:20:31.890112 21397 net.cpp:405] scale4b5_branch2a -> res4b5_branch2a (in-place)
I0821 14:20:31.890170 21397 layer_factory.hpp:77] Creating layer scale4b5_branch2a
I0821 14:20:31.890327 21397 net.cpp:150] Setting up scale4b5_branch2a
I0821 14:20:31.890336 21397 net.cpp:157] Top shape: 1 256 14 14 (50176)
I0821 14:20:31.890338 21397 net.cpp:165] Memory required for data: 213950476
I0821 14:20:31.890345 21397 layer_factory.hpp:77] Creating layer res4b5_branch2a_relu
I0821 14:20:31.890352 21397 net.cpp:100] Creating Layer res4b5_branch2a_relu
I0821 14:20:31.890355 21397 net.cpp:444] res4b5_branch2a_relu <- res4b5_branch2a
I0821 14:20:31.890362 21397 net.cpp:405] res4b5_branch2a_relu -> res4b5_branch2a (in-place)
I0821 14:20:31.890836 21397 net.cpp:150] Setting up res4b5_branch2a_relu
I0821 14:20:31.890851 21397 net.cpp:157] Top shape: 1 256 14 14 (50176)
I0821 14:20:31.890854 21397 net.cpp:165] Memory required for data: 214151180
I0821 14:20:31.890858 21397 layer_factory.hpp:77] Creating layer res4b5_branch2b
I0821 14:20:31.890867 21397 net.cpp:100] Creating Layer res4b5_branch2b
I0821 14:20:31.890872 21397 net.cpp:444] res4b5_branch2b <- res4b5_branch2a
I0821 14:20:31.890879 21397 net.cpp:418] res4b5_branch2b -> res4b5_branch2b
I0821 14:20:31.894325 21397 net.cpp:150] Setting up res4b5_branch2b
I0821 14:20:31.894342 21397 net.cpp:157] Top shape: 1 256 14 14 (50176)
I0821 14:20:31.894347 21397 net.cpp:165] Memory required for data: 214351884
I0821 14:20:31.894353 21397 layer_factory.hpp:77] Creating layer bn4b5_branch2b
I0821 14:20:31.894361 21397 net.cpp:100] Creating Layer bn4b5_branch2b
I0821 14:20:31.894367 21397 net.cpp:444] bn4b5_branch2b <- res4b5_branch2b
I0821 14:20:31.894373 21397 net.cpp:405] bn4b5_branch2b -> res4b5_branch2b (in-place)
I0821 14:20:31.894670 21397 net.cpp:150] Setting up bn4b5_branch2b
I0821 14:20:31.894678 21397 net.cpp:157] Top shape: 1 256 14 14 (50176)
I0821 14:20:31.894682 21397 net.cpp:165] Memory required for data: 214552588
I0821 14:20:31.894692 21397 layer_factory.hpp:77] Creating layer scale4b5_branch2b
I0821 14:20:31.894702 21397 net.cpp:100] Creating Layer scale4b5_branch2b
I0821 14:20:31.894706 21397 net.cpp:444] scale4b5_branch2b <- res4b5_branch2b
I0821 14:20:31.894712 21397 net.cpp:405] scale4b5_branch2b -> res4b5_branch2b (in-place)
I0821 14:20:31.894785 21397 layer_factory.hpp:77] Creating layer scale4b5_branch2b
I0821 14:20:31.894945 21397 net.cpp:150] Setting up scale4b5_branch2b
I0821 14:20:31.894953 21397 net.cpp:157] Top shape: 1 256 14 14 (50176)
I0821 14:20:31.894968 21397 net.cpp:165] Memory required for data: 214753292
I0821 14:20:31.894975 21397 layer_factory.hpp:77] Creating layer res4b5_branch2b_relu
I0821 14:20:31.894981 21397 net.cpp:100] Creating Layer res4b5_branch2b_relu
I0821 14:20:31.894985 21397 net.cpp:444] res4b5_branch2b_relu <- res4b5_branch2b
I0821 14:20:31.894992 21397 net.cpp:405] res4b5_branch2b_relu -> res4b5_branch2b (in-place)
I0821 14:20:31.895238 21397 net.cpp:150] Setting up res4b5_branch2b_relu
I0821 14:20:31.895256 21397 net.cpp:157] Top shape: 1 256 14 14 (50176)
I0821 14:20:31.895261 21397 net.cpp:165] Memory required for data: 214953996
I0821 14:20:31.895264 21397 layer_factory.hpp:77] Creating layer res4b5_branch2c
I0821 14:20:31.895272 21397 net.cpp:100] Creating Layer res4b5_branch2c
I0821 14:20:31.895282 21397 net.cpp:444] res4b5_branch2c <- res4b5_branch2b
I0821 14:20:31.895292 21397 net.cpp:418] res4b5_branch2c -> res4b5_branch2c
I0821 14:20:31.897711 21397 net.cpp:150] Setting up res4b5_branch2c
I0821 14:20:31.897728 21397 net.cpp:157] Top shape: 1 1024 14 14 (200704)
I0821 14:20:31.897732 21397 net.cpp:165] Memory required for data: 215756812
I0821 14:20:31.897739 21397 layer_factory.hpp:77] Creating layer bn4b5_branch2c
I0821 14:20:31.897748 21397 net.cpp:100] Creating Layer bn4b5_branch2c
I0821 14:20:31.897753 21397 net.cpp:444] bn4b5_branch2c <- res4b5_branch2c
I0821 14:20:31.897760 21397 net.cpp:405] bn4b5_branch2c -> res4b5_branch2c (in-place)
I0821 14:20:31.898036 21397 net.cpp:150] Setting up bn4b5_branch2c
I0821 14:20:31.898044 21397 net.cpp:157] Top shape: 1 1024 14 14 (200704)
I0821 14:20:31.898047 21397 net.cpp:165] Memory required for data: 216559628
I0821 14:20:31.898056 21397 layer_factory.hpp:77] Creating layer scale4b5_branch2c
I0821 14:20:31.898062 21397 net.cpp:100] Creating Layer scale4b5_branch2c
I0821 14:20:31.898066 21397 net.cpp:444] scale4b5_branch2c <- res4b5_branch2c
I0821 14:20:31.898073 21397 net.cpp:405] scale4b5_branch2c -> res4b5_branch2c (in-place)
I0821 14:20:31.898124 21397 layer_factory.hpp:77] Creating layer scale4b5_branch2c
I0821 14:20:31.898300 21397 net.cpp:150] Setting up scale4b5_branch2c
I0821 14:20:31.898308 21397 net.cpp:157] Top shape: 1 1024 14 14 (200704)
I0821 14:20:31.898313 21397 net.cpp:165] Memory required for data: 217362444
I0821 14:20:31.898344 21397 layer_factory.hpp:77] Creating layer res4b5
I0821 14:20:31.898352 21397 net.cpp:100] Creating Layer res4b5
I0821 14:20:31.898357 21397 net.cpp:444] res4b5 <- res4b4_res4b4_relu_0_split_1
I0821 14:20:31.898362 21397 net.cpp:444] res4b5 <- res4b5_branch2c
I0821 14:20:31.898367 21397 net.cpp:418] res4b5 -> res4b5
I0821 14:20:31.898406 21397 net.cpp:150] Setting up res4b5
I0821 14:20:31.898413 21397 net.cpp:157] Top shape: 1 1024 14 14 (200704)
I0821 14:20:31.898416 21397 net.cpp:165] Memory required for data: 218165260
I0821 14:20:31.898421 21397 layer_factory.hpp:77] Creating layer res4b5_relu
I0821 14:20:31.898427 21397 net.cpp:100] Creating Layer res4b5_relu
I0821 14:20:31.898430 21397 net.cpp:444] res4b5_relu <- res4b5
I0821 14:20:31.898435 21397 net.cpp:405] res4b5_relu -> res4b5 (in-place)
I0821 14:20:31.898950 21397 net.cpp:150] Setting up res4b5_relu
I0821 14:20:31.898963 21397 net.cpp:157] Top shape: 1 1024 14 14 (200704)
I0821 14:20:31.898967 21397 net.cpp:165] Memory required for data: 218968076
I0821 14:20:31.898972 21397 layer_factory.hpp:77] Creating layer res4b5_res4b5_relu_0_split
I0821 14:20:31.898980 21397 net.cpp:100] Creating Layer res4b5_res4b5_relu_0_split
I0821 14:20:31.898986 21397 net.cpp:444] res4b5_res4b5_relu_0_split <- res4b5
I0821 14:20:31.898993 21397 net.cpp:418] res4b5_res4b5_relu_0_split -> res4b5_res4b5_relu_0_split_0
I0821 14:20:31.899001 21397 net.cpp:418] res4b5_res4b5_relu_0_split -> res4b5_res4b5_relu_0_split_1
I0821 14:20:31.899075 21397 net.cpp:150] Setting up res4b5_res4b5_relu_0_split
I0821 14:20:31.899081 21397 net.cpp:157] Top shape: 1 1024 14 14 (200704)
I0821 14:20:31.899085 21397 net.cpp:157] Top shape: 1 1024 14 14 (200704)
I0821 14:20:31.899088 21397 net.cpp:165] Memory required for data: 220573708
I0821 14:20:31.899091 21397 layer_factory.hpp:77] Creating layer res4b6_branch2a
I0821 14:20:31.899101 21397 net.cpp:100] Creating Layer res4b6_branch2a
I0821 14:20:31.899106 21397 net.cpp:444] res4b6_branch2a <- res4b5_res4b5_relu_0_split_0
I0821 14:20:31.899112 21397 net.cpp:418] res4b6_branch2a -> res4b6_branch2a
I0821 14:20:31.901288 21397 net.cpp:150] Setting up res4b6_branch2a
I0821 14:20:31.901314 21397 net.cpp:157] Top shape: 1 256 14 14 (50176)
I0821 14:20:31.901317 21397 net.cpp:165] Memory required for data: 220774412
I0821 14:20:31.901324 21397 layer_factory.hpp:77] Creating layer bn4b6_branch2a
I0821 14:20:31.901331 21397 net.cpp:100] Creating Layer bn4b6_branch2a
I0821 14:20:31.901335 21397 net.cpp:444] bn4b6_branch2a <- res4b6_branch2a
I0821 14:20:31.901350 21397 net.cpp:405] bn4b6_branch2a -> res4b6_branch2a (in-place)
I0821 14:20:31.901629 21397 net.cpp:150] Setting up bn4b6_branch2a
I0821 14:20:31.901638 21397 net.cpp:157] Top shape: 1 256 14 14 (50176)
I0821 14:20:31.901641 21397 net.cpp:165] Memory required for data: 220975116
I0821 14:20:31.901649 21397 layer_factory.hpp:77] Creating layer scale4b6_branch2a
I0821 14:20:31.901656 21397 net.cpp:100] Creating Layer scale4b6_branch2a
I0821 14:20:31.901660 21397 net.cpp:444] scale4b6_branch2a <- res4b6_branch2a
I0821 14:20:31.901667 21397 net.cpp:405] scale4b6_branch2a -> res4b6_branch2a (in-place)
I0821 14:20:31.901721 21397 layer_factory.hpp:77] Creating layer scale4b6_branch2a
I0821 14:20:31.901892 21397 net.cpp:150] Setting up scale4b6_branch2a
I0821 14:20:31.901902 21397 net.cpp:157] Top shape: 1 256 14 14 (50176)
I0821 14:20:31.901906 21397 net.cpp:165] Memory required for data: 221175820
I0821 14:20:31.901914 21397 layer_factory.hpp:77] Creating layer res4b6_branch2a_relu
I0821 14:20:31.901921 21397 net.cpp:100] Creating Layer res4b6_branch2a_relu
I0821 14:20:31.901926 21397 net.cpp:444] res4b6_branch2a_relu <- res4b6_branch2a
I0821 14:20:31.901931 21397 net.cpp:405] res4b6_branch2a_relu -> res4b6_branch2a (in-place)
I0821 14:20:31.902451 21397 net.cpp:150] Setting up res4b6_branch2a_relu
I0821 14:20:31.902465 21397 net.cpp:157] Top shape: 1 256 14 14 (50176)
I0821 14:20:31.902469 21397 net.cpp:165] Memory required for data: 221376524
I0821 14:20:31.902473 21397 layer_factory.hpp:77] Creating layer res4b6_branch2b
I0821 14:20:31.902494 21397 net.cpp:100] Creating Layer res4b6_branch2b
I0821 14:20:31.902499 21397 net.cpp:444] res4b6_branch2b <- res4b6_branch2a
I0821 14:20:31.902508 21397 net.cpp:418] res4b6_branch2b -> res4b6_branch2b
I0821 14:20:31.905967 21397 net.cpp:150] Setting up res4b6_branch2b
I0821 14:20:31.905983 21397 net.cpp:157] Top shape: 1 256 14 14 (50176)
I0821 14:20:31.905987 21397 net.cpp:165] Memory required for data: 221577228
I0821 14:20:31.905993 21397 layer_factory.hpp:77] Creating layer bn4b6_branch2b
I0821 14:20:31.906003 21397 net.cpp:100] Creating Layer bn4b6_branch2b
I0821 14:20:31.906008 21397 net.cpp:444] bn4b6_branch2b <- res4b6_branch2b
I0821 14:20:31.906015 21397 net.cpp:405] bn4b6_branch2b -> res4b6_branch2b (in-place)
I0821 14:20:31.906311 21397 net.cpp:150] Setting up bn4b6_branch2b
I0821 14:20:31.906319 21397 net.cpp:157] Top shape: 1 256 14 14 (50176)
I0821 14:20:31.906323 21397 net.cpp:165] Memory required for data: 221777932
I0821 14:20:31.906332 21397 layer_factory.hpp:77] Creating layer scale4b6_branch2b
I0821 14:20:31.906342 21397 net.cpp:100] Creating Layer scale4b6_branch2b
I0821 14:20:31.906347 21397 net.cpp:444] scale4b6_branch2b <- res4b6_branch2b
I0821 14:20:31.906352 21397 net.cpp:405] scale4b6_branch2b -> res4b6_branch2b (in-place)
I0821 14:20:31.906412 21397 layer_factory.hpp:77] Creating layer scale4b6_branch2b
I0821 14:20:31.906574 21397 net.cpp:150] Setting up scale4b6_branch2b
I0821 14:20:31.906582 21397 net.cpp:157] Top shape: 1 256 14 14 (50176)
I0821 14:20:31.906585 21397 net.cpp:165] Memory required for data: 221978636
I0821 14:20:31.906591 21397 layer_factory.hpp:77] Creating layer res4b6_branch2b_relu
I0821 14:20:31.906600 21397 net.cpp:100] Creating Layer res4b6_branch2b_relu
I0821 14:20:31.906615 21397 net.cpp:444] res4b6_branch2b_relu <- res4b6_branch2b
I0821 14:20:31.906620 21397 net.cpp:405] res4b6_branch2b_relu -> res4b6_branch2b (in-place)
I0821 14:20:31.906883 21397 net.cpp:150] Setting up res4b6_branch2b_relu
I0821 14:20:31.906894 21397 net.cpp:157] Top shape: 1 256 14 14 (50176)
I0821 14:20:31.906898 21397 net.cpp:165] Memory required for data: 222179340
I0821 14:20:31.906903 21397 layer_factory.hpp:77] Creating layer res4b6_branch2c
I0821 14:20:31.906914 21397 net.cpp:100] Creating Layer res4b6_branch2c
I0821 14:20:31.906919 21397 net.cpp:444] res4b6_branch2c <- res4b6_branch2b
I0821 14:20:31.906927 21397 net.cpp:418] res4b6_branch2c -> res4b6_branch2c
I0821 14:20:31.909440 21397 net.cpp:150] Setting up res4b6_branch2c
I0821 14:20:31.909461 21397 net.cpp:157] Top shape: 1 1024 14 14 (200704)
I0821 14:20:31.909466 21397 net.cpp:165] Memory required for data: 222982156
I0821 14:20:31.909471 21397 layer_factory.hpp:77] Creating layer bn4b6_branch2c
I0821 14:20:31.909482 21397 net.cpp:100] Creating Layer bn4b6_branch2c
I0821 14:20:31.909487 21397 net.cpp:444] bn4b6_branch2c <- res4b6_branch2c
I0821 14:20:31.909494 21397 net.cpp:405] bn4b6_branch2c -> res4b6_branch2c (in-place)
I0821 14:20:31.909798 21397 net.cpp:150] Setting up bn4b6_branch2c
I0821 14:20:31.909807 21397 net.cpp:157] Top shape: 1 1024 14 14 (200704)
I0821 14:20:31.909811 21397 net.cpp:165] Memory required for data: 223784972
I0821 14:20:31.909819 21397 layer_factory.hpp:77] Creating layer scale4b6_branch2c
I0821 14:20:31.909826 21397 net.cpp:100] Creating Layer scale4b6_branch2c
I0821 14:20:31.909832 21397 net.cpp:444] scale4b6_branch2c <- res4b6_branch2c
I0821 14:20:31.909837 21397 net.cpp:405] scale4b6_branch2c -> res4b6_branch2c (in-place)
I0821 14:20:31.909894 21397 layer_factory.hpp:77] Creating layer scale4b6_branch2c
I0821 14:20:31.910079 21397 net.cpp:150] Setting up scale4b6_branch2c
I0821 14:20:31.910087 21397 net.cpp:157] Top shape: 1 1024 14 14 (200704)
I0821 14:20:31.910090 21397 net.cpp:165] Memory required for data: 224587788
I0821 14:20:31.910096 21397 layer_factory.hpp:77] Creating layer res4b6
I0821 14:20:31.910104 21397 net.cpp:100] Creating Layer res4b6
I0821 14:20:31.910109 21397 net.cpp:444] res4b6 <- res4b5_res4b5_relu_0_split_1
I0821 14:20:31.910115 21397 net.cpp:444] res4b6 <- res4b6_branch2c
I0821 14:20:31.910120 21397 net.cpp:418] res4b6 -> res4b6
I0821 14:20:31.910159 21397 net.cpp:150] Setting up res4b6
I0821 14:20:31.910166 21397 net.cpp:157] Top shape: 1 1024 14 14 (200704)
I0821 14:20:31.910169 21397 net.cpp:165] Memory required for data: 225390604
I0821 14:20:31.910173 21397 layer_factory.hpp:77] Creating layer res4b6_relu
I0821 14:20:31.910178 21397 net.cpp:100] Creating Layer res4b6_relu
I0821 14:20:31.910182 21397 net.cpp:444] res4b6_relu <- res4b6
I0821 14:20:31.910200 21397 net.cpp:405] res4b6_relu -> res4b6 (in-place)
I0821 14:20:31.910699 21397 net.cpp:150] Setting up res4b6_relu
I0821 14:20:31.910714 21397 net.cpp:157] Top shape: 1 1024 14 14 (200704)
I0821 14:20:31.910717 21397 net.cpp:165] Memory required for data: 226193420
I0821 14:20:31.910723 21397 layer_factory.hpp:77] Creating layer res4b6_res4b6_relu_0_split
I0821 14:20:31.910732 21397 net.cpp:100] Creating Layer res4b6_res4b6_relu_0_split
I0821 14:20:31.910737 21397 net.cpp:444] res4b6_res4b6_relu_0_split <- res4b6
I0821 14:20:31.910744 21397 net.cpp:418] res4b6_res4b6_relu_0_split -> res4b6_res4b6_relu_0_split_0
I0821 14:20:31.910753 21397 net.cpp:418] res4b6_res4b6_relu_0_split -> res4b6_res4b6_relu_0_split_1
I0821 14:20:31.910817 21397 net.cpp:150] Setting up res4b6_res4b6_relu_0_split
I0821 14:20:31.910826 21397 net.cpp:157] Top shape: 1 1024 14 14 (200704)
I0821 14:20:31.910842 21397 net.cpp:157] Top shape: 1 1024 14 14 (200704)
I0821 14:20:31.910845 21397 net.cpp:165] Memory required for data: 227799052
I0821 14:20:31.910850 21397 layer_factory.hpp:77] Creating layer res4b7_branch2a
I0821 14:20:31.910857 21397 net.cpp:100] Creating Layer res4b7_branch2a
I0821 14:20:31.910861 21397 net.cpp:444] res4b7_branch2a <- res4b6_res4b6_relu_0_split_0
…
I0821 14:20:32.119469 21397 net.cpp:150] Setting up scale4b21_branch2b
I0821 14:20:32.119477 21397 net.cpp:157] Top shape: 1 256 14 14 (50176)
I0821 14:20:32.119482 21397 net.cpp:165] Memory required for data: 330358796
I0821 14:20:32.119488 21397 layer_factory.hpp:77] Creating layer res4b21_branch2b_relu
I0821 14:20:32.119493 21397 net.cpp:100] Creating Layer res4b21_branch2b_relu
I0821 14:20:32.119498 21397 net.cpp:444] res4b21_branch2b_relu <- res4b21_branch2b
I0821 14:20:32.119505 21397 net.cpp:405] res4b21_branch2b_relu -> res4b21_branch2b (in-place)
I0821 14:20:32.119801 21397 net.cpp:150] Setting up res4b21_branch2b_relu
I0821 14:20:32.119812 21397 net.cpp:157] Top shape: 1 256 14 14 (50176)
I0821 14:20:32.119814 21397 net.cpp:165] Memory required for data: 330559500
I0821 14:20:32.119818 21397 layer_factory.hpp:77] Creating layer res4b21_branch2c
I0821 14:20:32.119829 21397 net.cpp:100] Creating Layer res4b21_branch2c
I0821 14:20:32.119834 21397 net.cpp:444] res4b21_branch2c <- res4b21_branch2b
I0821 14:20:32.119843 21397 net.cpp:418] res4b21_branch2c -> res4b21_branch2c
I0821 14:20:32.122370 21397 net.cpp:150] Setting up res4b21_branch2c
I0821 14:20:32.122385 21397 net.cpp:157] Top shape: 1 1024 14 14 (200704)
I0821 14:20:32.122390 21397 net.cpp:165] Memory required for data: 331362316
I0821 14:20:32.122395 21397 layer_factory.hpp:77] Creating layer bn4b21_branch2c
I0821 14:20:32.122407 21397 net.cpp:100] Creating Layer bn4b21_branch2c
I0821 14:20:32.122412 21397 net.cpp:444] bn4b21_branch2c <- res4b21_branch2c
I0821 14:20:32.122419 21397 net.cpp:405] bn4b21_branch2c -> res4b21_branch2c (in-place)
I0821 14:20:32.122714 21397 net.cpp:150] Setting up bn4b21_branch2c
I0821 14:20:32.122723 21397 net.cpp:157] Top shape: 1 1024 14 14 (200704)
I0821 14:20:32.122727 21397 net.cpp:165] Memory required for data: 332165132
I0821 14:20:32.122735 21397 layer_factory.hpp:77] Creating layer scale4b21_branch2c
I0821 14:20:32.122742 21397 net.cpp:100] Creating Layer scale4b21_branch2c
I0821 14:20:32.122747 21397 net.cpp:444] scale4b21_branch2c <- res4b21_branch2c
I0821 14:20:32.122752 21397 net.cpp:405] scale4b21_branch2c -> res4b21_branch2c (in-place)
I0821 14:20:32.122815 21397 layer_factory.hpp:77] Creating layer scale4b21_branch2c
I0821 14:20:32.122983 21397 net.cpp:150] Setting up scale4b21_branch2c
I0821 14:20:32.122993 21397 net.cpp:157] Top shape: 1 1024 14 14 (200704)
I0821 14:20:32.122997 21397 net.cpp:165] Memory required for data: 332967948
I0821 14:20:32.123003 21397 layer_factory.hpp:77] Creating layer res4b21
I0821 14:20:32.123009 21397 net.cpp:100] Creating Layer res4b21
I0821 14:20:32.123014 21397 net.cpp:444] res4b21 <- res4b20_res4b20_relu_0_split_1
I0821 14:20:32.123019 21397 net.cpp:444] res4b21 <- res4b21_branch2c
I0821 14:20:32.123025 21397 net.cpp:418] res4b21 -> res4b21
I0821 14:20:32.123064 21397 net.cpp:150] Setting up res4b21
I0821 14:20:32.123070 21397 net.cpp:157] Top shape: 1 1024 14 14 (200704)
I0821 14:20:32.123075 21397 net.cpp:165] Memory required for data: 333770764
I0821 14:20:32.123077 21397 layer_factory.hpp:77] Creating layer res4b21_relu
I0821 14:20:32.123083 21397 net.cpp:100] Creating Layer res4b21_relu
I0821 14:20:32.123103 21397 net.cpp:444] res4b21_relu <- res4b21
I0821 14:20:32.123111 21397 net.cpp:405] res4b21_relu -> res4b21 (in-place)
I0821 14:20:32.123656 21397 net.cpp:150] Setting up res4b21_relu
I0821 14:20:32.123669 21397 net.cpp:157] Top shape: 1 1024 14 14 (200704)
I0821 14:20:32.123673 21397 net.cpp:165] Memory required for data: 334573580
I0821 14:20:32.123679 21397 layer_factory.hpp:77] Creating layer res4b21_res4b21_relu_0_split
I0821 14:20:32.123688 21397 net.cpp:100] Creating Layer res4b21_res4b21_relu_0_split
I0821 14:20:32.123692 21397 net.cpp:444] res4b21_res4b21_relu_0_split <- res4b21
I0821 14:20:32.123702 21397 net.cpp:418] res4b21_res4b21_relu_0_split -> res4b21_res4b21_relu_0_split_0
I0821 14:20:32.123710 21397 net.cpp:418] res4b21_res4b21_relu_0_split -> res4b21_res4b21_relu_0_split_1
I0821 14:20:32.123780 21397 net.cpp:150] Setting up res4b21_res4b21_relu_0_split
I0821 14:20:32.123788 21397 net.cpp:157] Top shape: 1 1024 14 14 (200704)
I0821 14:20:32.123793 21397 net.cpp:157] Top shape: 1 1024 14 14 (200704)
I0821 14:20:32.123796 21397 net.cpp:165] Memory required for data: 336179212
I0821 14:20:32.123800 21397 layer_factory.hpp:77] Creating layer res4b22_branch2a
I0821 14:20:32.123809 21397 net.cpp:100] Creating Layer res4b22_branch2a
I0821 14:20:32.123814 21397 net.cpp:444] res4b22_branch2a <- res4b21_res4b21_relu_0_split_0
I0821 14:20:32.123821 21397 net.cpp:418] res4b22_branch2a -> res4b22_branch2a
I0821 14:20:32.126129 21397 net.cpp:150] Setting up res4b22_branch2a
I0821 14:20:32.126145 21397 net.cpp:157] Top shape: 1 256 14 14 (50176)
I0821 14:20:32.126150 21397 net.cpp:165] Memory required for data: 336379916
I0821 14:20:32.126157 21397 layer_factory.hpp:77] Creating layer bn4b22_branch2a
I0821 14:20:32.126168 21397 net.cpp:100] Creating Layer bn4b22_branch2a
I0821 14:20:32.126173 21397 net.cpp:444] bn4b22_branch2a <- res4b22_branch2a
I0821 14:20:32.126180 21397 net.cpp:405] bn4b22_branch2a -> res4b22_branch2a (in-place)
I0821 14:20:32.126459 21397 net.cpp:150] Setting up bn4b22_branch2a
I0821 14:20:32.126467 21397 net.cpp:157] Top shape: 1 256 14 14 (50176)
I0821 14:20:32.126471 21397 net.cpp:165] Memory required for data: 336580620
I0821 14:20:32.126478 21397 layer_factory.hpp:77] Creating layer scale4b22_branch2a
I0821 14:20:32.126487 21397 net.cpp:100] Creating Layer scale4b22_branch2a
I0821 14:20:32.126492 21397 net.cpp:444] scale4b22_branch2a <- res4b22_branch2a
I0821 14:20:32.126497 21397 net.cpp:405] scale4b22_branch2a -> res4b22_branch2a (in-place)
I0821 14:20:32.126551 21397 layer_factory.hpp:77] Creating layer scale4b22_branch2a
I0821 14:20:32.126693 21397 net.cpp:150] Setting up scale4b22_branch2a
I0821 14:20:32.126703 21397 net.cpp:157] Top shape: 1 256 14 14 (50176)
I0821 14:20:32.126705 21397 net.cpp:165] Memory required for data: 336781324
I0821 14:20:32.126713 21397 layer_factory.hpp:77] Creating layer res4b22_branch2a_relu
I0821 14:20:32.126718 21397 net.cpp:100] Creating Layer res4b22_branch2a_relu
I0821 14:20:32.126722 21397 net.cpp:444] res4b22_branch2a_relu <- res4b22_branch2a
I0821 14:20:32.126727 21397 net.cpp:405] res4b22_branch2a_relu -> res4b22_branch2a (in-place)
I0821 14:20:32.127241 21397 net.cpp:150] Setting up res4b22_branch2a_relu
I0821 14:20:32.127255 21397 net.cpp:157] Top shape: 1 256 14 14 (50176)
I0821 14:20:32.127259 21397 net.cpp:165] Memory required for data: 336982028
I0821 14:20:32.127264 21397 layer_factory.hpp:77] Creating layer res4b22_branch2b
I0821 14:20:32.127274 21397 net.cpp:100] Creating Layer res4b22_branch2b
I0821 14:20:32.127279 21397 net.cpp:444] res4b22_branch2b <- res4b22_branch2a
I0821 14:20:32.127287 21397 net.cpp:418] res4b22_branch2b -> res4b22_branch2b
I0821 14:20:32.130889 21397 net.cpp:150] Setting up res4b22_branch2b
I0821 14:20:32.130906 21397 net.cpp:157] Top shape: 1 256 14 14 (50176)
I0821 14:20:32.130910 21397 net.cpp:165] Memory required for data: 337182732
I0821 14:20:32.130918 21397 layer_factory.hpp:77] Creating layer bn4b22_branch2b
I0821 14:20:32.130928 21397 net.cpp:100] Creating Layer bn4b22_branch2b
I0821 14:20:32.130933 21397 net.cpp:444] bn4b22_branch2b <- res4b22_branch2b
I0821 14:20:32.130946 21397 net.cpp:405] bn4b22_branch2b -> res4b22_branch2b (in-place)
I0821 14:20:32.131209 21397 net.cpp:150] Setting up bn4b22_branch2b
I0821 14:20:32.131218 21397 net.cpp:157] Top shape: 1 256 14 14 (50176)
I0821 14:20:32.131222 21397 net.cpp:165] Memory required for data: 337383436
I0821 14:20:32.131232 21397 layer_factory.hpp:77] Creating layer scale4b22_branch2b
I0821 14:20:32.131240 21397 net.cpp:100] Creating Layer scale4b22_branch2b
I0821 14:20:32.131245 21397 net.cpp:444] scale4b22_branch2b <- res4b22_branch2b
I0821 14:20:32.131250 21397 net.cpp:405] scale4b22_branch2b -> res4b22_branch2b (in-place)
I0821 14:20:32.131305 21397 layer_factory.hpp:77] Creating layer scale4b22_branch2b
I0821 14:20:32.131466 21397 net.cpp:150] Setting up scale4b22_branch2b
I0821 14:20:32.131474 21397 net.cpp:157] Top shape: 1 256 14 14 (50176)
I0821 14:20:32.131477 21397 net.cpp:165] Memory required for data: 337584140
I0821 14:20:32.131484 21397 layer_factory.hpp:77] Creating layer res4b22_branch2b_relu
I0821 14:20:32.131491 21397 net.cpp:100] Creating Layer res4b22_branch2b_relu
I0821 14:20:32.131496 21397 net.cpp:444] res4b22_branch2b_relu <- res4b22_branch2b
I0821 14:20:32.131501 21397 net.cpp:405] res4b22_branch2b_relu -> res4b22_branch2b (in-place)
I0821 14:20:32.131783 21397 net.cpp:150] Setting up res4b22_branch2b_relu
I0821 14:20:32.131794 21397 net.cpp:157] Top shape: 1 256 14 14 (50176)
I0821 14:20:32.131798 21397 net.cpp:165] Memory required for data: 337784844
I0821 14:20:32.131801 21397 layer_factory.hpp:77] Creating layer res4b22_branch2c
I0821 14:20:32.131813 21397 net.cpp:100] Creating Layer res4b22_branch2c
I0821 14:20:32.131816 21397 net.cpp:444] res4b22_branch2c <- res4b22_branch2b
I0821 14:20:32.131825 21397 net.cpp:418] res4b22_branch2c -> res4b22_branch2c
I0821 14:20:32.134440 21397 net.cpp:150] Setting up res4b22_branch2c
I0821 14:20:32.134459 21397 net.cpp:157] Top shape: 1 1024 14 14 (200704)
I0821 14:20:32.134464 21397 net.cpp:165] Memory required for data: 338587660
I0821 14:20:32.134470 21397 layer_factory.hpp:77] Creating layer bn4b22_branch2c
I0821 14:20:32.134479 21397 net.cpp:100] Creating Layer bn4b22_branch2c
I0821 14:20:32.134485 21397 net.cpp:444] bn4b22_branch2c <- res4b22_branch2c
I0821 14:20:32.134492 21397 net.cpp:405] bn4b22_branch2c -> res4b22_branch2c (in-place)
I0821 14:20:32.134793 21397 net.cpp:150] Setting up bn4b22_branch2c
I0821 14:20:32.134801 21397 net.cpp:157] Top shape: 1 1024 14 14 (200704)
I0821 14:20:32.134805 21397 net.cpp:165] Memory required for data: 339390476
I0821 14:20:32.134814 21397 layer_factory.hpp:77] Creating layer scale4b22_branch2c
I0821 14:20:32.134820 21397 net.cpp:100] Creating Layer scale4b22_branch2c
I0821 14:20:32.134824 21397 net.cpp:444] scale4b22_branch2c <- res4b22_branch2c
I0821 14:20:32.134832 21397 net.cpp:405] scale4b22_branch2c -> res4b22_branch2c (in-place)
I0821 14:20:32.134891 21397 layer_factory.hpp:77] Creating layer scale4b22_branch2c
I0821 14:20:32.135057 21397 net.cpp:150] Setting up scale4b22_branch2c
I0821 14:20:32.135066 21397 net.cpp:157] Top shape: 1 1024 14 14 (200704)
I0821 14:20:32.135069 21397 net.cpp:165] Memory required for data: 340193292
I0821 14:20:32.135076 21397 layer_factory.hpp:77] Creating layer res4b22
I0821 14:20:32.135082 21397 net.cpp:100] Creating Layer res4b22
I0821 14:20:32.135087 21397 net.cpp:444] res4b22 <- res4b21_res4b21_relu_0_split_1
I0821 14:20:32.135092 21397 net.cpp:444] res4b22 <- res4b22_branch2c
I0821 14:20:32.135103 21397 net.cpp:418] res4b22 -> res4b22
I0821 14:20:32.135136 21397 net.cpp:150] Setting up res4b22
I0821 14:20:32.135145 21397 net.cpp:157] Top shape: 1 1024 14 14 (200704)
I0821 14:20:32.135149 21397 net.cpp:165] Memory required for data: 340996108
I0821 14:20:32.135152 21397 layer_factory.hpp:77] Creating layer res4b22_relu
I0821 14:20:32.135157 21397 net.cpp:100] Creating Layer res4b22_relu
I0821 14:20:32.135162 21397 net.cpp:444] res4b22_relu <- res4b22
I0821 14:20:32.135166 21397 net.cpp:405] res4b22_relu -> res4b22 (in-place)
I0821 14:20:32.135713 21397 net.cpp:150] Setting up res4b22_relu
I0821 14:20:32.135727 21397 net.cpp:157] Top shape: 1 1024 14 14 (200704)
I0821 14:20:32.135731 21397 net.cpp:165] Memory required for data: 341798924
I0821 14:20:32.135737 21397 layer_factory.hpp:77] Creating layer res4b22_res4b22_relu_0_split
I0821 14:20:32.135747 21397 net.cpp:100] Creating Layer res4b22_res4b22_relu_0_split
I0821 14:20:32.135752 21397 net.cpp:444] res4b22_res4b22_relu_0_split <- res4b22
I0821 14:20:32.135758 21397 net.cpp:418] res4b22_res4b22_relu_0_split -> res4b22_res4b22_relu_0_split_0
I0821 14:20:32.135767 21397 net.cpp:418] res4b22_res4b22_relu_0_split -> res4b22_res4b22_relu_0_split_1
I0821 14:20:32.135776 21397 net.cpp:418] res4b22_res4b22_relu_0_split -> res4b22_res4b22_relu_0_split_2
I0821 14:20:32.135855 21397 net.cpp:150] Setting up res4b22_res4b22_relu_0_split
I0821 14:20:32.135862 21397 net.cpp:157] Top shape: 1 1024 14 14 (200704)
I0821 14:20:32.135867 21397 net.cpp:157] Top shape: 1 1024 14 14 (200704)
I0821 14:20:32.135871 21397 net.cpp:157] Top shape: 1 1024 14 14 (200704)
I0821 14:20:32.135874 21397 net.cpp:165] Memory required for data: 344207372
I0821 14:20:32.135879 21397 layer_factory.hpp:77] Creating layer res5a_branch1
I0821 14:20:32.135888 21397 net.cpp:100] Creating Layer res5a_branch1
I0821 14:20:32.135893 21397 net.cpp:444] res5a_branch1 <- res4b22_res4b22_relu_0_split_0
I0821 14:20:32.135902 21397 net.cpp:418] res5a_branch1 -> res5a_branch1
I0821 14:20:32.142961 21397 net.cpp:150] Setting up res5a_branch1
I0821 14:20:32.142979 21397 net.cpp:157] Top shape: 1 2048 14 14 (401408)
I0821 14:20:32.142983 21397 net.cpp:165] Memory required for data: 345813004
I0821 14:20:32.142990 21397 layer_factory.hpp:77] Creating layer bn5a_branch1
I0821 14:20:32.142997 21397 net.cpp:100] Creating Layer bn5a_branch1
I0821 14:20:32.143002 21397 net.cpp:444] bn5a_branch1 <- res5a_branch1
I0821 14:20:32.143009 21397 net.cpp:405] bn5a_branch1 -> res5a_branch1 (in-place)
I0821 14:20:32.143314 21397 net.cpp:150] Setting up bn5a_branch1
I0821 14:20:32.143322 21397 net.cpp:157] Top shape: 1 2048 14 14 (401408)
I0821 14:20:32.143326 21397 net.cpp:165] Memory required for data: 347418636
I0821 14:20:32.143334 21397 layer_factory.hpp:77] Creating layer scale5a_branch1
I0821 14:20:32.143340 21397 net.cpp:100] Creating Layer scale5a_branch1
I0821 14:20:32.143345 21397 net.cpp:444] scale5a_branch1 <- res5a_branch1
I0821 14:20:32.143353 21397 net.cpp:405] scale5a_branch1 -> res5a_branch1 (in-place)
I0821 14:20:32.143414 21397 layer_factory.hpp:77] Creating layer scale5a_branch1
I0821 14:20:32.143605 21397 net.cpp:150] Setting up scale5a_branch1
I0821 14:20:32.143616 21397 net.cpp:157] Top shape: 1 2048 14 14 (401408)
I0821 14:20:32.143620 21397 net.cpp:165] Memory required for data: 349024268
I0821 14:20:32.143628 21397 layer_factory.hpp:77] Creating layer res5a_branch2a
I0821 14:20:32.143638 21397 net.cpp:100] Creating Layer res5a_branch2a
I0821 14:20:32.143643 21397 net.cpp:444] res5a_branch2a <- res4b22_res4b22_relu_0_split_1
I0821 14:20:32.143651 21397 net.cpp:418] res5a_branch2a -> res5a_branch2a
I0821 14:20:32.146862 21397 net.cpp:150] Setting up res5a_branch2a
I0821 14:20:32.146879 21397 net.cpp:157] Top shape: 1 512 14 14 (100352)
I0821 14:20:32.146883 21397 net.cpp:165] Memory required for data: 349425676
I0821 14:20:32.146890 21397 layer_factory.hpp:77] Creating layer bn5a_branch2a
I0821 14:20:32.146899 21397 net.cpp:100] Creating Layer bn5a_branch2a
I0821 14:20:32.146904 21397 net.cpp:444] bn5a_branch2a <- res5a_branch2a
I0821 14:20:32.146914 21397 net.cpp:405] bn5a_branch2a -> res5a_branch2a (in-place)
I0821 14:20:32.147207 21397 net.cpp:150] Setting up bn5a_branch2a
I0821 14:20:32.147214 21397 net.cpp:157] Top shape: 1 512 14 14 (100352)
I0821 14:20:32.147217 21397 net.cpp:165] Memory required for data: 349827084
I0821 14:20:32.147225 21397 layer_factory.hpp:77] Creating layer scale5a_branch2a
I0821 14:20:32.147239 21397 net.cpp:100] Creating Layer scale5a_branch2a
I0821 14:20:32.147244 21397 net.cpp:444] scale5a_branch2a <- res5a_branch2a
I0821 14:20:32.147255 21397 net.cpp:405] scale5a_branch2a -> res5a_branch2a (in-place)
I0821 14:20:32.147318 21397 layer_factory.hpp:77] Creating layer scale5a_branch2a
I0821 14:20:32.147487 21397 net.cpp:150] Setting up scale5a_branch2a
I0821 14:20:32.147495 21397 net.cpp:157] Top shape: 1 512 14 14 (100352)
I0821 14:20:32.147500 21397 net.cpp:165] Memory required for data: 350228492
I0821 14:20:32.147507 21397 layer_factory.hpp:77] Creating layer res5a_branch2a_relu
I0821 14:20:32.147514 21397 net.cpp:100] Creating Layer res5a_branch2a_relu
I0821 14:20:32.147518 21397 net.cpp:444] res5a_branch2a_relu <- res5a_branch2a
I0821 14:20:32.147526 21397 net.cpp:405] res5a_branch2a_relu -> res5a_branch2a (in-place)
I0821 14:20:32.148063 21397 net.cpp:150] Setting up res5a_branch2a_relu
I0821 14:20:32.148077 21397 net.cpp:157] Top shape: 1 512 14 14 (100352)
I0821 14:20:32.148082 21397 net.cpp:165] Memory required for data: 350629900
I0821 14:20:32.148085 21397 layer_factory.hpp:77] Creating layer res5a_branch2b
I0821 14:20:32.148097 21397 net.cpp:100] Creating Layer res5a_branch2b
I0821 14:20:32.148102 21397 net.cpp:444] res5a_branch2b <- res5a_branch2a
I0821 14:20:32.148108 21397 net.cpp:418] res5a_branch2b -> res5a_branch2b
I0821 14:20:32.154556 21397 net.cpp:150] Setting up res5a_branch2b
I0821 14:20:32.154572 21397 net.cpp:157] Top shape: 1 512 14 14 (100352)
I0821 14:20:32.154577 21397 net.cpp:165] Memory required for data: 351031308
I0821 14:20:32.154582 21397 layer_factory.hpp:77] Creating layer bn5a_branch2b
I0821 14:20:32.154590 21397 net.cpp:100] Creating Layer bn5a_branch2b
I0821 14:20:32.154594 21397 net.cpp:444] bn5a_branch2b <- res5a_branch2b
I0821 14:20:32.154603 21397 net.cpp:405] bn5a_branch2b -> res5a_branch2b (in-place)
I0821 14:20:32.154880 21397 net.cpp:150] Setting up bn5a_branch2b
I0821 14:20:32.154888 21397 net.cpp:157] Top shape: 1 512 14 14 (100352)
I0821 14:20:32.154891 21397 net.cpp:165] Memory required for data: 351432716
I0821 14:20:32.154899 21397 layer_factory.hpp:77] Creating layer scale5a_branch2b
I0821 14:20:32.154908 21397 net.cpp:100] Creating Layer scale5a_branch2b
I0821 14:20:32.154912 21397 net.cpp:444] scale5a_branch2b <- res5a_branch2b
I0821 14:20:32.154932 21397 net.cpp:405] scale5a_branch2b -> res5a_branch2b (in-place)
I0821 14:20:32.154992 21397 layer_factory.hpp:77] Creating layer scale5a_branch2b
I0821 14:20:32.155171 21397 net.cpp:150] Setting up scale5a_branch2b
I0821 14:20:32.155179 21397 net.cpp:157] Top shape: 1 512 14 14 (100352)
I0821 14:20:32.155184 21397 net.cpp:165] Memory required for data: 351834124
I0821 14:20:32.155189 21397 layer_factory.hpp:77] Creating layer res5a_branch2b_relu
I0821 14:20:32.155196 21397 net.cpp:100] Creating Layer res5a_branch2b_relu
I0821 14:20:32.155200 21397 net.cpp:444] res5a_branch2b_relu <- res5a_branch2b
I0821 14:20:32.155205 21397 net.cpp:405] res5a_branch2b_relu -> res5a_branch2b (in-place)
I0821 14:20:32.155491 21397 net.cpp:150] Setting up res5a_branch2b_relu
I0821 14:20:32.155503 21397 net.cpp:157] Top shape: 1 512 14 14 (100352)
I0821 14:20:32.155506 21397 net.cpp:165] Memory required for data: 352235532
I0821 14:20:32.155510 21397 layer_factory.hpp:77] Creating layer res5a_branch2c
I0821 14:20:32.155520 21397 net.cpp:100] Creating Layer res5a_branch2c
I0821 14:20:32.155525 21397 net.cpp:444] res5a_branch2c <- res5a_branch2b
I0821 14:20:32.155534 21397 net.cpp:418] res5a_branch2c -> res5a_branch2c
I0821 14:20:32.160073 21397 net.cpp:150] Setting up res5a_branch2c
I0821 14:20:32.160089 21397 net.cpp:157] Top shape: 1 2048 14 14 (401408)
I0821 14:20:32.160092 21397 net.cpp:165] Memory required for data: 353841164
I0821 14:20:32.160099 21397 layer_factory.hpp:77] Creating layer bn5a_branch2c
I0821 14:20:32.160116 21397 net.cpp:100] Creating Layer bn5a_branch2c
I0821 14:20:32.160121 21397 net.cpp:444] bn5a_branch2c <- res5a_branch2c
I0821 14:20:32.160127 21397 net.cpp:405] bn5a_branch2c -> res5a_branch2c (in-place)
I0821 14:20:32.160423 21397 net.cpp:150] Setting up bn5a_branch2c
I0821 14:20:32.160432 21397 net.cpp:157] Top shape: 1 2048 14 14 (401408)
I0821 14:20:32.160441 21397 net.cpp:165] Memory required for data: 355446796
I0821 14:20:32.160452 21397 layer_factory.hpp:77] Creating layer scale5a_branch2c
I0821 14:20:32.160462 21397 net.cpp:100] Creating Layer scale5a_branch2c
I0821 14:20:32.160467 21397 net.cpp:444] scale5a_branch2c <- res5a_branch2c
I0821 14:20:32.160473 21397 net.cpp:405] scale5a_branch2c -> res5a_branch2c (in-place)
I0821 14:20:32.160562 21397 layer_factory.hpp:77] Creating layer scale5a_branch2c
I0821 14:20:32.160748 21397 net.cpp:150] Setting up scale5a_branch2c
I0821 14:20:32.160758 21397 net.cpp:157] Top shape: 1 2048 14 14 (401408)
I0821 14:20:32.160760 21397 net.cpp:165] Memory required for data: 357052428
I0821 14:20:32.160766 21397 layer_factory.hpp:77] Creating layer res5a
I0821 14:20:32.160773 21397 net.cpp:100] Creating Layer res5a
I0821 14:20:32.160778 21397 net.cpp:444] res5a <- res5a_branch1
I0821 14:20:32.160782 21397 net.cpp:444] res5a <- res5a_branch2c
I0821 14:20:32.160790 21397 net.cpp:418] res5a -> res5a
I0821 14:20:32.160823 21397 net.cpp:150] Setting up res5a
I0821 14:20:32.160830 21397 net.cpp:157] Top shape: 1 2048 14 14 (401408)
I0821 14:20:32.160833 21397 net.cpp:165] Memory required for data: 358658060
I0821 14:20:32.160837 21397 layer_factory.hpp:77] Creating layer res5a_relu
I0821 14:20:32.160845 21397 net.cpp:100] Creating Layer res5a_relu
I0821 14:20:32.160850 21397 net.cpp:444] res5a_relu <- res5a
I0821 14:20:32.160854 21397 net.cpp:405] res5a_relu -> res5a (in-place)
I0821 14:20:32.161404 21397 net.cpp:150] Setting up res5a_relu
I0821 14:20:32.161419 21397 net.cpp:157] Top shape: 1 2048 14 14 (401408)
I0821 14:20:32.161423 21397 net.cpp:165] Memory required for data: 360263692
I0821 14:20:32.161429 21397 layer_factory.hpp:77] Creating layer res5a_res5a_relu_0_split
I0821 14:20:32.161437 21397 net.cpp:100] Creating Layer res5a_res5a_relu_0_split
I0821 14:20:32.161442 21397 net.cpp:444] res5a_res5a_relu_0_split <- res5a
I0821 14:20:32.161450 21397 net.cpp:418] res5a_res5a_relu_0_split -> res5a_res5a_relu_0_split_0
I0821 14:20:32.161459 21397 net.cpp:418] res5a_res5a_relu_0_split -> res5a_res5a_relu_0_split_1
I0821 14:20:32.161523 21397 net.cpp:150] Setting up res5a_res5a_relu_0_split
I0821 14:20:32.161530 21397 net.cpp:157] Top shape: 1 2048 14 14 (401408)
I0821 14:20:32.161535 21397 net.cpp:157] Top shape: 1 2048 14 14 (401408)
I0821 14:20:32.161538 21397 net.cpp:165] Memory required for data: 363474956
I0821 14:20:32.161542 21397 layer_factory.hpp:77] Creating layer res5b_branch2a
I0821 14:20:32.161553 21397 net.cpp:100] Creating Layer res5b_branch2a
I0821 14:20:32.161557 21397 net.cpp:444] res5b_branch2a <- res5a_res5a_relu_0_split_0
I0821 14:20:32.161566 21397 net.cpp:418] res5b_branch2a -> res5b_branch2a
I0821 14:20:32.165819 21397 net.cpp:150] Setting up res5b_branch2a
I0821 14:20:32.165835 21397 net.cpp:157] Top shape: 1 512 14 14 (100352)
I0821 14:20:32.165839 21397 net.cpp:165] Memory required for data: 363876364
I0821 14:20:32.165846 21397 layer_factory.hpp:77] Creating layer bn5b_branch2a
I0821 14:20:32.165859 21397 net.cpp:100] Creating Layer bn5b_branch2a
I0821 14:20:32.165865 21397 net.cpp:444] bn5b_branch2a <- res5b_branch2a
I0821 14:20:32.165872 21397 net.cpp:405] bn5b_branch2a -> res5b_branch2a (in-place)
I0821 14:20:32.166178 21397 net.cpp:150] Setting up bn5b_branch2a
I0821 14:20:32.166188 21397 net.cpp:157] Top shape: 1 512 14 14 (100352)
I0821 14:20:32.166190 21397 net.cpp:165] Memory required for data: 364277772
I0821 14:20:32.166200 21397 layer_factory.hpp:77] Creating layer scale5b_branch2a
I0821 14:20:32.166209 21397 net.cpp:100] Creating Layer scale5b_branch2a
I0821 14:20:32.166214 21397 net.cpp:444] scale5b_branch2a <- res5b_branch2a
I0821 14:20:32.166219 21397 net.cpp:405] scale5b_branch2a -> res5b_branch2a (in-place)
I0821 14:20:32.166285 21397 layer_factory.hpp:77] Creating layer scale5b_branch2a
I0821 14:20:32.166481 21397 net.cpp:150] Setting up scale5b_branch2a
I0821 14:20:32.166489 21397 net.cpp:157] Top shape: 1 512 14 14 (100352)
I0821 14:20:32.166498 21397 net.cpp:165] Memory required for data: 364679180
I0821 14:20:32.166505 21397 layer_factory.hpp:77] Creating layer res5b_branch2a_relu
I0821 14:20:32.166514 21397 net.cpp:100] Creating Layer res5b_branch2a_relu
I0821 14:20:32.166518 21397 net.cpp:444] res5b_branch2a_relu <- res5b_branch2a
I0821 14:20:32.166527 21397 net.cpp:405] res5b_branch2a_relu -> res5b_branch2a (in-place)
I0821 14:20:32.167069 21397 net.cpp:150] Setting up res5b_branch2a_relu
I0821 14:20:32.167083 21397 net.cpp:157] Top shape: 1 512 14 14 (100352)
I0821 14:20:32.167088 21397 net.cpp:165] Memory required for data: 365080588
I0821 14:20:32.167091 21397 layer_factory.hpp:77] Creating layer res5b_branch2b
I0821 14:20:32.167102 21397 net.cpp:100] Creating Layer res5b_branch2b
I0821 14:20:32.167107 21397 net.cpp:444] res5b_branch2b <- res5b_branch2a
I0821 14:20:32.167116 21397 net.cpp:418] res5b_branch2b -> res5b_branch2b
I0821 14:20:32.173427 21397 net.cpp:150] Setting up res5b_branch2b
I0821 14:20:32.173444 21397 net.cpp:157] Top shape: 1 512 14 14 (100352)
I0821 14:20:32.173447 21397 net.cpp:165] Memory required for data: 365481996
I0821 14:20:32.173455 21397 layer_factory.hpp:77] Creating layer bn5b_branch2b
I0821 14:20:32.173465 21397 net.cpp:100] Creating Layer bn5b_branch2b
I0821 14:20:32.173470 21397 net.cpp:444] bn5b_branch2b <- res5b_branch2b
I0821 14:20:32.173475 21397 net.cpp:405] bn5b_branch2b -> res5b_branch2b (in-place)
I0821 14:20:32.174448 21397 net.cpp:150] Setting up bn5b_branch2b
I0821 14:20:32.174463 21397 net.cpp:157] Top shape: 1 512 14 14 (100352)
I0821 14:20:32.174466 21397 net.cpp:165] Memory required for data: 365883404
I0821 14:20:32.174475 21397 layer_factory.hpp:77] Creating layer scale5b_branch2b
I0821 14:20:32.174486 21397 net.cpp:100] Creating Layer scale5b_branch2b
I0821 14:20:32.174491 21397 net.cpp:444] scale5b_branch2b <- res5b_branch2b
I0821 14:20:32.174497 21397 net.cpp:405] scale5b_branch2b -> res5b_branch2b (in-place)
I0821 14:20:32.174561 21397 layer_factory.hpp:77] Creating layer scale5b_branch2b
I0821 14:20:32.174722 21397 net.cpp:150] Setting up scale5b_branch2b
I0821 14:20:32.174731 21397 net.cpp:157] Top shape: 1 512 14 14 (100352)
I0821 14:20:32.174734 21397 net.cpp:165] Memory required for data: 366284812
I0821 14:20:32.174741 21397 layer_factory.hpp:77] Creating layer res5b_branch2b_relu
I0821 14:20:32.174749 21397 net.cpp:100] Creating Layer res5b_branch2b_relu
I0821 14:20:32.174753 21397 net.cpp:444] res5b_branch2b_relu <- res5b_branch2b
I0821 14:20:32.174760 21397 net.cpp:405] res5b_branch2b_relu -> res5b_branch2b (in-place)
I0821 14:20:32.175304 21397 net.cpp:150] Setting up res5b_branch2b_relu
I0821 14:20:32.175318 21397 net.cpp:157] Top shape: 1 512 14 14 (100352)
I0821 14:20:32.175323 21397 net.cpp:165] Memory required for data: 366686220
I0821 14:20:32.175328 21397 layer_factory.hpp:77] Creating layer res5b_branch2c
I0821 14:20:32.175338 21397 net.cpp:100] Creating Layer res5b_branch2c
I0821 14:20:32.175343 21397 net.cpp:444] res5b_branch2c <- res5b_branch2b
I0821 14:20:32.175352 21397 net.cpp:418] res5b_branch2c -> res5b_branch2c
I0821 14:20:32.179648 21397 net.cpp:150] Setting up res5b_branch2c
I0821 14:20:32.179664 21397 net.cpp:157] Top shape: 1 2048 14 14 (401408)
I0821 14:20:32.179669 21397 net.cpp:165] Memory required for data: 368291852
I0821 14:20:32.179675 21397 layer_factory.hpp:77] Creating layer bn5b_branch2c
I0821 14:20:32.179685 21397 net.cpp:100] Creating Layer bn5b_branch2c
I0821 14:20:32.179690 21397 net.cpp:444] bn5b_branch2c <- res5b_branch2c
I0821 14:20:32.179699 21397 net.cpp:405] bn5b_branch2c -> res5b_branch2c (in-place)
I0821 14:20:32.179939 21397 net.cpp:150] Setting up bn5b_branch2c
I0821 14:20:32.179949 21397 net.cpp:157] Top shape: 1 2048 14 14 (401408)
I0821 14:20:32.179952 21397 net.cpp:165] Memory required for data: 369897484
I0821 14:20:32.179960 21397 layer_factory.hpp:77] Creating layer scale5b_branch2c
I0821 14:20:32.179981 21397 net.cpp:100] Creating Layer scale5b_branch2c
I0821 14:20:32.179986 21397 net.cpp:444] scale5b_branch2c <- res5b_branch2c
I0821 14:20:32.179997 21397 net.cpp:405] scale5b_branch2c -> res5b_branch2c (in-place)
I0821 14:20:32.180061 21397 layer_factory.hpp:77] Creating layer scale5b_branch2c
I0821 14:20:32.180214 21397 net.cpp:150] Setting up scale5b_branch2c
I0821 14:20:32.180223 21397 net.cpp:157] Top shape: 1 2048 14 14 (401408)
I0821 14:20:32.180227 21397 net.cpp:165] Memory required for data: 371503116
I0821 14:20:32.180233 21397 layer_factory.hpp:77] Creating layer res5b
I0821 14:20:32.180240 21397 net.cpp:100] Creating Layer res5b
I0821 14:20:32.180245 21397 net.cpp:444] res5b <- res5a_res5a_relu_0_split_1
I0821 14:20:32.180250 21397 net.cpp:444] res5b <- res5b_branch2c
I0821 14:20:32.180261 21397 net.cpp:418] res5b -> res5b
I0821 14:20:32.180289 21397 net.cpp:150] Setting up res5b
I0821 14:20:32.180295 21397 net.cpp:157] Top shape: 1 2048 14 14 (401408)
I0821 14:20:32.180299 21397 net.cpp:165] Memory required for data: 373108748
I0821 14:20:32.180302 21397 layer_factory.hpp:77] Creating layer res5b_relu
I0821 14:20:32.180307 21397 net.cpp:100] Creating Layer res5b_relu
I0821 14:20:32.180311 21397 net.cpp:444] res5b_relu <- res5b
I0821 14:20:32.180318 21397 net.cpp:405] res5b_relu -> res5b (in-place)
I0821 14:20:32.180876 21397 net.cpp:150] Setting up res5b_relu
I0821 14:20:32.180891 21397 net.cpp:157] Top shape: 1 2048 14 14 (401408)
I0821 14:20:32.180896 21397 net.cpp:165] Memory required for data: 374714380
I0821 14:20:32.180900 21397 layer_factory.hpp:77] Creating layer res5b_res5b_relu_0_split
I0821 14:20:32.180908 21397 net.cpp:100] Creating Layer res5b_res5b_relu_0_split
I0821 14:20:32.180912 21397 net.cpp:444] res5b_res5b_relu_0_split <- res5b
I0821 14:20:32.180919 21397 net.cpp:418] res5b_res5b_relu_0_split -> res5b_res5b_relu_0_split_0
I0821 14:20:32.180929 21397 net.cpp:418] res5b_res5b_relu_0_split -> res5b_res5b_relu_0_split_1
I0821 14:20:32.180976 21397 net.cpp:150] Setting up res5b_res5b_relu_0_split
I0821 14:20:32.180982 21397 net.cpp:157] Top shape: 1 2048 14 14 (401408)
I0821 14:20:32.180987 21397 net.cpp:157] Top shape: 1 2048 14 14 (401408)
I0821 14:20:32.180990 21397 net.cpp:165] Memory required for data: 377925644
I0821 14:20:32.180994 21397 layer_factory.hpp:77] Creating layer res5c_branch2a
I0821 14:20:32.181005 21397 net.cpp:100] Creating Layer res5c_branch2a
I0821 14:20:32.181008 21397 net.cpp:444] res5c_branch2a <- res5b_res5b_relu_0_split_0
I0821 14:20:32.181017 21397 net.cpp:418] res5c_branch2a -> res5c_branch2a
I0821 14:20:32.185472 21397 net.cpp:150] Setting up res5c_branch2a
I0821 14:20:32.185487 21397 net.cpp:157] Top shape: 1 512 14 14 (100352)
I0821 14:20:32.185492 21397 net.cpp:165] Memory required for data: 378327052
I0821 14:20:32.185500 21397 layer_factory.hpp:77] Creating layer bn5c_branch2a
I0821 14:20:32.185511 21397 net.cpp:100] Creating Layer bn5c_branch2a
I0821 14:20:32.185516 21397 net.cpp:444] bn5c_branch2a <- res5c_branch2a
I0821 14:20:32.185523 21397 net.cpp:405] bn5c_branch2a -> res5c_branch2a (in-place)
I0821 14:20:32.185770 21397 net.cpp:150] Setting up bn5c_branch2a
I0821 14:20:32.185781 21397 net.cpp:157] Top shape: 1 512 14 14 (100352)
I0821 14:20:32.185783 21397 net.cpp:165] Memory required for data: 378728460
I0821 14:20:32.185791 21397 layer_factory.hpp:77] Creating layer scale5c_branch2a
I0821 14:20:32.185802 21397 net.cpp:100] Creating Layer scale5c_branch2a
I0821 14:20:32.185807 21397 net.cpp:444] scale5c_branch2a <- res5c_branch2a
I0821 14:20:32.185812 21397 net.cpp:405] scale5c_branch2a -> res5c_branch2a (in-place)
I0821 14:20:32.185874 21397 layer_factory.hpp:77] Creating layer scale5c_branch2a
I0821 14:20:32.186025 21397 net.cpp:150] Setting up scale5c_branch2a
I0821 14:20:32.186034 21397 net.cpp:157] Top shape: 1 512 14 14 (100352)
I0821 14:20:32.186038 21397 net.cpp:165] Memory required for data: 379129868
I0821 14:20:32.186044 21397 layer_factory.hpp:77] Creating layer res5c_branch2a_relu
I0821 14:20:32.186050 21397 net.cpp:100] Creating Layer res5c_branch2a_relu
I0821 14:20:32.186055 21397 net.cpp:444] res5c_branch2a_relu <- res5c_branch2a
I0821 14:20:32.186062 21397 net.cpp:405] res5c_branch2a_relu -> res5c_branch2a (in-place)
I0821 14:20:32.186358 21397 net.cpp:150] Setting up res5c_branch2a_relu
I0821 14:20:32.186373 21397 net.cpp:157] Top shape: 1 512 14 14 (100352)
I0821 14:20:32.186378 21397 net.cpp:165] Memory required for data: 379531276
I0821 14:20:32.186381 21397 layer_factory.hpp:77] Creating layer res5c_branch2b
I0821 14:20:32.186390 21397 net.cpp:100] Creating Layer res5c_branch2b
I0821 14:20:32.186395 21397 net.cpp:444] res5c_branch2b <- res5c_branch2a
I0821 14:20:32.186403 21397 net.cpp:418] res5c_branch2b -> res5c_branch2b
I0821 14:20:32.192700 21397 net.cpp:150] Setting up res5c_branch2b
I0821 14:20:32.192716 21397 net.cpp:157] Top shape: 1 512 14 14 (100352)
I0821 14:20:32.192720 21397 net.cpp:165] Memory required for data: 379932684
I0821 14:20:32.192726 21397 layer_factory.hpp:77] Creating layer bn5c_branch2b
I0821 14:20:32.192734 21397 net.cpp:100] Creating Layer bn5c_branch2b
I0821 14:20:32.192739 21397 net.cpp:444] bn5c_branch2b <- res5c_branch2b
I0821 14:20:32.192746 21397 net.cpp:405] bn5c_branch2b -> res5c_branch2b (in-place)
I0821 14:20:32.192984 21397 net.cpp:150] Setting up bn5c_branch2b
I0821 14:20:32.192993 21397 net.cpp:157] Top shape: 1 512 14 14 (100352)
I0821 14:20:32.192997 21397 net.cpp:165] Memory required for data: 380334092
I0821 14:20:32.193004 21397 layer_factory.hpp:77] Creating layer scale5c_branch2b
I0821 14:20:32.193012 21397 net.cpp:100] Creating Layer scale5c_branch2b
I0821 14:20:32.193017 21397 net.cpp:444] scale5c_branch2b <- res5c_branch2b
I0821 14:20:32.193023 21397 net.cpp:405] scale5c_branch2b -> res5c_branch2b (in-place)
I0821 14:20:32.193080 21397 layer_factory.hpp:77] Creating layer scale5c_branch2b
I0821 14:20:32.193219 21397 net.cpp:150] Setting up scale5c_branch2b
I0821 14:20:32.193229 21397 net.cpp:157] Top shape: 1 512 14 14 (100352)
I0821 14:20:32.193233 21397 net.cpp:165] Memory required for data: 380735500
I0821 14:20:32.193239 21397 layer_factory.hpp:77] Creating layer res5c_branch2b_relu
I0821 14:20:32.193245 21397 net.cpp:100] Creating Layer res5c_branch2b_relu
I0821 14:20:32.193249 21397 net.cpp:444] res5c_branch2b_relu <- res5c_branch2b
I0821 14:20:32.193254 21397 net.cpp:405] res5c_branch2b_relu -> res5c_branch2b (in-place)
I0821 14:20:32.193845 21397 net.cpp:150] Setting up res5c_branch2b_relu
I0821 14:20:32.193871 21397 net.cpp:157] Top shape: 1 512 14 14 (100352)
I0821 14:20:32.193876 21397 net.cpp:165] Memory required for data: 381136908
I0821 14:20:32.193881 21397 layer_factory.hpp:77] Creating layer res5c_branch2c
I0821 14:20:32.193892 21397 net.cpp:100] Creating Layer res5c_branch2c
I0821 14:20:32.193897 21397 net.cpp:444] res5c_branch2c <- res5c_branch2b
I0821 14:20:32.193905 21397 net.cpp:418] res5c_branch2c -> res5c_branch2c
I0821 14:20:32.198462 21397 net.cpp:150] Setting up res5c_branch2c
I0821 14:20:32.198480 21397 net.cpp:157] Top shape: 1 2048 14 14 (401408)
I0821 14:20:32.198484 21397 net.cpp:165] Memory required for data: 382742540
I0821 14:20:32.198491 21397 layer_factory.hpp:77] Creating layer bn5c_branch2c
I0821 14:20:32.198498 21397 net.cpp:100] Creating Layer bn5c_branch2c
I0821 14:20:32.198503 21397 net.cpp:444] bn5c_branch2c <- res5c_branch2c
I0821 14:20:32.198511 21397 net.cpp:405] bn5c_branch2c -> res5c_branch2c (in-place)
I0821 14:20:32.198776 21397 net.cpp:150] Setting up bn5c_branch2c
I0821 14:20:32.198784 21397 net.cpp:157] Top shape: 1 2048 14 14 (401408)
I0821 14:20:32.198788 21397 net.cpp:165] Memory required for data: 384348172
I0821 14:20:32.198796 21397 layer_factory.hpp:77] Creating layer scale5c_branch2c
I0821 14:20:32.198803 21397 net.cpp:100] Creating Layer scale5c_branch2c
I0821 14:20:32.198807 21397 net.cpp:444] scale5c_branch2c <- res5c_branch2c
I0821 14:20:32.198815 21397 net.cpp:405] scale5c_branch2c -> res5c_branch2c (in-place)
I0821 14:20:32.198876 21397 layer_factory.hpp:77] Creating layer scale5c_branch2c
I0821 14:20:32.199023 21397 net.cpp:150] Setting up scale5c_branch2c
I0821 14:20:32.199033 21397 net.cpp:157] Top shape: 1 2048 14 14 (401408)
I0821 14:20:32.199043 21397 net.cpp:165] Memory required for data: 385953804
I0821 14:20:32.199048 21397 layer_factory.hpp:77] Creating layer res5c
I0821 14:20:32.199055 21397 net.cpp:100] Creating Layer res5c
I0821 14:20:32.199059 21397 net.cpp:444] res5c <- res5b_res5b_relu_0_split_1
I0821 14:20:32.199064 21397 net.cpp:444] res5c <- res5c_branch2c
I0821 14:20:32.199069 21397 net.cpp:418] res5c -> res5c
I0821 14:20:32.199098 21397 net.cpp:150] Setting up res5c
I0821 14:20:32.199105 21397 net.cpp:157] Top shape: 1 2048 14 14 (401408)
I0821 14:20:32.199108 21397 net.cpp:165] Memory required for data: 387559436
I0821 14:20:32.199111 21397 layer_factory.hpp:77] Creating layer res5c_relu
I0821 14:20:32.199118 21397 net.cpp:100] Creating Layer res5c_relu
I0821 14:20:32.199122 21397 net.cpp:444] res5c_relu <- res5c
I0821 14:20:32.199127 21397 net.cpp:405] res5c_relu -> res5c (in-place)
I0821 14:20:32.199405 21397 net.cpp:150] Setting up res5c_relu
I0821 14:20:32.199416 21397 net.cpp:157] Top shape: 1 2048 14 14 (401408)
I0821 14:20:32.199419 21397 net.cpp:165] Memory required for data: 389165068
I0821 14:20:32.199424 21397 layer_factory.hpp:77] Creating layer rpn_conv/3x3
I0821 14:20:32.199435 21397 net.cpp:100] Creating Layer rpn_conv/3x3
I0821 14:20:32.199441 21397 net.cpp:444] rpn_conv/3x3 <- res4b22_res4b22_relu_0_split_2
I0821 14:20:32.199450 21397 net.cpp:418] rpn_conv/3x3 -> rpn/output
I0821 14:20:32.258852 21397 net.cpp:150] Setting up rpn_conv/3x3
I0821 14:20:32.258896 21397 net.cpp:157] Top shape: 1 512 14 14 (100352)
I0821 14:20:32.258900 21397 net.cpp:165] Memory required for data: 389566476
I0821 14:20:32.258913 21397 layer_factory.hpp:77] Creating layer rpn_relu/3x3
I0821 14:20:32.258924 21397 net.cpp:100] Creating Layer rpn_relu/3x3
I0821 14:20:32.258930 21397 net.cpp:444] rpn_relu/3x3 <- rpn/output
I0821 14:20:32.258940 21397 net.cpp:405] rpn_relu/3x3 -> rpn/output (in-place)
I0821 14:20:32.259248 21397 net.cpp:150] Setting up rpn_relu/3x3
I0821 14:20:32.259259 21397 net.cpp:157] Top shape: 1 512 14 14 (100352)
I0821 14:20:32.259263 21397 net.cpp:165] Memory required for data: 389967884
I0821 14:20:32.259268 21397 layer_factory.hpp:77] Creating layer rpn/output_rpn_relu/3x3_0_split
I0821 14:20:32.259274 21397 net.cpp:100] Creating Layer rpn/output_rpn_relu/3x3_0_split
I0821 14:20:32.259279 21397 net.cpp:444] rpn/output_rpn_relu/3x3_0_split <- rpn/output
I0821 14:20:32.259287 21397 net.cpp:418] rpn/output_rpn_relu/3x3_0_split -> rpn/output_rpn_relu/3x3_0_split_0
I0821 14:20:32.259296 21397 net.cpp:418] rpn/output_rpn_relu/3x3_0_split -> rpn/output_rpn_relu/3x3_0_split_1
I0821 14:20:32.259356 21397 net.cpp:150] Setting up rpn/output_rpn_relu/3x3_0_split
I0821 14:20:32.259361 21397 net.cpp:157] Top shape: 1 512 14 14 (100352)
I0821 14:20:32.259366 21397 net.cpp:157] Top shape: 1 512 14 14 (100352)
I0821 14:20:32.259369 21397 net.cpp:165] Memory required for data: 390770700
I0821 14:20:32.259373 21397 layer_factory.hpp:77] Creating layer rpn_cls_score
I0821 14:20:32.259387 21397 net.cpp:100] Creating Layer rpn_cls_score
I0821 14:20:32.259392 21397 net.cpp:444] rpn_cls_score <- rpn/output_rpn_relu/3x3_0_split_0
I0821 14:20:32.259399 21397 net.cpp:418] rpn_cls_score -> rpn_cls_score
I0821 14:20:32.261389 21397 net.cpp:150] Setting up rpn_cls_score
I0821 14:20:32.261404 21397 net.cpp:157] Top shape: 1 18 14 14 (3528)
I0821 14:20:32.261407 21397 net.cpp:165] Memory required for data: 390784812
I0821 14:20:32.261415 21397 layer_factory.hpp:77] Creating layer rpn_bbox_pred
I0821 14:20:32.261442 21397 net.cpp:100] Creating Layer rpn_bbox_pred
I0821 14:20:32.261447 21397 net.cpp:444] rpn_bbox_pred <- rpn/output_rpn_relu/3x3_0_split_1
I0821 14:20:32.261457 21397 net.cpp:418] rpn_bbox_pred -> rpn_bbox_pred
I0821 14:20:32.263411 21397 net.cpp:150] Setting up rpn_bbox_pred
I0821 14:20:32.263424 21397 net.cpp:157] Top shape: 1 36 14 14 (7056)
I0821 14:20:32.263428 21397 net.cpp:165] Memory required for data: 390813036
I0821 14:20:32.263437 21397 layer_factory.hpp:77] Creating layer rpn_cls_score_reshape
I0821 14:20:32.263449 21397 net.cpp:100] Creating Layer rpn_cls_score_reshape
I0821 14:20:32.263464 21397 net.cpp:444] rpn_cls_score_reshape <- rpn_cls_score
I0821 14:20:32.263474 21397 net.cpp:418] rpn_cls_score_reshape -> rpn_cls_score_reshape
I0821 14:20:32.263509 21397 net.cpp:150] Setting up rpn_cls_score_reshape
I0821 14:20:32.263516 21397 net.cpp:157] Top shape: 1 2 126 14 (3528)
I0821 14:20:32.263520 21397 net.cpp:165] Memory required for data: 390827148
I0821 14:20:32.263523 21397 layer_factory.hpp:77] Creating layer rpn_cls_prob
I0821 14:20:32.263532 21397 net.cpp:100] Creating Layer rpn_cls_prob
I0821 14:20:32.263536 21397 net.cpp:444] rpn_cls_prob <- rpn_cls_score_reshape
I0821 14:20:32.263542 21397 net.cpp:418] rpn_cls_prob -> rpn_cls_prob
I0821 14:20:32.264163 21397 net.cpp:150] Setting up rpn_cls_prob
I0821 14:20:32.264178 21397 net.cpp:157] Top shape: 1 2 126 14 (3528)
I0821 14:20:32.264183 21397 net.cpp:165] Memory required for data: 390841260
I0821 14:20:32.264186 21397 layer_factory.hpp:77] Creating layer rpn_cls_prob_reshape
I0821 14:20:32.264194 21397 net.cpp:100] Creating Layer rpn_cls_prob_reshape
I0821 14:20:32.264199 21397 net.cpp:444] rpn_cls_prob_reshape <- rpn_cls_prob
I0821 14:20:32.264209 21397 net.cpp:418] rpn_cls_prob_reshape -> rpn_cls_prob_reshape
I0821 14:20:32.264237 21397 net.cpp:150] Setting up rpn_cls_prob_reshape
I0821 14:20:32.264246 21397 net.cpp:157] Top shape: 1 18 14 14 (3528)
I0821 14:20:32.264250 21397 net.cpp:165] Memory required for data: 390855372
I0821 14:20:32.264255 21397 layer_factory.hpp:77] Creating layer proposal
I0821 14:20:32.265051 21397 net.cpp:100] Creating Layer proposal
I0821 14:20:32.265064 21397 net.cpp:444] proposal <- rpn_cls_prob_reshape
I0821 14:20:32.265070 21397 net.cpp:444] proposal <- rpn_bbox_pred
I0821 14:20:32.265075 21397 net.cpp:444] proposal <- im_info
I0821 14:20:32.265082 21397 net.cpp:418] proposal -> rois
I0821 14:20:32.266705 21397 net.cpp:150] Setting up proposal
I0821 14:20:32.266722 21397 net.cpp:157] Top shape: 1 5 (5)
I0821 14:20:32.266726 21397 net.cpp:165] Memory required for data: 390855392
I0821 14:20:32.266731 21397 layer_factory.hpp:77] Creating layer rois_proposal_0_split
I0821 14:20:32.266738 21397 net.cpp:100] Creating Layer rois_proposal_0_split
I0821 14:20:32.266743 21397 net.cpp:444] rois_proposal_0_split <- rois
I0821 14:20:32.266750 21397 net.cpp:418] rois_proposal_0_split -> rois_proposal_0_split_0
I0821 14:20:32.266759 21397 net.cpp:418] rois_proposal_0_split -> rois_proposal_0_split_1
I0821 14:20:32.266814 21397 net.cpp:150] Setting up rois_proposal_0_split
I0821 14:20:32.266821 21397 net.cpp:157] Top shape: 1 5 (5)
I0821 14:20:32.266825 21397 net.cpp:157] Top shape: 1 5 (5)
I0821 14:20:32.266829 21397 net.cpp:165] Memory required for data: 390855432
I0821 14:20:32.266832 21397 layer_factory.hpp:77] Creating layer conv_new_1
I0821 14:20:32.266841 21397 net.cpp:100] Creating Layer conv_new_1
I0821 14:20:32.266845 21397 net.cpp:444] conv_new_1 <- res5c
I0821 14:20:32.266852 21397 net.cpp:418] conv_new_1 -> conv_new_1
I0821 14:20:32.293712 21397 net.cpp:150] Setting up conv_new_1
I0821 14:20:32.293730 21397 net.cpp:157] Top shape: 1 1024 14 14 (200704)
I0821 14:20:32.293735 21397 net.cpp:165] Memory required for data: 391658248
I0821 14:20:32.293742 21397 layer_factory.hpp:77] Creating layer conv_new_1_relu
I0821 14:20:32.293748 21397 net.cpp:100] Creating Layer conv_new_1_relu
I0821 14:20:32.293753 21397 net.cpp:444] conv_new_1_relu <- conv_new_1
I0821 14:20:32.293761 21397 net.cpp:405] conv_new_1_relu -> conv_new_1 (in-place)
I0821 14:20:32.294317 21397 net.cpp:150] Setting up conv_new_1_relu
I0821 14:20:32.294332 21397 net.cpp:157] Top shape: 1 1024 14 14 (200704)
I0821 14:20:32.294335 21397 net.cpp:165] Memory required for data: 392461064
I0821 14:20:32.294340 21397 layer_factory.hpp:77] Creating layer conv_new_1_conv_new_1_relu_0_split
I0821 14:20:32.294348 21397 net.cpp:100] Creating Layer conv_new_1_conv_new_1_relu_0_split
I0821 14:20:32.294353 21397 net.cpp:444] conv_new_1_conv_new_1_relu_0_split <- conv_new_1
I0821 14:20:32.294364 21397 net.cpp:418] conv_new_1_conv_new_1_relu_0_split -> conv_new_1_conv_new_1_relu_0_split_0
I0821 14:20:32.294379 21397 net.cpp:418] conv_new_1_conv_new_1_relu_0_split -> conv_new_1_conv_new_1_relu_0_split_1
I0821 14:20:32.294432 21397 net.cpp:150] Setting up conv_new_1_conv_new_1_relu_0_split
I0821 14:20:32.294440 21397 net.cpp:157] Top shape: 1 1024 14 14 (200704)
I0821 14:20:32.294445 21397 net.cpp:157] Top shape: 1 1024 14 14 (200704)
I0821 14:20:32.294447 21397 net.cpp:165] Memory required for data: 394066696
I0821 14:20:32.294451 21397 layer_factory.hpp:77] Creating layer rfcn_cls_new_1
I0821 14:20:32.294466 21397 net.cpp:100] Creating Layer rfcn_cls_new_1
I0821 14:20:32.294471 21397 net.cpp:444] rfcn_cls_new_1 <- conv_new_1_conv_new_1_relu_0_split_0
I0821 14:20:32.294477 21397 net.cpp:418] rfcn_cls_new_1 -> rfcn_cls_new_1
I0821 14:20:32.297279 21397 net.cpp:150] Setting up rfcn_cls_new_1
I0821 14:20:32.297304 21397 net.cpp:157] Top shape: 1 98 14 14 (19208)
I0821 14:20:32.297309 21397 net.cpp:165] Memory required for data: 394143528
I0821 14:20:32.297317 21397 layer_factory.hpp:77] Creating layer rfcn_bbox
I0821 14:20:32.297329 21397 net.cpp:100] Creating Layer rfcn_bbox
I0821 14:20:32.297334 21397 net.cpp:444] rfcn_bbox <- conv_new_1_conv_new_1_relu_0_split_1
I0821 14:20:32.297355 21397 net.cpp:418] rfcn_bbox -> rfcn_bbox
I0821 14:20:32.304020 21397 net.cpp:150] Setting up rfcn_bbox
I0821 14:20:32.304036 21397 net.cpp:157] Top shape: 1 392 14 14 (76832)
I0821 14:20:32.304040 21397 net.cpp:165] Memory required for data: 394450856
I0821 14:20:32.304049 21397 layer_factory.hpp:77] Creating layer psroipooled_cls_rois
I0821 14:20:32.304056 21397 net.cpp:100] Creating Layer psroipooled_cls_rois
I0821 14:20:32.304066 21397 net.cpp:444] psroipooled_cls_rois <- rfcn_cls_new_1
I0821 14:20:32.304072 21397 net.cpp:444] psroipooled_cls_rois <- rois_proposal_0_split_0
I0821 14:20:32.304078 21397 net.cpp:418] psroipooled_cls_rois -> psroipooled_cls_rois
I0821 14:20:32.304088 21397 psroi_pooling_layer.cpp:26] Spatial scale: 0.0625
I0821 14:20:32.304152 21397 net.cpp:150] Setting up psroipooled_cls_rois
I0821 14:20:32.304158 21397 net.cpp:157] Top shape: 1 2 7 7 (98)
I0821 14:20:32.304162 21397 net.cpp:165] Memory required for data: 394451248
I0821 14:20:32.304165 21397 layer_factory.hpp:77] Creating layer ave_cls_score_rois
I0821 14:20:32.304172 21397 net.cpp:100] Creating Layer ave_cls_score_rois
I0821 14:20:32.304177 21397 net.cpp:444] ave_cls_score_rois <- psroipooled_cls_rois
I0821 14:20:32.304185 21397 net.cpp:418] ave_cls_score_rois -> cls_score
I0821 14:20:32.304762 21397 net.cpp:150] Setting up ave_cls_score_rois
I0821 14:20:32.304776 21397 net.cpp:157] Top shape: 1 2 1 1 (2)
I0821 14:20:32.304780 21397 net.cpp:165] Memory required for data: 394451256
I0821 14:20:32.304783 21397 layer_factory.hpp:77] Creating layer psroipooled_loc_rois
I0821 14:20:32.304793 21397 net.cpp:100] Creating Layer psroipooled_loc_rois
I0821 14:20:32.304798 21397 net.cpp:444] psroipooled_loc_rois <- rfcn_bbox
I0821 14:20:32.304805 21397 net.cpp:444] psroipooled_loc_rois <- rois_proposal_0_split_1
I0821 14:20:32.304812 21397 net.cpp:418] psroipooled_loc_rois -> psroipooled_loc_rois
I0821 14:20:32.304821 21397 psroi_pooling_layer.cpp:26] Spatial scale: 0.0625
I0821 14:20:32.304864 21397 net.cpp:150] Setting up psroipooled_loc_rois
I0821 14:20:32.304872 21397 net.cpp:157] Top shape: 1 8 7 7 (392)
I0821 14:20:32.304874 21397 net.cpp:165] Memory required for data: 394452824
I0821 14:20:32.304877 21397 layer_factory.hpp:77] Creating layer ave_bbox_pred_rois
I0821 14:20:32.304885 21397 net.cpp:100] Creating Layer ave_bbox_pred_rois
I0821 14:20:32.304890 21397 net.cpp:444] ave_bbox_pred_rois <- psroipooled_loc_rois
I0821 14:20:32.304895 21397 net.cpp:418] ave_bbox_pred_rois -> bbox_pred_pre
I0821 14:20:32.305477 21397 net.cpp:150] Setting up ave_bbox_pred_rois
I0821 14:20:32.305492 21397 net.cpp:157] Top shape: 1 8 1 1 (8)
I0821 14:20:32.305496 21397 net.cpp:165] Memory required for data: 394452856
I0821 14:20:32.305500 21397 layer_factory.hpp:77] Creating layer cls_prob
I0821 14:20:32.305516 21397 net.cpp:100] Creating Layer cls_prob
I0821 14:20:32.305521 21397 net.cpp:444] cls_prob <- cls_score
I0821 14:20:32.305526 21397 net.cpp:418] cls_prob -> cls_prob_pre
I0821 14:20:32.305892 21397 net.cpp:150] Setting up cls_prob
I0821 14:20:32.305903 21397 net.cpp:157] Top shape: 1 2 1 1 (2)
I0821 14:20:32.305907 21397 net.cpp:165] Memory required for data: 394452864
I0821 14:20:32.305910 21397 layer_factory.hpp:77] Creating layer cls_prob_reshape
I0821 14:20:32.305919 21397 net.cpp:100] Creating Layer cls_prob_reshape
I0821 14:20:32.305924 21397 net.cpp:444] cls_prob_reshape <- cls_prob_pre
I0821 14:20:32.305933 21397 net.cpp:418] cls_prob_reshape -> cls_prob
I0821 14:20:32.305964 21397 net.cpp:150] Setting up cls_prob_reshape
I0821 14:20:32.305970 21397 net.cpp:157] Top shape: 1 2 (2)
I0821 14:20:32.305974 21397 net.cpp:165] Memory required for data: 394452872
I0821 14:20:32.305979 21397 layer_factory.hpp:77] Creating layer bbox_pred_reshape
I0821 14:20:32.305987 21397 net.cpp:100] Creating Layer bbox_pred_reshape
I0821 14:20:32.305992 21397 net.cpp:444] bbox_pred_reshape <- bbox_pred_pre
I0821 14:20:32.305997 21397 net.cpp:418] bbox_pred_reshape -> bbox_pred
I0821 14:20:32.306023 21397 net.cpp:150] Setting up bbox_pred_reshape
I0821 14:20:32.306030 21397 net.cpp:157] Top shape: 1 8 (8)
I0821 14:20:32.306032 21397 net.cpp:165] Memory required for data: 394452904
I0821 14:20:32.306036 21397 net.cpp:228] bbox_pred_reshape does not need backward computation.
I0821 14:20:32.306041 21397 net.cpp:228] cls_prob_reshape does not need backward computation.
I0821 14:20:32.306044 21397 net.cpp:228] cls_prob does not need backward computation.
I0821 14:20:32.306047 21397 net.cpp:228] ave_bbox_pred_rois does not need backward computation.
…
